results/perceptual_mse_adversarial/mnist_manipulable_ae_state_dict.pth (torch, 8754 bytes, 12 tensors)

manipulable_encoder.0.weight f4 [16, 16]
-0.20934379 -0.082470566 0.10605764 0.36843845 0.9599991 -0.7098411 1.2638085 0.13711606
-0.09938321 0.030523028 -0.68517774 -1.4446133 0.059204612 0.009703645 -0.20262896 0.10620266
-0.010635622 0.3573221 -0.18443283 -0.07829404 -0.35881066 0.26901808 -0.5562626 0.48557046
-0.2111063 0.23111062 0.16337742 1.0165898 0.026941493 -0.6434003 0.23069634 -0.32014596
-0.20757431 -0.07239127 0.4169556 -0.20554954 0.5738325 -0.0022206455 0.31766897 -0.5867621
0.40577817 -0.6857242 -0.29054978 0.21315956 0.07071556 0.36193103 -1.6276175 0.9960495
-0.4126671 0.4107235 -0.013663412 0.6737234 0.47096044 -1.137735 -0.40431613 -1.0951202
-0.1617195 -0.4504997 0.88765395 0.021515438 0.5298218 0.91828376 1.3353333 -1.0753667
-0.6069148 0.02803332 -0.013060193 -0.18202168 0.04572278 0.42020565 0.72310567 0.796545
0.4978618 -0.40052566 -0.27545667 -1.1234347 -0.3183144 -1.2388515 -0.27135596 -0.20806286
-0.09485364 -0.31285736 -1.2035921 -0.7425566 -3.3345892 -0.2591406 -0.41851684 -0.5292837
0.40671253 -0.9834209 1.1278257 0.7127217 -0.52341235 0.81754637 0.4701603 -0.7292526
0.34189287 -0.18422785 0.1723622 -1.0124428 2.1354415 0.6247727 0.34254637 -0.76218486
0.030453824 -1.6999732 0.9896804 1.4458997 0.022922374 0.737317 -1.9561142 0.67930824
-0.6042173 -0.7807633 0.33994353 -0.6915109 0.91663325 -0.27136788 0.97757435 -0.61696005
0.1554061 -1.3188604 0.37741107 1.3398665 0.71485895 0.035468936 -1.1845759 0.99455196
0.17748427 0.025296528 0.018814929 0.0012223703 -0.013458674 0.11450249 0.1391321 -0.25096866
-0.101868875 -0.17936186 -0.025164224 0.28845367 0.110886954 -1.2863578 -0.099976644 -0.10029686
0.074683875 0.11539412 0.1444352 -0.5410813 2.9310546 -0.13599555 -0.3903593 0.43340328
0.24144655 -0.570319 0.17227365 0.2806484 0.12519775 0.46218902 0.18986063 0.6742855
-0.20648237 0.23103745 0.6786497 0.27201328 2.90308 0.35044912 0.05811623 0.2623796
-0.105716914 -0.08891075 -0.2558052 0.587724 0.23082979 -1.0019912 -0.093265764 0.24016705
0.030956488 0.6576448 -0.14252964 -0.090813056 -0.9973357 0.5647268 -0.6361775 1.5540576
0.41423008 0.95792514 -0.7218189 -1.3450779 -0.40728742 -0.36639258 0.0949857 0.064351395
0.26319155 -0.86760277 0.10564777 -0.12323213 0.8398029 -0.3317477 0.95387745 -0.16547132
0.10667011 -0.013996122 -0.53617287 -0.48435476 0.23681912 -1.4895253 0.714289 -0.33224648
-0.26012883 0.13326566 0.54092765 -0.24449535 2.779424 -0.32616025 -0.1777109 0.08585506
0.102927834 0.2822364 -0.930313 0.7381096 0.3271239 -0.13553236 -0.8438322 1.0803273
0.053642556 0.2801992 -0.1590432 -0.05622365 0.63180053 0.070819736 -0.5739896 0.2567217
-0.13903663 1.3137861 -0.2653806 0.051175613 -0.08872356 -0.3631348 -0.16139491 -0.81285244
-0.41474947 -0.19519693 -0.052501198 -0.16533706 -0.04409559 0.026702167 -0.43322176 -0.07545659
0.5588031 -0.13038251 -0.06113189 0.15020984 0.050610956 -1.2082692 0.10284035 0.2273105
00000000: 385e 56be 54e6 a8bd bf34 d93d f7a3 bc3e
00000010: 80c2 753f 25b8 35bf 7ac4 a13f 2768 0c3e
00000020: 6d89 cbbd 6e0b fa3c cf67 2fbf 17e9 b8bf
00000030: 8980 723d 09fc 1e3c f77d 4fbe c880 d93d
00000040: 0841 2ebc ecf2 b63e f6db 3cbe a058 a0bd
00000050: 08b6 b7be bdbc 893e 3a67 0ebf b19c f83e
00000060: 402c 58be 43a8 6c3e 694c 273e 9d1f 823f
00000070: 68b4 dc3c e2b5 24bf a93b 6c3e 2cea a3be
00000080: 5c8e 54be e041 94bd 347b d53e 947b 52be
00000090: b0e6 123f 4088 11bb 82a5 a23e 0a36 16bf
000000a0: 28c2 cf3e 9f8b 2fbf f1c2 94be 8046 5a3e
000000b0: 52d3 903d 064f b93e c555 d0bf 1afd 7e3f
000000c0: 1a49 d3be 5a4a d23e 81dc 5fbc 2379 2c3f
000000d0: ba21 f13e 4da1 91bf 8602 cfbe e62c 8cbf
000000e0: cc99 25be e6a7 e6be 4a3d 633f 2541 b03c
000000f0: 67a2 073f a514 6b3f 34ec aa3f 9ea5 89bf
00000100: c55e 1bbf 22a6 e53c 6bfa 55bc e463 3abe
00000110: cf47 3b3d 3225 d73e 741d 393f 60ea 4b3f
00000120: bee7 fe3e b311 cdbe a808 8dbe b5cc 8fbf
00000130: 1bfa a2be b092 9ebf 2bef 8abe 6e0e 55be
00000140: a042 c2bd d72e a0be 4e0f 9abf 3018 3ebf
00000150: e969 55c0 14ae 84be d747 d6be 237f 07bf
00000160: a03c d03e 79c1 7bbf 985c 903f ee74 363f
00000170: 5afe 05bf b84a 513f dab8 f03e 4cb0 3abf
00000180: 950c af3e 3aa6 3cbe b77f 303e ba97 81bf
00000190: 13ab 0840 1bf1 1f3f 3d62 af3e 8c1e 43bf
000001a0: 4c7a f93c b998 d9bf b25b 7d3f 3e13 b93f
000001b0: b4c7 bb3c cfc0 3c3f f361 fabf 25e7 2d3f
000001c0: fcad 1abf 1be0 47bf 140d ae3e dc06 31bf
000001d0: 7aa8 6a3f bbf0 8abe 5042 7a3f 18f1 1dbf
000001e0: c722 1f3e 6bd0 a8bf 063c c13e bf80 ab3f
000001f0: ff00 373f e047 113d 2fa0 97bf f59a 7e3f
00000200: 70be 353e aa3a cf3c c421 9a3c f137 a03a
00000210: c581 5cbc 4880 ea3d a578 0e3e f77e 80be
00000220: a1a0 d0bd a3aa 37be 3425 cebc 33b0 933e
00000230: b318 e33d 5fa7 a4bf 8ec0 ccbd 7168 cdbd
00000240: dcf3 983d c153 ec3d d2e6 133e 4e84 0abf
00000250: 6696 3b40 6b42 0bbe 2ddd c7be 09e7 dd3e
00000260: c43d 773e 6d00 12bf 8168 303e 26b1 8f3e
00000270: d733 003e 0aa4 ec3e d36a 423e f99d 2c3f
00000280: 1d70 53be 1595 6c3e fdbb 2d3f 5345 8b3e
00000290: 10cc 3940 116e b33e 490b 6e3d 9e56 863e
000002a0: 1c82 d8bd d716 b6bd e6f8 82be 1475 163f
000002b0: a55e 6c3e 3f41 80bf 1f02 bfbd 5aee 753e
000002c0: 7698 fd3c 695b 283f 4af3 11be 32fc b9bd
000002d0: 6451 7fbf f091 103f 87dc 22bf 5ceb c63f
000002e0: f715 d43e 953a 753f 20c9 38bf 832b acbf
000002f0: fa87 d0be cf97 bbbe dd87 c23d aaca 833d
00000300: 0bc1 863e 371b 5ebf dc5d d83d 2161 fcbd
00000310: 53fd 563f d6da a9be 5031 743f 5071 29be
00000320: dc75 da3d fe4f 65bc a042 09bf 59fd f7be
00000330: b680 723e c4a8 bebf a5db 363f 361c aabe
00000340: 9b2f 85be cb76 083e 3c7a 0a3f fd5c 7abe
00000350: 15e2 3140 7afe a6be d9f9 35be c7d4 af3d
00000360: d4cb d23d 4a81 903e fe28 6ebf c0f4 3c3f
00000370: c97c a73e ffc8 0abe 6305 58bf 2a48 8a3f
00000380: 4cb8 5b3d 4576 8f3e 38dc 22be c54a 66bd
00000390: aebd 213f f009 913d fcf0 12bf 0771 833e
000003a0: 9e5f 0ebe 252a a83f f7df 87be 859d 513d
000003b0: b3b4 b5bd ceec b9be b544 25be 1917 50bf
000003c0: 0b5a d4be b4e1 47be 7f0b 57bd 1e4e 29be
000003d0: 949d 34bd 81be da3c 3ecf ddbe fc88 9abd
000003e0: b80d 0f3f fe82 05be 6f65 7abd 9cd0 193e
000003f0: 6f4d 4f3d 91a8 9abf f69d d23d 15c4 683e

manipulable_encoder.0.bias f4 [16]
1.6107391 0.36525458 -1.1919851 0.6286949 -0.13548286 -0.74352753 -2.7246034 2.499808
5.653608 -1.2567168 -2.1897943 -1.6836824 2.1524212 2.499355 -0.99126446 -0.8774274
00000000: b32c ce3f a602 bb3e f892 98bf 26f2 203f
00000010: 05bc 0abe d257 3ebf e75f 2ec0 dbfc 1f40
00000020: 5bea b440 19dc a0bf 9725 0cc0 e882 d7bf
00000030: 45c1 0940 6ff5 1f40 82c3 7dbf 159f 60bf

manipulable_encoder.2.weight f4 [8, 16]
-2.7049646 -0.7238914 0.031244025 -0.8705614 0.28538278 -0.094240844 -0.3086382 0.3248895
0.27178624 -0.08607945 0.037737217 -0.11641056 -0.251146 0.21654364 -0.8155191 0.63229096
0.2581691 -0.2046071 -0.6885106 -1.5428568 0.64003026 -0.94852805 -1.7771125 -1.7733264
-0.07994651 0.26897794 0.0077866334 0.68544704 -0.7315324 0.42737043 0.062295113 0.7269521
-0.641237 -0.30435017 1.14606 -0.21343595 0.6947985 0.16904762 -1.6263616 -0.2475176
1.5364406 0.035590418 0.37830812 0.26242 -0.8120498 -0.5807414 -0.060905207 0.31624916
0.16267718 0.67321086 0.27940696 -0.4502728 0.15759127 -0.48409736 1.5852867 0.63104546
0.3203141 0.024550125 -0.7042052 -1.5818855 -0.04049342 0.19587786 -1.329996 0.46414462
-0.22313906 0.254042 0.33859733 -0.4277325 -0.07318219 -0.08421682 1.6083642 0.6769294
-0.29881608 0.115075484 -0.108926706 -1.5452003 0.34112084 -0.25712958 -0.11354313 0.2265386
0.16276412 0.24693319 -0.3874622 0.048090402 0.50557256 -0.03850988 -0.14862397 0.3349958
0.49959248 0.42415264 -0.009083588 0.34703362 0.6456547 0.6685353 0.22365022 0.21328495
0.07993687 0.15401576 1.0721254 -0.17045571 0.07028868 0.21768746 -0.84751666 -0.14649065
0.8204582 -0.5232003 -0.25669923 -0.33254668 0.75112563 -0.27668205 -1.720277 -0.34041566
0.3464374 -0.32429028 -0.7699997 -1.4183989 0.40821686 -0.4396789 -1.5348331 -1.8053863
-0.40936983 -0.121504426 0.27350017 0.62004846 -0.8397022 0.22277042 0.32046 0.6539972
00000000: 241e 2dc0 f250 39bf 78f3 ff3c 1ddd 5ebf
00000010: b11d 923e 5801 c1bd d305 9ebe eb57 a63e
00000020: 9127 8b3e 6c4a b0bd 5792 1a3d a968 eebd
00000030: 3596 80be 9ebd 5d3e dcc5 50bf d2dd 213f
00000040: be2e 843e 8684 51be 3b42 30bf 557c c5bf
00000050: 06d9 233f bcd2 72bf 6c78 e3bf 5cfc e2bf
00000060: ffba a3bd 7ab7 893e 0427 ff3b 7579 2f3f
00000070: b545 3bbf 4cd0 da3e 2929 7f3d 8819 3a3f
00000080: 1c28 24bf c9d3 9bbe 18b2 923f f48e 5abe
00000090: 51de 313f d21a 2d3e 9e2c d0bf 4175 7dbe
000000a0: 16aa c43f 42c7 113d 9ab1 c13e ea5b 863e
000000b0: 7fe2 4fbf 78ab 14bf bd77 79bd 69eb a13e
000000c0: d994 263e 8c57 2c3f 6e0e 8f3e 288a e6be
000000d0: 9b5f 213e 9cdb f7be adea ca3f 328c 213f
000000e0: 3600 a43e 581d c93c cb46 34bf 397b cabf
000000f0: 6edc 25bd 3594 483e 4f3d aabf 5da4 ed3e
00000100: 917e 64be cb11 823e a15c ad3e c1ff dabe
00000110: 8be0 95bd de79 acbd e1de cd3f 3f4b 2d3f
00000120: 6cfe 98be b2ac eb3d f714 dfbd 20c9 c5bf
00000130: 64a7 ae3e 7da6 83be 4d89 e8bd bcf9 673e
00000140: a3ab 263e 0edc 7c3e 7261 c6be 71fa 443d
00000150: 346d 013f 89bc 1dbd e230 18be 9284 ab3e
00000160: 96ca ff3e 892a d93e 54d3 14bc 64ae b13e
00000170: a049 253f 2125 2b3f 9004 653e 5f67 5a3e
00000180: f1b5 a33d 4fb6 1d3e 683b 893f f18b 2ebe
00000190: 83f3 8f3d 76e9 5e3e daf6 58bf a501 16be
000001a0: 8c09 523f 74f0 05bf 156e 83be 8f43 aabe
000001b0: c549 403f 45a9 8dbe 0932 dcbf f64a aebe
000001c0: 3e60 b13e 6009 a6be b31e 45bf 188e b5bf
000001d0: cd01 d13e 981d e1be 6975 c4bf e616 e7bf
000001e0: ec98 d1be 50d7 f8bd 3708 8c3e 7fbb 1e3f
000001f0: b9f6 56bf ee1d 643e 5513 a43e 5c6c 273f

manipulable_encoder.2.bias f4 [8]
1.3640982 0.60116863 2.5692863 2.5581746 -2.2361047 3.1933346 3.5635564 -1.7183524
00000000: c59a ae3f 30e6 193f 306f 2440 22b9 2340
00000010: 571c 0fc0 985f 4c40 4f11 6440 f9f2 dbbf

manipulable_encoder.4.weight f4 [2, 8]
0.05961534 0.91782665 -0.3589216 -0.93125135 0.87927836 -0.46893293 -0.5280678 -0.84172285
0.67089903 -0.903902 -0.6249613 -0.048031013 -0.051489986 -0.33789167 -0.63178605 1.0699174
00000000: 372f 743d b0f6 6a3f 92c4 b7be 7d66 6ebf
00000010: 6318 613f fa17 f0be 742f 07bf 267b 57bf
00000020: 0ac0 2b3f 1f66 67bf 77fd 1fbf 2bbc 44bd
00000030: 2ae7 52bd 2300 adbe bbbc 21bf 0ef3 883f

manipulable_encoder.4.bias f4 [2]
-1.2594093 -1.7629894
00000000: 5334 a1bf a3a9 e1bf

manipulable_decoder.0.weight f4 [8, 2]
-0.7023181 0.37057492 1.1015669 -0.9264333 -0.52442414 0.3395839 -1.1297072 0.9989176
-0.9927798 1.6214128 0.7834004 -0.52031195 -0.60323936 -0.0773607 -0.6803236 -0.7181407
00000000: 1ecb 33bf ffbb bd3e 2500 8d3f bc2a 6dbf
00000010: a940 06bf f1dd ad3e 3f9a 90bf 10b9 7f3f
00000020: d126 7ebf 748a cf3f ee8c 483f 2a33 05bf
00000030: e56d 1abf 496f 9ebd b029 2ebf 12d8 37bf

manipulable_decoder.0.bias f4 [8]
0.2885005 0.3360206 -1.2450985 1.1669661 -0.9727686 1.8057681 -2.9151368 -1.4662973
00000000: 56b6 933e e40a ac3e 635f 9fbf 255f 953f
00000010: 5d07 79bf 6923 e73f 9a91 3ac0 a1af bbbf

manipulable_decoder.2.weight f4 [16, 8]
0.29697642 -1.0124705 -0.5728904 1.4295743 -2.4286845 -0.97847116 1.1286491 -2.6155462
-0.22784814 -1.4653982 -1.3327056 -0.3994364 -0.5104482 1.044474 -0.7403681 -0.25324172
0.26671168 0.9727853 1.027191 -1.3205566 -0.16521312 1.6033512 2.7531185 -1.1819412
-0.1902177 0.2748622 -1.1154288 -2.2271185 -1.3724579 -1.2160995 -1.1659058 1.1373821
-0.41066003 0.57009727 0.85636467 0.9765095 0.2043576 0.15386915 1.6898084 -0.51994133
0.07528331 -1.1449577 -0.47379807 0.29879457 -0.72889173 -0.2742574 -0.320773 -0.3899981
0.62307775 -1.4444573 -0.10272797 1.4468673 -1.1135677 -2.6260412 -0.7323183 0.019222414
-0.49241367 -0.39429003 -0.040839724 -0.2775546 -1.782369 -0.5789886 -0.04240794 1.1726836
-3.0816262 1.7508941 0.6410065 0.531875 0.068297856 -0.029367594 1.0466989 0.22446531
0.31068012 -1.3400836 1.1248158 0.36041793 -1.6518186 1.1710136 0.6565177 -1.0989283
-2.2259297 1.006429 -0.19793516 0.9160102 0.24333644 0.3778576 -0.9693691 -0.25897983
0.9678466 0.2474663 0.4764515 -3.1649454 -0.87193686 -0.52726513 -2.269347 0.12353501
0.033558853 -0.16036393 -0.89459944 -3.2259765 -1.2077982 0.26584867 -1.6374149 0.13349667
0.23061407 -1.5028833 -0.8425612 -0.31201136 0.034949973 0.13096274 0.19166245 0.43521872
0.29789272 -1.3375468 0.6157317 0.8959828 1.1086645 -0.512205 -1.7449313 -1.2221743
-1.6634794 -0.97357285 -0.54707783 -1.7411077 0.2752701 1.4765521 -2.3255298 -0.74512964
00000000: 4b0d 983e a298 81bf f2a8 12bf 4afc b63f
00000010: 916f 1bc0 167d 7abf 9377 903f 1c65 27c0
00000020: 0651 69be 2b92 bbbf 1996 aabf ee82 ccbe
00000030: bcac 02bf 53b1 853f c488 3dbf e6a8 81be
00000040: 6f8e 883e 7508 793f ff7a 833f 0008 a9bf
00000050: a12d 29be 9d3a cd3f 1833 3040 d949 97bf
00000060: 6ec8 42be bdba 8c3e 5fc6 8ebf 1c89 0ec0
00000070: b3ac afbf 26a9 9bbf 673c 95bf bd95 913f
00000080: 0842 d2be e5f1 113f b73a 5b3f 87fc 793f
00000090: 1e43 513e e08f 1d3e a44b d83f e01a 05bf
000000a0: 232e 9a3d f98d 92bf a995 f2be 9afb 983e
000000b0: a698 3abf 776b 8cbe 5c3c a4be d5ad c7be
000000c0: 0682 1f3f fae3 b8bf 0b63 d2bd f332 b93f
000000d0: 6389 8ebf 0f11 28c0 3679 3bbf 5378 9d3c
000000e0: a51d fcbe 62e0 c9be 8e47 27bd a31b 8ebe
000000f0: ab24 e4bf 9938 14bf f3b3 2dbd 7f1a 963f
00000100: 5d39 45c0 4c1d e03f 0119 243f f628 083f
00000110: bfdf 8b3d 4f94 f0bc 3bfa 853f 3cda 653e
00000120: 7711 9f3e dc87 abbf f7f9 8f3f b388 b83e
00000130: cb6e d3bf c6e3 953f 8b11 283f afa9 8cbf
00000140: a275 0ec0 aad2 803f 84af 4abe a57f 6a3f
00000150: 302d 793e 8d76 c13e 9328 78bf 0199 84be
00000160: cbc4 773f ce67 7d3e 73f1 f33e 778e 4ac0
00000170: 4137 5fbf d9fa 06bf fb3c 11c0 ecff fc3d
00000180: 0275 093d 7136 24be 7804 65bf 6676 4ec0
00000190: 2299 9abf 511d 883e d096 d1bf 5ab3 083e
000001a0: 1826 6c3e 7b5e c0bf 17b2 57bf f4bf 9fbe
000001b0: b427 0f3d 191b 063e 2943 443e fdd4 de3e
000001c0: 6585 983e bc34 abbf 98a0 1d3f 215f 653f
000001d0: b8e8 8d3f de1f 03bf e959 dfbf 3570 9cbf
000001e0: e5ec d4bf 123c 79bf 4b0d 0cbf 9edc debf
000001f0: 34f0 8c3e a9ff bc3f 7bd5 14c0 d1c0 3ebf

manipulable_decoder.2.bias f4 [16]
2.141315 -0.61814666 -2.66757 1.8237344 -2.1524832 1.614179 -1.2132084 -2.925024
-0.66381335 1.5629047 -0.06474389 1.5815942 3.6880224 1.9499117 0.8462172 2.6368935
00000000: 4e0b 0940 dc3e 1ebf 78b9 2ac0 2170 e93f
00000010: 49c2 09c0 6b9d ce3f 6a4a 9bbf 9833 3bc0
00000020: acef 29bf 430d c83f 7298 84bd ae71 ca3f
00000030: 8f08 6c40 b596 f93f b1a1 583f ddc2 2840

manipulable_decoder.4.weight f4 [16, 16]
2.724324 -0.5387919 1.0291972 2.1569862 -0.15136352 -0.7351252 1.649393 -0.37241557
-0.42854708 -0.73383725 0.28389236 -0.67436403 -0.42005074 0.26866162 -0.5070909 1.5007005
1.0497665 -0.27085522 -0.116064675 0.97425234 1.0931914 0.519569 1.7264214 -1.6982507
-0.59139526 2.3310208 -0.47954968 1.4790556 1.9147403 -0.28814417 -1.3419456 -1.6694247
0.023847174 -0.085347 -0.12730053 -0.011025792 0.043279216 0.016964355 0.0046751387 0.022157412
0.010235331 -0.08331396 0.0064587127 0.02215941 -0.02731207 -0.01707922 -0.03279812 0.098955356
0.81851834 -1.1075516 0.5134247 -0.37889272 0.92321664 -0.92212206 0.77647275 -0.4444456
-2.751101 -1.2184936 -1.996897 3.344862 1.9662313 0.5075619 0.23270592 -0.030392881
-0.0017345212 0.00028148614 -0.0006020321 -0.00019445382 -0.00023041498 -0.00086476863 -0.0014262031 -0.0006373538
0.001205297 -0.0051415176 0.0007126752 -0.0006979075 -0.00011383641 -0.00062517455 0.0020901982 0.0006614718
2.7766557 0.42724812 -3.1298409 -0.5036412 -1.1705589 -0.5050086 0.28926736 1.8659867
1.7091614 -0.7029898 0.94366235 0.43554 0.90094364 -0.57001626 1.7953784 -0.54170555
1.219201 -0.43792528 -2.7872162 1.4085109 -0.00037254693 1.2339547 1.8709115 0.6632974
0.792252 -0.95957834 0.88655204 -1.19779 -0.041228227 -0.027807549 -1.3313042 1.2972578
-1.3189534 1.3382448 0.12944685 0.70225537 -0.13587837 0.47337568 0.6996333 -1.1243216
1.3033928 1.8812683 1.0733796 -0.97796375 0.106136106 -0.38137558 -0.7201561 -1.0632268
0.0015317642 0.0010844286 0.00027280554 -0.00036214464 -0.0033439123 -0.00074134115 0.00077352766 0.00012872614
-0.0010652062 -2.9870722e-05 -0.0018144313 -0.0016885466 0.00052060117 -0.00034399395 -0.0016158649 0.00091173896
-0.8047738 1.0769511 -1.3698204 -0.0880148 0.25704077 -2.1376958 1.4105711 1.8368431
-1.2404511 2.6138215 -0.14383134 -1.2480111 0.7118002 -1.7009115 0.085016154 3.7179487
2.0276148 0.21324109 -0.89154226 -1.2841285 -0.5612914 1.8530418 -2.8021839 -0.31523228
1.9406615 1.2445271 0.5389458 -0.024824914 -0.077874444 2.329547 0.36277294 -2.3542337
-1.3032069 -0.5615578 -2.588799 2.503073 1.6073639 0.9515968 -0.16061504 -2.8908296
0.929928 2.3786275 2.2176914 -0.98914653 -3.3234386 1.5092174 -1.4719574 1.436991
0.0018013743 0.025164004 0.024362493 0.00022548262 -0.0021076573 -0.0016572326 -0.0024363515 0.0121379895
-0.02171267 -0.019648977 -0.00028066317 -0.005471573 -0.015033717 -0.0565404 -0.009704655 -0.012914582
-9.37455e-05 -0.00084248825 -0.0005626088 -6.0433496e-05 1.1494127e-05 -2.9433375e-05 6.177948e-05 -0.00034510164
0.0006952236 0.00059447845 -0.00035294815 0.00048547442 0.0001618957 0.0014169475 0.0002590474 0.00042681556
-2.323683 0.07154759 0.5404696 1.4697555 -0.33127588 1.4431278 -1.5742823 -1.7489392
-0.42228723 0.5875745 0.18883742 -0.119306155 -0.6590256 2.3681912 0.45343783 -0.16764162
1.4344382 -0.67353773 1.1201065 -1.2960992 0.6465961 -0.5027254 0.8882168 0.8266584
0.89075273 -1.8446702 0.9672292 -0.2758698 1.1673628 1.2074614 0.79397887 0.19296622
00000000: 535b 2e40 44ee 09bf bcbc 833f 100c 0a40
00000010: 0aff 1abe 2a31 3cbf 4f1f d33f 41ad bebe
00000020: 866a dbbe c2dc 3bbf 575a 913e 1fa3 2cbf
00000030: e410 d7be 048e 893e b6d0 01bf f416 c03f
00000040: c05e 863f 89ad 8abe 51b3 edbd 9a68 793f
00000050: b2ed 8b3f 7902 053f 60fb dc3f 4760 d9bf
00000060: ae65 17bf 722f 1540 8987 f5be b251 bd3f
00000070: 3616 f53f a287 93be e0c4 abbf b5af d5bf
00000080: 265b c33c 68ca aebd 125b 02be 86a5 34bc
00000090: 8c45 313d d5f8 8a3c e831 993b 7683 b53c
000000a0: 17b2 273c 82a0 aabd 9ca3 d33b a787 b53c
000000b0: 90bd dfbc b8e9 8bbc 5257 06bd 1ba9 ca3d
000000c0: 6b8a 513f 40c4 8dbf cd6f 033f 3afe c1be
000000d0: ed57 6c3f 3110 6cbf ebc6 463f 608e e3be
000000e0: 0a12 30c0 99f7 9bbf 529a ffbf 3812 5640
000000f0: 78ad fb3f 94ef 013f 764a 6e3e 7efa f8bc
00000100: e058 e3ba 6e94 9339 b1d1 1dba 4de6 4bb9
00000110: 8d9b 71b9 a4b1 62ba 6fef baba 1714 27ba
00000120: 0efb 9d3a 2d7a a8bb d3d2 3a3a c8f3 36ba
00000130: 75bb eeb8 c1e2 23ba b5fb 083b 9f66 2d3a
00000140: bab4 3140 44c0 da3e 504f 48c0 a1ee 00bf
00000150: e0d4 95bf 3e48 01bf da1a 943e a7d8 ee3f
00000160: cdc5 da3f 24f7 33bf db93 713f 19ff de3e
00000170: 3ea4 663f 96ec 11bf f6ce e53f 37ad 0abf
00000180: c70e 9c3f be37 e0be c061 32c0 164a b43f
00000190: 6752 c3b9 3af2 9d3f 077a ef3f dccd 293f
000001a0: 07d1 4a3f eda6 75bf 13f5 623f 2f51 99bf
000001b0: eede 28bd a8cc e3bc 2d68 aabf 8b0c a63f
000001c0: 77d3 a8bf 9b4b ab3f b78d 043e 02c7 333f
000001d0: b323 0bbe 4c5e f23e 2b1b 333f c5e9 8fbf
000001e0: 93d5 a63f 66cd f03f 8164 893f d55b 7abf
000001f0: e35d d93d a943 c3be 265c 38bf d117 88bf
00000200: 7ac5 c83a 6323 8e3a 5707 8f39 3bde bdb9
00000210: 8a25 5bbb 9056 42ba 90c6 4a3a a9fa 0639
00000220: 649e 8bba e392 fab7 36d2 edba 3952 ddba
00000230: f478 083a 165a b4b9 6ecb d3ba c401 6f3a
00000240: a805 4ebf 89d9 893f 4656 afbf 1a41 b4bd
00000250: d99a 833e 02d0 08c0 988d b43f ad1d eb3f
00000260: 1ac7 9ebf da48 2740 8648 13be d4be 9fbf
00000270: 8a38 363f 78b7 d9bf f31c ae3d dff2 6d40
00000280: 71c4 0140 df5b 5a3e 1d3c 64bf 535e a4bf
00000290: cbb0 0fbf 7930 ed3f fb56 33c0 2066 a1be
000002a0: 9967 f83f aa4c 9f3f 5af8 093f 9e5d cbbc
000002b0: a37c 9fbd 4c17 1540 60bd b93e c4ab 16c0
000002c0: 7ccf a6bf 41c2 0fbf e2ae 25c0 5932 2040
000002d0: 1abe cd3f d99b 733f 4578 24be 5a03 39c0
000002e0: c30f 6e3f 6f3b 1840 a8ee 0d40 b538 7dbf
000002f0: 38b3 54c0 092e c13f 1a69 bcbf 52ef b73f
00000300: 171c ec3a be24 ce3c da93 c73c 886f 6c39
00000310: 9f20 0abb 8037 d9ba 32ab 1fbb 6bde 463c
00000320: c5de b1bc e4f6 a0bc f925 93b9 e24a b3bb
00000330: fb4f 76bc e896 67bd 4600 1fbc af97 53bc
00000340: 3b99 c4b8 6eda 5cba 0a7c 13ba f979 7db8
00000350: e6d6 4037 b1e7 f6b7 9b8f 8138 c2ee b4b9
00000360: ab3f 363a c6d6 1b3a e60b b9b9 4687 fe39
00000370: 8cc2 2939 deb8 b93a c1d0 8739 37c6 df39
00000380: 39b7 14c0 8b87 923d 375c 0a3f f320 bc3f
00000390: fe9c a9be 69b8 b83f 1582 c9bf 3ddd dfbf
000003a0: 0836 d8be 486b 163f 995e 413e c956 f4bd
000003b0: e7b5 28bf 7290 1740 0129 e83e 3faa 2bbe
000003c0: ac9b b73f f86c 2cbf a65f 8f3f 94e6 a5bf
000003d0: 5287 253f 9db2 00bf 2d62 633f e39f 533f
000003e0: 5f08 643f 271e ecbf 559c 773f ce3e 8dbe
000003f0: 256c 953f 188e 9a3f 3342 4b3f f098 453e

manipulable_decoder.4.bias f4 [16]
1.1996475 1.2132784 -0.032298293 0.34649512 -0.0059321197 0.8105987 -0.93275505 -0.2660941
-0.001515742 0.552795 4.2779155 2.7656138 0.21356142 -0.005400119 3.5741012 1.4746244
00000000: 0d8e 993f b54c 9b3f 374b 04bd cf67 b13e
00000010: 3a62 c2bb 6583 4f3f 09c9 6ebf 7c3d 88be
00000020: ddab c6ba f983 0d3f afe4 8840 d1ff 3040
00000030: d8af 5a3e 7bf3 b0bb 13be 6440 7ec0 bc3f
