results/perceptual_mse_adversarial/mnist_disc_state_dict.pth (torch, 58856 bytes, 7 tensors)

main.0.weight f4 [8, 1, 3, 3]
000000 f6 c5 49 be 68 ed bc be 0f 1f d5 3e f8 ff 9f bd
       -0.19704422 -0.36899877 0.41625258 -0.07812494
000010 8d c2 dd be 7c 03 fa 3d e2 fe 07 bf 32 6a 7c 3c
       -0.43312493 0.12207696 -0.53123295 0.015406178
000020 c7 94 1b 3e 4c 88 b6 be 08 8a 95 be b3 c6 fc 3c
       0.15193473 -0.3565086 -0.29206872 0.030856466
000030 18 77 bd be bf 10 23 be e7 c7 a0 3e 0e 1a 34 3e
       -0.37004924 -0.15924357 0.31402513 0.17588064
000040 9e 59 06 be f1 a9 99 3e 6b 8c 5c 3e 1b 07 74 3e
       -0.13120124 0.30012468 0.2153794 0.23830836
000050 af 7c 9a 3e 14 2b 9f 3e 00 8d 8b 3e d5 ec 9f 3e
       0.3017325 0.31087554 0.27256012 0.31235376
000060 e0 f5 9a be 2c 6e eb bc 6e e3 97 be e9 79 75 3e
       -0.30265713 -0.028739057 -0.29665703 0.23972286
000070 c7 44 b7 3e 6c 81 8a 3e 46 b7 b1 3e 1c 8b 4c 3e
       0.3579466 0.27051866 0.3471014 0.19974941
000080 7d 96 ca bc ec 52 09 3c 20 45 68 be a6 9a d0 be
       -0.024729962 0.0083815865 -0.22682619 -0.40742987
000090 0f ed 92 be 26 68 19 be ca d9 de 3e 2f 6a 13 bf
       -0.28696486 -0.14981136 0.43525535 -0.575839
0000a0 30 d4 8b be 5c 6b 45 3e 75 2d 96 3e 47 4d c2 bc
       -0.27310324 0.19279236 0.29331556 -0.02371849
0000b0 47 02 9b bd 10 94 6b 3e d0 3e 44 3e 7d 19 b0 bd
       -0.07568794 0.230057 0.19164586 -0.085986115
0000c0 24 d1 49 3c 0c 44 43 bd 4d 98 03 3e b5 68 32 3e
       0.012317929 -0.047672316 0.12851067 0.17422755
0000d0 99 77 6e 3e 5b e8 8f 3e 13 1b 0d be bf 0e 91 bd
       0.2328781 0.2810696 -0.13779859 -0.07082891
0000e0 5a 49 35 3e 97 80 e1 bd 98 a2 0f bd 4e 5e 3a 3e
       0.17703763 -0.11010855 -0.03506717 0.18200037
0000f0 ad 39 2f be 3c 0a 18 3e a0 74 8c be 8d 62 3e be
       -0.17111845 0.14847654 -0.27432728 -0.18592282
000100 9e 66 e6 bd c2 7d a3 bd db da fe 3d 6d fd 5e 3e
       -0.112500414 -0.07982971 0.12444087 0.21776362
000110 42 12 a1 3e 76 73 41 be 9e 60 90 be 92 31 7f be
       0.31459242 -0.18891701 -0.28198713 -0.24921253

main.0.bias f4 [8]
000000 8e c0 2b bd 07 f7 c3 bd 48 9b 5e be 68 3f 94 3e
       -0.04193168 -0.09568601 -0.21738923 0.28954625
000010 b8 8e 95 bd 1e f6 22 bd 45 fc bd 3e 8f 58 b2 be
       -0.07302612 -0.039785497 0.3710653 -0.3483319

main.3.weight f4 [16, 8, 3, 3]
000000 29 0b 95 3e ab f0 81 3e 99 88 e5 3d 67 a7 91 3d
       0.29110077 0.25378928 0.112076946 0.071120076
000010 11 ff dd 3d ca 71 96 3d 96 0f 94 3e 38 2c 35 3e
       0.10839666 0.07345922 0.2891814 0.1769265
000020 71 64 1b 3e e5 b7 2a 3e fa 17 66 3e d8 c6 93 3c
       0.15175034 0.16671713 0.22470084 0.018039152
000030 ef ab bc 3d 21 85 d5 3d 57 69 7b 3d 82 35 99 3d
       0.09212481 0.10425783 0.061379757 0.07480909
000040 02 3c 04 3e 21 7c 8d 3d 3c af 90 39 fd 58 18 3d
       0.12913516 0.06908441 0.0002759638 0.03719424
000050 ca 8c d6 3c e7 f3 24 3e 61 5d 14 3e 41 88 f1 3d
       0.02619018 0.16108666 0.14488746 0.117935665
000060 19 41 99 bd 5a 71 85 bd 81 03 85 3c af b6 84 3d
       -0.074831195 -0.06515761 0.016237022 0.06480157
000070 1a 0d 87 bd fb 6b e5 bb 03 ad 03 3e 1c f9 a4 bc
       -0.06594296 -0.0070013977 0.12858967 -0.020138316
000080 03 95 9d 3d 72 95 74 bc c2 bb 2b 3d c3 9c 0d 3d
       0.07694437 -0.014928209 0.041927107 0.034573328
000090 b9 29 02 3e 96 20 92 3d 99 5b 30 3e 8d da da 3c
       0.12711228 0.071351215 0.17222442 0.026715541
0000a0 87 d3 52 3e 34 37 87 3d 04 5d 25 3d 7b 69 7c 3d
       0.20588504 0.06602326 0.04037191 0.06162403
0000b0 66 ea 13 3e 31 84 f7 3d 3c e7 87 3c e6 61 27 3d
       0.14444885 0.120857604 0.016589753 0.040864848
0000c0 f6 0f 04 3e bc f5 6d 3c 7d 9e b6 3d c6 0a 44 3d
       0.12896714 0.01452392 0.08916948 0.047861837
0000d0 74 5f 00 3c c5 fe 8f bd 42 78 a0 bd 82 e0 0f be
       0.007835258 -0.07031015 -0.07835437 -0.14050487
0000e0 88 e2 a3 3d 84 1e 9b 3d 8c 41 9d 3b 40 20 a9 3d
       0.08002192 0.0757418 0.0047990736 0.08258104
0000f0 38 ca 0f 3d cd 6d 8c bc 08 43 1d be 4c 01 96 3c
       0.03510496 -0.0171422 -0.15357602 0.018311165
000100 3d b1 c8 bb 6e 76 00 bb 5f e9 09 3e 00 cc 16 3e
       -0.006124644 -0.001960184 0.1346793 0.14726257
000110 03 01 87 bc 3c 01 0b bd 32 93 21 bd 30 9c 0e 3e
       -0.016479975 -0.033936724 -0.039447017 0.13926768
000120 3d f1 84 3e e4 1f 33 3e 07 dd 4b 3e 17 31 c5 3d
       0.259653 0.17492634 0.19908534 0.09628504
000130 70 6a 40 3e 76 98 68 3e 53 1e 90 3d 67 73 e3 3d
       0.18790603 0.22714409 0.07037034 0.111059956
000140 30 01 57 3e 25 ab e8 3d da ad 13 3e dc 81 d5 3d
       0.20996547 0.11360768 0.14421788 0.10425159
000150 e4 9f 3f 3e a9 09 3b 3c 86 c4 8c 3d 6d 34 45 3e
       0.18713337 0.011415877 0.06873421 0.1925828
000160 ad db 9f 3d c9 cc 03 3e d9 08 a2 3d 93 76 4a bd
       0.07805572 0.12871088 0.07911844 -0.049429487
000170 7c 00 3b bd e3 75 35 bc ef d7 13 3e 01 50 28 3e
       -0.04565476 -0.01107547 0.14437841 0.16436769
000180 a8 dc a3 3d 07 15 c6 3d d7 a4 af 3d 6b f5 f6 3d
       0.08001071 0.096719794 0.085763626 0.120585285
000190 e2 7a cc 3d 8f 4e 8b 3d 75 2d a9 3d 2f f3 a8 b9
       0.099843755 0.06802093 0.08260623 -0.00032224643
0001a0 fb 67 0f 3e b8 f6 cd bd f0 f7 70 bd da 9b ad 3d
       0.14004509 -0.100568235 -0.0588302 0.08476992
0001b0 7d 57 8f 3d 66 09 5d 3e 31 1c 88 3d 3a 55 1e 3e
       0.06999109 0.21585616 0.06646002 0.15462199
0001c0 f4 d1 f0 3d 4e 8b 0e 3e 13 54 02 3e b2 0e 6a 3e
       0.117587954 0.13920328 0.12727384 0.22857168
0001d0 5b 4a 33 3e 21 76 c0 3c e4 5a 3c 3b 8a 7a ee 3d
       0.17508833 0.023493828 0.0028740698 0.11644466
0001e0 74 f9 ed 3d 75 bb 1a 3e 5c 05 18 3e a0 29 4b 3d
       0.11619845 0.15110572 0.14845794 0.049600244
0001f0 12 cc df 3d 7a c1 7d bd be d0 65 3d 81 ef 91 bd
       0.10927595 -0.06195209 0.056107275 -0.0712576
000200 78 6c c9 bd 72 84 47 3c 9b 11 16 3a 1e 44 3a bb
       -0.09835142 0.0121775735 0.00057246693 -0.0028421949
000210 19 f0 11 bd f5 09 91 3d d4 5e e4 3c 9a 19 c0 3c
       -0.035629366 0.07081977 0.027877249 0.023449708
000220 04 49 b9 bc 59 29 b1 3d e2 16 20 3e 53 6f 11 bd
       -0.022617824 0.086504646 0.15633729 -0.035506558
000230 0f 38 2f 3e 86 63 b5 3c 65 68 27 3d 03 8e a5 ba
       0.17111228 0.022142183 0.040871043 -0.0012630824
000240 46 1d 14 3e 0b 5c 20 3e c4 cf 2b 3e 3e 7a 92 3d
       0.14464292 0.15660112 0.16778475 0.07152222
000250 fa 45 60 3e b4 f3 6b 3e be d7 2d 3d 08 21 15 3e
       0.21901694 0.23042184 0.042442076 0.14563382
000260 3f 0e 08 3e 5e e2 3a 3d cc 9b ff 3d e7 9a 88 3d
       0.13286684 0.045626037 0.12480888 0.0667017
000270 59 7d cb b8 fd 32 82 3d bd 56 06 3e 60 3b 04 3e
       -9.703142e-05 0.063573815 0.13119026 0.12913275
000280 5e be 55 3e 83 13 3f 3e 65 cd 94 bd ca f8 aa 3d
       0.208734 0.18659787 -0.072657384 0.08348234
000290 3e d5 6e bd bf 09 03 3e 38 63 ec bc c0 ae b5 3d
       -0.058308832 0.12796687 -0.028855905 0.088712215
0002a0 c5 77 3f bc e5 52 ed 3b 08 02 20 3d 97 22 77 3b
       -0.01168627 0.007242548 0.039064437 0.0037709826
0002b0 c8 2f 0c bc 1a 89 8d 3d da a5 2b 3d b6 39 1f 3e
       -0.008556314 0.06910916 0.041906215 0.15549359
0002c0 98 e8 67 bc 05 55 01 3e b8 9b 8f 3d dc 8a bd 3c
       -0.014154576 0.12630089 0.07012123 0.023137502
0002d0 5f a5 49 3e 0d 13 97 3d ff c0 65 3e 9f 64 af 3d
       0.1969199 0.073766805 0.22436903 0.08564114
0002e0 5f d3 88 3d 52 34 4e 3e 16 c9 a0 3d 13 d0 61 3e
       0.06680941 0.20137146 0.07850854 0.2205203
0002f0 5c d2 c5 3d 01 d0 28 3d 2d 67 9d 3d b1 8b 8c bd
       0.096592635 0.041213993 0.07685695 -0.068625815
000300 0c d1 48 bd 3a e7 e3 3d 89 6d 0f 3e 66 86 b7 bd
       -0.049027488 0.11128087 0.14006628 -0.08961181
000310 69 72 1a 3e c4 dc 24 bd 53 00 89 3d ee c2 0c 3e
       0.15082707 -0.0402496 0.06689515 0.13746235
000320 37 20 30 3e 7e c2 06 3d cb 42 13 3e ca bd 70 3e
       0.17199789 0.032900326 0.14380948 0.23509899
000330 ff c5 44 3e 99 2b 4a 3e aa cd 8b 3d da 09 2d bd
       0.19216155 0.19743194 0.06826337 -0.042245723
000340 be 97 49 bd f8 04 32 3d 07 b2 bd 3c 31 0d c8 bd
       -0.04921698 0.04346177 0.02315618 -0.09768141
000350 7b 44 85 bd a9 d0 3e 3c 0d 13 ae 3b 02 20 c5 3d
       -0.06507202 0.011646428 0.0053123296 0.09625246
000360 ce 0d 18 3e f9 48 69 3e 79 41 09 3e 14 9a 25 3e
       0.14849016 0.22781743 0.13403882 0.16172057
000370 ca 5d 45 3e 37 e4 83 3e 8c ff de 3d 67 79 17 3e
       0.19274059 0.25760052 0.108885854 0.14792405
000380 ff fc 9a 3e 12 22 81 3e 2b 45 40 3d f0 46 62 bc
       0.30271146 0.25221306 0.046940964 -0.013810858
000390 11 6e 63 3e 15 1c 18 3e 0d c5 e1 3d 67 61 65 3d
       0.22209956 0.14854462 0.110239126 0.056001093
0003a0 86 3b 1a 3c da 34 ff 3d 78 f2 2e 3e 21 b6 c9 bc
       0.009413606 0.124612525 0.17084682 -0.024622979
0003b0 c4 4d 75 bc b0 cf aa 3d d8 43 e9 ba e0 26 b9 bc
       -0.014972154 0.083403945 -0.0017796708 -0.022601545
0003c0 40 3b 92 bc 3f 8f 23 3e c3 0a ce 3d 0d c6 53 3d
       -0.017850518 0.15972613 0.100606464 0.051702548
0003d0 d7 6e c7 bd 66 bb 20 bc 21 f0 cf bd 42 d8 c0 bc
       -0.09737938 -0.009810304 -0.10153223 -0.02354062
0003e0 8f e7 df 3d 53 28 a7 bd 93 32 bc 3d 32 9e 11 3e
       0.10932838 -0.08161988 0.09189334 0.14220503
0003f0 1b af 19 3e cc 34 71 3e 09 b7 78 3e 3e f9 5b 3e
       0.15008204 0.23555297 0.24288572 0.21481797

main.3.bias f4 [16]
000000 41 50 22 be 67 6f fd bd ee c0 60 3d d4 df 90 bc
       -0.15850927 -0.12374764 0.054871492 -0.017684855
000010 dc f8 0c be 1d dc a3 bd 82 9a fa bd 2f e9 6e 3d
       -0.13766807 -0.08000968 -0.12236501 0.05832785
000020 62 ae 9c 3d 1a d4 d9 3d b1 52 2c 3e ad 51 aa 3b
       0.076504484 0.10636158 0.1682842 0.005197725
000030 74 d2 0c be c4 cd e0 bd ed 95 b5 bd 70 5e 23 be
       -0.13752156 -0.10976747 -0.08866487 -0.15953994

main.7.weight f4 [16, 784]
000000 fa 76 a6 bc a5 ce 61 bd ab 99 66 bd 88 c9 8c bd
       -0.020320404 -0.055128712 -0.056298893 -0.068743765
000010 37 04 ad bd bd e7 0b bd b6 fd 93 bd 7f 99 97 bd
       -0.084480695 -0.03415655 -0.07226126 -0.07402324
000020 2f cd 70 bd 1c 78 b3 bd a7 55 24 bd d4 31 0d bd
       -0.05878943 -0.087631434 -0.040120747 -0.034471348
000030 c5 8a f0 b9 7d 6e f1 bc f9 93 9b bd 32 c6 79 bd
       -0.0004587976 -0.02947163 -0.07596583 -0.06098003
000040 7e 84 40 bd 69 be 8d bd bb e9 ed bc d1 b9 81 bc
       -0.047001354 -0.069210835 -0.029042115 -0.015835674
000050 38 6a e3 bd 7e 9e 31 bd bb 88 b8 bd ac 0e 90 bd
       -0.11104244 -0.04336404 -0.09010454 -0.070340484
000060 21 a2 3e bd fe da 94 bd d9 14 9b bd 71 57 a5 bd
       -0.046541337 -0.07268332 -0.07572336 -0.08073319
000070 94 d8 96 bd 84 04 05 be cc d8 90 bd 7f c2 98 bd
       -0.07365528 -0.12990004 -0.07072601 -0.07458972
000080 10 3a 2b bd 21 51 46 bd 05 32 b3 ba b0 17 ba bd
       -0.04180342 -0.048417214 -0.0013671523 -0.09086549
000090 a2 64 e7 bd 91 f8 4f bd 4e ac a9 bd 43 77 a2 bd
       -0.11298491 -0.05077416 -0.08284818 -0.079329036
0000a0 42 8d 4a bd 33 88 78 bd bd 37 a0 bc c8 d3 41 bd
       -0.04945112 -0.060676765 -0.019557828 -0.04732111
0000b0 fe 4f 85 bd 2b f6 5f bd 2c a1 91 bd 43 c6 25 bd
       -0.06509398 -0.054678123 -0.07110819 -0.04047228
0000c0 91 69 2a bd 0f 11 4a bd 1d 42 81 bd ee 80 5a bd
       -0.041604582 -0.049332675 -0.06311438 -0.053345613
0000d0 4c b4 07 bd ae 77 0e bd 3f c1 7f bd a5 25 9a bd
       -0.03313093 -0.034782104 -0.062440153 -0.075267114
0000e0 b3 9d 3d bd 4f ed 42 bd ea 8f 5f bd 96 0f 25 bd
       -0.04629297 -0.047589596 -0.054580607 -0.040298067
0000f0 45 98 ad bc 87 b7 83 3d 07 06 98 bd 1b 72 50 bd
       -0.021190772 0.064314894 -0.074230246 -0.05089007
000100 28 2c 2e bc 84 29 15 bd 7c 2f 93 bc 2c f9 1a bc
       -0.010630645 -0.036416546 -0.017966978 -0.009458821
000110 ef 26 21 bd d7 77 b4 bd b3 94 49 bd e5 00 26 bd
       -0.03934377 -0.0881192 -0.049214076 -0.040528197
000120 83 81 ed bc 00 24 94 bd 67 e4 2e b9 1d b7 97 3c
       -0.02899242 -0.07233429 -0.0001667902 0.018519932
000130 f9 43 df bd e0 eb b1 bd e1 33 00 bd 9c f7 1b bd
       -0.10901637 -0.08687568 -0.031299476 -0.038077936
000140 56 d2 64 bd eb 5a 7c bc 92 48 c3 3c 94 59 a6 bd
       -0.055864654 -0.015402536 0.023838315 -0.081225544
000150 61 a1 0d bd 1e 62 14 bc d2 53 41 bd 5c 63 12 bd
       -0.03457773 -0.009056596 -0.047199078 -0.035739288
000160 b2 9e 23 bd a1 63 5c 3c 6a 8e 64 bd 0a 62 af bd
       -0.039946266 0.013451488 -0.05579988 -0.08563621
000170 78 e6 64 bb 8a 13 bc bc 2b bd b5 bd 7f 83 8c bd
       -0.003492741 -0.022958536 -0.088739716 -0.068610184
000180 0e 81 ad bc 2f fc cf bb b5 13 00 3d bb 4c 77 3d
       -0.021179702 -0.0063472013 0.031268794 0.06037591
000190 01 35 1e 3d 48 40 7d 3d f3 95 ab 3d 96 91 95 3d
       0.038624767 0.06182888 0.0837821 0.07303159
0001a0 62 53 be 3d d8 d8 1d 3d 38 b9 87 3d 34 f0 09 3d
       0.09293248 0.038536876 0.066271245 0.03367634
0001b0 4d 39 9b 3b 86 df 33 3d 35 19 a8 3d ee 0b be 3d
       0.0047370554 0.04391434 0.08207933 0.09279619
0001c0 d5 95 80 3d a1 4a bb ba 3d d3 82 3c b5 93 3a bd
       0.06278578 -0.0014289209 0.015969867 -0.04555102
0001d0 14 6e 88 bd ec 2f cd bc 77 77 f7 3c 45 2a 45 3d
       -0.06661621 -0.025047265 0.030208332 0.048136014
0001e0 30 29 e8 3c de de 5a bd 22 33 31 bd ec 78 37 bd
       0.028339952 -0.0534352 -0.043261655 -0.044793054
0001f0 e9 d3 d3 bc 4d 80 97 3c ae 90 9d 3d c5 d1 f2 bc
       -0.025857883 0.018493796 0.07693611 -0.029641042
000200 08 4c 94 bc 92 6d a3 bd 3a 1d e5 bc c1 b3 79 3d
       -0.01810266 -0.07979883 -0.027968038 0.060962442
000210 6c 19 dc 3c 5e ec 36 3d 76 66 1a 3d 6b d0 3c bd
       0.02686759 0.04465901 0.03769537 -0.0460972
000220 1d 86 94 bc ef 39 77 bd bd b6 13 3d 65 33 b2 3d
       -0.018130356 -0.060357984 0.036062945 0.08701209
000230 7d c2 43 3d 81 7a 93 3c 6f e9 23 3c b0 95 31 bd
       0.0477929 0.01800275 0.010004385 -0.043355644
000240 36 2d 6d bd fe c0 8b 3d 66 cc 4e 3d f2 b6 03 bd
       -0.057904445 0.0682392 0.0504879 -0.032156892
000250 74 87 53 bd 22 05 d6 bc ca cb 94 bd ed 82 67 bd
       -0.05164285 -0.026125494 -0.07265432 -0.056521345
000260 74 2e fd bc 25 f7 e8 bc 4b 01 82 bd 53 13 ad bd
       -0.03090594 -0.02843816 -0.06347903 -0.084509514
000270 54 37 dc bc 5d b7 0e bd 26 92 87 bd fa 20 86 bc
       -0.026881851 -0.034842838 -0.066196725 -0.016373146
000280 75 c5 3e bd 33 57 1d bd e7 85 2f bd 95 9c 73 bd
       -0.04657503 -0.038413238 -0.04285231 -0.0594755
000290 4d 7d cd bd 44 35 bf bd bb 4a 5f bd 6c ee d6 bd
       -0.10033665 -0.093363315 -0.054514628 -0.10494694
0002a0 e3 f5 f8 bc cd c4 c9 bd b6 38 c6 bd d8 fe 6d bd
       -0.030390685 -0.0985199 -0.096787855 -0.058104366
0002b0 d8 75 4a bd 7c 30 98 bd ba ee 14 be 5c 4b 89 bd
       -0.04942879 -0.07431123 -0.14544192 -0.06703827
0002c0 8a db f3 bd c8 29 03 be 7b 75 7c bd 2e 30 08 bd
       -0.11907108 -0.12808907 -0.061635476 -0.033249073
0002d0 a6 16 92 bd 52 20 84 bd a4 4f af bd bd e5 fb bd
       -0.07133226 -0.06451477 -0.08560112 -0.122996785
0002e0 24 a4 9b bd 76 2e b5 bd 0e 0a 68 bd ab 4c 92 bc
       -0.07599667 -0.08846752 -0.056650214 -0.017858824
0002f0 2d 16 50 bd 00 1c ca bc 3a 33 81 bd f2 28 9b bc
       -0.0508024 -0.024671555 -0.06308599 -0.018940423
000300 54 a9 e2 bd 7a e5 a3 bd b8 9e 9d bd 78 75 a8 bc
       -0.11067453 -0.080027536 -0.07696289 -0.020563826
000310 3b 94 64 bc 30 fe fb bc 2f 52 c5 bc 4e 27 c0 bd
       -0.0139513565 -0.030760854 -0.02408704 -0.09382497
000320 4c 22 46 bd c9 0a 52 bd 59 ae 00 bd ff a1 2a bd
       -0.04837255 -0.051279817 -0.03141627 -0.041658398
000330 c1 24 76 bd 80 4d 9e bd 19 ae 09 bd 59 32 20 bd
       -0.060093645 -0.07729626 -0.033613298 -0.039110515
000340 74 47 46 bb 43 bb 15 bd 12 69 6e bd a3 aa b5 bc
       -0.0030254992 -0.03655554 -0.05820567 -0.022176092
000350 cc 33 95 bd fd 38 a4 bd 22 3c 40 bd 6f 83 3a bd
       -0.0728527 -0.08018682 -0.046932347 -0.0455355
000360 de e7 0d be 93 52 b2 bd b2 4a bf bd d8 dd 40 bd
       -0.13857982 -0.08707156 -0.09340419 -0.047086567
000370 83 73 67 bd fd a8 80 bd 16 fd 82 bd 98 8d d3 bd
       -0.056506645 -0.06282232 -0.063959286 -0.10329741
000380 64 7d 09 bd 5d f6 aa bd 78 62 ac bd f0 ca 92 bd
       -0.033566847 -0.08347771 -0.08417219 -0.071676135
000390 ad 15 5b bd a3 64 27 bb 20 f5 d1 bd b4 dd b4 bd
       -0.05348747 -0.0025542162 -0.10251832 -0.08831349
0003a0 1a 19 a8 bd fb 96 7e bd cc c1 88 bd 5a 7d 0d bd
       -0.08207913 -0.062155705 -0.06677589 -0.034543373
0003b0 3d eb e0 bc f6 b2 89 bd 3f da 0a bd f7 e6 a2 bd
       -0.02745592 -0.06723587 -0.033899542 -0.07954209
0003c0 9a 66 ab bc 64 02 cb bd ca 1b e6 bd 39 e3 a8 bd
       -0.020922948 -0.09912565 -0.11235769 -0.08246464
0003d0 03 de d5 bc 13 c4 6e bd d2 d5 43 bd 32 78 d2 bc
       -0.02610684 -0.05829246 -0.047811337 -0.02569208
0003e0 67 3c 83 bd da 15 78 bd 85 9c a5 bd 0d b9 38 3c
       -0.06408005 -0.060567714 -0.08086494 0.011274588
0003f0 1d ca 20 bd 6d 5f 22 bd 1c 26 42 bd 66 10 c4 bd
       -0.03925525 -0.039641786 -0.047399625 -0.0957344

main.7.bias f4 [16]
000000 d0 20 e9 3c b1 9b 8a 3d 8e f7 83 3d c5 f3 d4 3c
       0.028458029 0.06767977 0.06443702 0.025995145
000010 1b 85 76 3d f0 a9 89 3d 31 2e 0b 3c 4c ab 43 3d
       0.060185533 0.06721866 0.0084949 0.047770783
000020 5a 5a ac 3d 9f 70 06 3b 86 69 15 bd 14 de 9d 3d
       0.08415671 0.0020513905 -0.036477588 0.07708374
000030 52 01 3a 3d 4b 06 a3 3d 04 77 37 bd 22 99 d1 bb
       0.045411415 0.07960185 -0.044791237 -0.0063964287

main.9.weight f4 [1, 16]
000000 5e 08 b5 be a9 91 89 be 36 c3 97 be 7b 86 4c be
       -0.35357946 -0.26868942 -0.29641122 -0.19973175
000010 37 4a 49 be 79 57 92 be 81 77 10 3e 4b c2 d5 be
       -0.19657217 -0.2858236 0.14108087 -0.41749796
000020 7e ac 43 be 07 ce a8 3e 18 d8 7a 3e 61 d0 9e be
       -0.1910877 0.32969686 0.24496496 -0.31018355
000030 37 de a0 be 23 60 46 be a5 b4 97 3e f3 41 8a 3e
       -0.31419536 -0.19372611 0.29630008 0.2700344
