results/perceptual_mse_adversarial/mnist_tripletnet_state_dict.pth (torch, 123024 bytes, 6 tensors)

representation_encoder.0.weight f4 [16, 1, 3, 3]
00000000: ed52 263e 3591 dcbe 27fd 86be be2b 7a3e
00000010: 234c 073e 2cb3 21bf c63f 5d3e 57de bdbd
00000020: 7ede c2be b3af e8bc 8e2c aa3e f527 13bf
00000030: b12c 02bf b068 cd3e a54c 3b3e 4d93 79bc
00000040: 2a58 f7bd 7bbc 24be f45c a8bd c4e8 56be
00000050: cb27 c5bd 54c5 7c3e 82de 823e 1183 903e
00000060: f41b f9bc 353d b2be c09c 2bbe a701 a5bd
00000070: ed2c 0dbf 485b f5be dce4 2fbf d578 87bc
00000080: 0261 0e3e 6684 babe 2abc 133c a4bc a23e
00000090: 7a49 f5bd 9167 483d 82e2 2a3e 95b3 85be
000000a0: 08be 6f3c 14e2 173e 0c5b 853d 9c53 9a3b
000000b0: 0564 0a3e cf2d 86be 27d4 8c3e 0728 883e
000000c0: c499 9fbe 2fc6 91bf e6e5 14bf 3a86 303e
000000d0: 42bd b63e cfee 1bbf 9b0c 37be a7a9 61be
000000e0: 0b2c 71be f7f0 69bd 0e45 833e 2a5e dabd
000000f0: 5697 fa3d 29fb a0bd da03 c83d fcc3 a1be
00000100: 746c 08be ff67 ab3c f896 94bd dd71 ee3e
00000110: 1e7c c93c e1cf 173e b1bb 1fbe 2b79 8abe
00000120: 9c4c 293e 804f 9abe 9463 eabd ae80 993d
00000130: b92a 7cbe ddfb e53b a2f9 273e f043 483e
00000140: 5079 ee3d 4123 fd3c 0e06 823e a399 5f3e
00000150: beff 7cbe 8a7f 913d 33b8 413d 4a28 d5be
00000160: 7f26 dcbe c221 1fbe af4c fabe d5bc b7bd
00000170: 1259 723e d829 babe 6c69 dcbd 408d 693e
00000180: 8661 563c 31ba 4cbf 30dd fcbd b634 ddbc
00000190: 3217 b93d c3d6 cd3c 8d34 bbbc e0bb aabd
000001a0: c359 96be 5e11 bd3d f5a8 3b3d 02a2 bb3c
000001b0: 6a3b b8be 133e 2e3e 4d8a 88ba 7411 24bd
000001c0: 6845 b43e b0ec 8bbe c3d2 09be 959a 733e
000001d0: 9a8c d4bd 71a2 b63d 3bc5 2abe 7019 b6be
000001e0: 4170 063e 268a c83e 12ce 44be 9977 55be
000001f0: 9222 cc3c aac1 153e b24c 21be bdf6 893e
00000200: 4643 5cbe 4379 953e 6543 88be bd13 66be
00000210: 7b32 5fbe 213a 86be 27e4 133e 0cfb e53e
00000220: b212 9c3d 7bed a1be 7b12 1ebe 40fb b53d
00000230: fe50 1bbf 8983 85be f31f 66bf fc21 5cbd
0.16242571 -0.43079534 -0.26365015 0.24430749 0.13212638 -0.6316402 0.21606359 -0.092709236
-0.38060373 -0.028404092 0.33237118 -0.57482845 -0.50849444 0.40118933 0.18290956 -0.015232873
-0.12077363 -0.16087525 -0.082208544 -0.2098723 -0.096267305 0.2468465 0.25560385 0.28224996
-0.030408837 -0.34812322 -0.16759014 -0.08056956 -0.55146676 -0.47921205 -0.68708587 -0.01653711
0.13904193 -0.36429137 0.00901703 0.31784546 -0.11976905 0.048926894 0.16687968 -0.26113573
0.014632709 0.14832336 0.065115064 0.004709674 0.13514717 -0.26206824 0.2750561 0.26593038
-0.31172 -1.1388606 -0.581633 0.17238703 0.35691267 -0.6091127 -0.17875902 -0.22037373
-0.23551957 -0.057114568 0.25638622 -0.106624916 0.12235896 -0.07860405 0.097663596 -0.31594837
-0.13322622 0.020923613 -0.072553575 0.46571246 0.024595316 0.14825393 -0.15598942 -0.2704557
0.1653313 -0.3013878 -0.11444774 0.07495247 -0.24625672 0.00701855 0.16403821 0.19557166
0.11644232 0.0309006 0.25395244 0.21835952 -0.24706933 0.07104404 0.047294807 -0.416323
-0.4299812 -0.15540221 -0.4888663 -0.08971564 0.2366679 -0.3636005 -0.10762295 0.22807789
0.013084775 -0.79971606 -0.12346876 -0.027002674 0.09037627 0.02512682 -0.022852207 -0.083366156
-0.29365358 0.09231828 0.045815427 0.0229044 -0.3598283 0.17015867 -0.0010417193 -0.040055707
0.35209203 -0.27329016 -0.13459305 0.23789437 -0.1037838 0.08917702 -0.166768 -0.35566282
0.13128759 0.391679 -0.19219235 -0.20846404 0.024918828 0.14624658 -0.15751913 0.2694606
-0.21510038 0.29194078 -0.26613918 -0.22468467 -0.217966 -0.26216224 0.14442502 0.44918096
0.07620753 -0.31626496 -0.15436737 0.08885813 -0.6067046 -0.26076916 -0.898925 -0.053743348

representation_encoder.0.bias f4 [16]
00000000: 8a4c 01be 2080 ebbd 7af7 cbbd f4e5 cdbc
00000010: 7f7f 6bbe 5a6a 943c f9f3 92bd 4597 1fbe
00000020: 4520 6bbe 9490 45bd 2709 b8bd 66c3 73bd
00000030: 4ec1 4bbe c356 b5bd ce17 fabd a8a4 c5bd
-0.12626854 -0.11499047 -0.09959312 -0.025134064 -0.22997855 0.018117119 -0.0717544 -0.15585048
-0.22961529 -0.048233584 -0.08986121 -0.05951252 -0.19897959 -0.08854439 -0.12211572 -0.09650546

representation_encoder.3.weight f4 [32, 16, 3, 3]
00000000: 75d0 d9be a6e0 8ebf ca91 c2be 127b 1dbe
00000010: 9cd6 8c3e b2e9 113f 19eb 693e b96d da3e
00000020: a8d6 383f f400 de3d 6eab 42be 576b 98be
00000030: 3bcc 1c3e b1ed c9bd 8572 1abb e550 113f
00000040: 425a 72bd d7b3 403f ff62 323f 4493 1a3f
00000050: b1f3 3dbe a757 513e 8d62 7b3e 8999 473e
00000060: 3a72 54be 3916 15bf bd91 07be 046d edbe
00000070: 716f 2d3d c565 66be 1500 003f 6de5 edbc
00000080: f687 1cbf 8a4b ad3d 75d9 81bf 8697 c53d
00000090: 3303 31bf 98c4 e1be 2948 a23d d311 67bf
000000a0: 7b51 133e a17a ae3e 9e4b d3be 850e fb3e
000000b0: 6ea1 b3bc aea6 323f b8ae a2bb c38b a6bf
000000c0: 4835 113f dfbd b1bf 9f35 0cbf bb78 113f
000000d0: 2dd4 9dbe 9948 8d3e 311f 573f 59a1 dabe
000000e0: 215a a6be a5b4 803f 7b85 1fbf cdda c9be
000000f0: b524 183f 1086 04bf c4a4 0d3d 1fc7 4bbd
00000100: ecf5 cf3e 7ee4 1fbe db9f 0fbe d201 493f
00000110: 676c 883d 84be b7be 18c3 00bf 0c19 05be
00000120: 23fc 803f bd8b 0bbf ade1 31bf c1f9 79bf
00000130: 6cf7 bbbf 4f64 68be 1a81 55bf a6f5 7dbd
00000140: a40e 393f 9848 1c3f e68f ff3e f6f6 96be
00000150: 9cdf 8d3e b3a4 01bf c29a 8dbe 7e8a cc3d
00000160: c580 e0bd 0799 3f3d ff58 35be b664 e2be
00000170: 3a7d 6dbe 6683 88be 1703 373f a603 8e3e
00000180: e0c0 243f c071 9f3f 6b2b d33d 8402 56be
00000190: d56d b3be ee99 fcbd b60c 593e 35d5 91bc
000001a0: fd8b 0c3e 6c1e 023e 59fb bc3e 960f 343e
000001b0: c599 babd f61d c2be 052a 543d ffaa 8bbe
000001c0: 6812 653e da0d 2b3f 44d5 37bf 92e7 4cbe
000001d0: c694 b23e 6d6a 093f a605 0bbf f797 a5be
000001e0: f21b 44bf 72a6 8f3e e33b e8bd 2a90 bebf
000001f0: 92b5 703d a951 0f3f 83dd 2f3d cd2f 0fbe
00000200: 2306 8b3e c629 3f3e d93f 923d a184 0d3e
00000210: 9bcf b1be a1ae 123f a496 ea3e 193c df3d
00000220: 2974 48bf c847 05bf 2f25 383f 3bf3 58be
00000230: b224 d0bb fc58 f6bd 4b5b 2b3f e4fc 3b3f
00000240: 84af fbbd f36a dd3e 9596 8a3f fbc1 e83e
00000250: 41a5 3b3e 540d cf3e 6b3d 1bbf 7ad3 d1be
00000260: db32 16be 7fab be3c e67d 2d3e 9227 cabe
00000270: 4432 3d3f 566a 343d afbc f8be d99c cbbe
00000280: 60d1 94be 191d 683e 4fe6 0cbe cebb 9d3e
00000290: 57ba 09bf 915c ed3d 8b0b b13c 3a58 68bf
000002a0: b6c6 fd3e 1b99 543d 02c9 873e e806 173e
000002b0: 2ad5 33be 9a4a 8fbd 228c a9bd 2950 8d3e
000002c0: 2537 2c3e 14b7 993d 8156 683f d0f3 43be
000002d0: 8322 e73d 4689 c9be c53e 90be fe75 68be
000002e0: 048a 85bf 92ca 33be 303e 91bf 65ad 05be
000002f0: 6279 793e 85c6 723e c6bc 2b3f 259d 10bf
00000300: 3c12 74bb 633e a73e c896 e6be 1d3a fa3e
00000310: 3c80 0f3e aed6 c8be 7ad4 3f3d 98a2 8b3f
00000320: a648 51bf 09c6 14be caac d63e 0d4f d1bd
00000330: d70d d93e 6ff4 94be 04ee c2bd 8f99 cc3e
00000340: 1699 35be ca13 66be 52cb 08bd 3887 773d
00000350: 31c1 823e a941 61bf d3d6 00be 88fb e93d
00000360: ec46 183f cdb4 b93e ec00 14bf ebc5 613d
00000370: 698b 04bf 8b27 20bf ad38 7d3c 7e79 10bf
00000380: 3284 973e 819b 0e3e 96be a1be 89e3 90bf
00000390: a314 ad3f c9cc ca3d 24cb 8abf 1c60 173e
000003a0: b68b 86bf 65f3 a0bf 7ec7 843f e970 923e
000003b0: 67c5 543e e4b0 393f f386 52bf 751d 303e
000003c0: d794 d33d b318 7d3e 2188 b83e 7f87 a43c
000003d0: 4174 963e 2a0a 46be 732e ac3d c0e6 233e
000003e0: 4bdd 26be 9cda babd 24d5 9fbd 0ff2 ca3e
000003f0: ec72 4f3e 0b6e 87be 7c72 45bf d6bd b6bd
-0.42541853 -1.1162307 -0.38001853 -0.15378979 0.27507484 0.56997216 0.22843589 0.42661837
0.7220254 0.108400255 -0.19010708 -0.29769394 0.15312283 -0.09859789 -0.0023566794 0.5676406
-0.059168108 0.75274414 0.69682306 0.6038096 -0.18549992 0.20443593 0.24549313 0.19492163
-0.20746699 -0.58237034 -0.13239188 -0.46372235 0.042342607 -0.2249976 0.50000125 -0.029040063
-0.6114496 0.084616736 -1.0144488 0.096480414 -0.69145507 -0.44095302 0.0792392 -0.9026157
0.14386551 0.34077933 -0.4126863 0.49034515 -0.021927562 0.69785583 -0.0049646758 -1.3011402
0.56721926 -1.3886069 -0.5476932 0.56824845 -0.3082594 0.2759445 0.8403197 -0.42701223
-0.32490638 1.0055128 -0.6231305 -0.39424744 0.5943101 -0.51767063 0.03458096 -0.049750444
0.4061731 -0.15614507 -0.14025824 0.785184 0.06661301 -0.3588754 -0.5029769 -0.12997836
1.0076946 -0.545101 -0.6948498 -0.9764672 -1.4684882 -0.22694515 -0.8340012 -0.062001847
0.72287965 0.6104827 0.49914473 -0.2948529 0.27709663 -0.50641936 -0.27657133 0.09987353
-0.10962061 0.046776798 -0.1770973 -0.4421746 -0.23192301 -0.2666275 0.7148909 0.2773716
0.64356804 1.2456589 0.10311016 -0.20899397 -0.35044733 -0.12334047 0.21196255 -0.01780186
0.13725276 0.12706918 0.36910513 0.1758407 -0.091113605 -0.37913483 0.051797885 -0.27278897
0.22370303 0.6681801 -0.7180979 -0.20010212 0.3487913 0.5367802 -0.54305494 -0.32342502
-0.7660514 0.28056675 -0.113395475 -1.4887745 0.05876691 0.5598398 0.04293586 -0.13983078
0.2715312 0.18668279 0.07141084 0.13820125 -0.34728703 0.5729771 0.45818055 0.109001346
-0.78302246 -0.52062654 0.7193174 -0.21186535 -0.0063520307 -0.12028691 0.66936177 0.73432755
-0.12289336 0.43245658 1.0827204 0.45460495 0.18324758 0.40439856 -0.6064059 -0.40981656
-0.14667837 0.023275135 0.16942558 -0.39483315 0.73904824 0.044046722 -0.48581454 -0.39768103
-0.2906599 0.2266735 -0.13759731 0.30807346 -0.5379996 0.11589921 0.02161195 -0.90759623
0.49565667 0.051903825 0.26520544 0.14748728 -0.17561784 -0.06996651 -0.08278681 0.2760022
0.16817911 0.075056225 0.90756994 -0.19135976 0.112858795 -0.39362544 -0.2817289 -0.2270126
-1.0432744 -0.17557743 -1.1347103 -0.13054426 0.2436271 0.23708542 0.6708492 -0.56489784
-0.0037242314 0.32664785 -0.45036912 0.48872462 0.14013761 -0.39226288 0.046833493 1.0908995
-0.8175148 -0.1452867 0.41928703 -0.10220156 0.4239337 -0.29092738 -0.09518054 0.39960906
-0.17734179 -0.22468486 -0.033397026 0.06043169 0.25538018 -0.87990814 -0.12581949 0.11424929
0.5948322 0.36270753 -0.57813907 0.05512039 -0.51775223 -0.6256034 0.015455407 -0.5643538
0.29593045 0.13926508 -0.31590718 -1.1319438 1.3521923 0.09902341 -1.0843244 0.14782757
-1.0511386 -1.2574278 1.037338 0.2860177 0.20778428 0.7253554 -0.82237166 0.17198737
0.10331123 0.24716453 0.36041358 0.02008414 0.2938557 -0.19339815 0.08407297 0.16005993
-0.16295354 -0.09123728 -0.07804325 0.396378 0.20258683 -0.26451144 -0.77127814 -0.08922927

representation_encoder.3.bias f4 [32]
00000000: c76a 1fbf 841d 05bf fd45 05bf 3598 21bf
00000010: ec4d f6be 899a 5abf 1f8c 28bf d1a8 08bf
00000020: edf4 0ebf e018 5abe fccd 08bf 0bf7 2bbf
00000030: c611 19bf 7f00 efbe ee60 4abf b831 52bf
00000040: 13f6 9abe 5cf9 21bf 5b5a 65bf f1f7 0ebf
00000050: 998c 1ebf aca6 12bf d670 3bbf 559b d1be
00000060: 38b6 dfbe 427a 2ebf 6feb 2bbf 8fc9 0cbf
00000070: 3cb3 a7be a7f8 82be a883 1abf c02d 05bf
-0.62272304 -0.5199816 -0.5205992 -0.63122874 -0.48106325 -0.8539205 -0.6583881 -0.53382593
-0.5584248 -0.21298552 -0.5343931 -0.6717383 -0.59792745 -0.46680066 -0.7905415 -0.82107115
-0.30265865 -0.6327112 -0.89590997 -0.5584708 -0.61933285 -0.5728557 -0.7321905 -0.4093882
-0.4369371 -0.681553 -0.6715612 -0.54995054 -0.32753932 -0.25580332 -0.6035714 -0.52022934

representation_encoder.7.weight f4 [16, 1568]
00000000: c8bf fe3d c140 3a3f 3ac0 0b3f 7f69 183f
00000010: a751 923e 5f2d 183e cbf1 96bd b35b 9fbe
00000020: c962 4b3e 652e f1be c444 6ebe 91dd 253e
00000030: c477 9d3e 6024 34bd c514 3b3b aab9 70be
00000040: f399 053f be8c 3ebe 1c43 0b3e 49b3 14be
00000050: 48e9 a5be 7608 65be 591e 08bf bc8a bdbe
00000060: 41f1 503d ef4c cbbd 97c0 1d3c 20a8 b83d
00000070: 7056 1cbf 3102 73be d90f 0a3e 30d3 283f
00000080: 89d5 73be c5a1 a2bb a769 123e e3f3 32bd
00000090: 8757 553e 1ddb 06be ab30 2bbe be8d 0d3d
000000a0: 971e e83e d9e6 bebe fd12 6e3e 7499 4ebe
000000b0: ca06 4e3e 7d5e eebe 79be 85bf f470 2cbf
000000c0: 04c3 d7be 03d9 f33d 4e7f 83bd be78 4a3d
000000d0: ccc1 94bd 2fa1 5e3f 89e9 913e e4d8 ef3c
000000e0: c870 1c3c b2ae a8be be65 a03f 617f c8be
000000f0: b3bb 8fbe 02a7 9ebe 0e1b 6cbc 706d ce3e
00000100: 5dd8 043f f005 883e 4c8c 6bbe a40c bbbe
00000110: 1c97 ffbe 8011 d43b 2412 dfbd ac09 f33e
00000120: 480a 3f3e f177 af3e e7a4 4bbf f908 943e
00000130: 8144 503e 8138 aebe 2b8b 3ebe c713 d2be
00000140: ea0c b6be 83d9 033d 5299 10be 069c a03e
00000150: a80a 46bd 5a2b 5cbd 89ef 1ebf ff5d f23e
00000160: 220a c93e 4737 9fbe 5a13 993e 98a0 3a3f
00000170: 2add 13bc 807b fbbd b1b2 d83d 0479 09bf
00000180: 2a8e 19bf a0c9 c5be 8af9 b13d 9721 823e
00000190: 3307 6bbe ea5b f33e dd10 823e 5fa2 cf3b
000001a0: 2fa9 91bd 58dd 003e 633c 4e3e 215d 2c3c
000001b0: f30d 0ebf 5aa7 04bf 6aed 0cbf 05ef 81be
000001c0: 2ca5 433f 21ab 223e dad0 0d3e 62da 523e
000001d0: ace1 88bd 7686 0cbf 649d 46bf 416a 903e
000001e0: 4d3c 8c3f aaba ad3e a05d f2be d35b 013f
000001f0: 90fb 1d3e 5611 0d3f fea1 a8be 74c3 7c3f
00000200: 263c 363f b69a f23c 022f 873f 9ab8 713e
00000210: 242b 29be b062 473d fead b3be c9b8 18bf
00000220: 0e47 9cbe 3691 093e e8e3 23be daa1 66bf
00000230: d535 33bf 3c07 16bf fa8d aebe 82b0 213e
00000240: 08db a33e db57 52bf 924b 72bf 0cb6 153e
00000250: 7edc adbd f528 4b3e dac5 413f 70a4 373c
00000260: 3f67 24bf 5377 d63e 2a73 543f 3aa3 663e
00000270: c87a a33e bf12 533e a9a8 103f 948d 9e3e
00000280: fff7 ac3e da0b 893f a13c eebe 714c 27be
00000290: 2b7e c7be 41fb 5b3d 699b f03e 21e7 54bf
000002a0: 7ce4 d7bd 5f88 26be 3fda 9cbc 3fa0 983e
000002b0: 7d63 273f 93a8 4b3e 278b 643e d6ca 873e
000002c0: 9c84 4f3e 125b e9be 63b0 293e 321c 95be
000002d0: 7548 a5bf 7d16 953d 8c5b a33e 2b38 f73e
000002e0: c236 a8be 9d73 efbe 6c9e e43c 3cbe 12be
000002f0: e99a 9a3f c1d6 40bf 4696 023f f745 91bd
00000300: 5fb2 91be 458a 3e3f 28e0 883e c28e 49bd
00000310: d14b 27bf cbc5 34bf a26d 99bd b242 94be
00000320: 22cd d2be cfa4 bc3e b8d9 90bf ad89 d1be
00000330: 4679 7c3e ad3f 5f3e d0b3 f23e 8cc3 d33e
00000340: 099e 8f3e f3e1 c0be 8dec c23e f5ff f53e
00000350: ebc3 603f b263 d83e 15fe a63f 340b ff3e
00000360: a901 11bf 1522 d33d e607 9a3e dd1c 353f
00000370: 17b2 9b3e bfea ea3e 8268 6f3f a3cc 3ebf
00000380: 7af4 36bd 24fb 10bf dac5 d6be edc8 21be
00000390: 1d65 863d c3da d93e d0b2 f23e 4d1c 203d
000003a0: ad65 a1be fa4f 933d 2c5e ac3e 67c3 1e3f
000003b0: e89d 893e cffd 8cbd fbcb 443f bcdc 32be
000003c0: 38b2 26bf c873 f4be b673 933e 7abe cf3d
000003d0: 159b 4f3e 7bc3 863e 4fcc 913e 9228 b8be
000003e0: 9fdf 02be bf0c 683d 6d4c bdbd e944 bd3d
000003f0: c2aa ce3d 3419 153f 49e1 ac3e 6d4b 303d
0.12438923 0.72755057 0.5459019 0.59535974 0.2857792 0.14861058 -0.07370337 -0.31124648
0.19861902 -0.4710571 -0.2326842 0.16197802 0.30755436 -0.043980002 0.0028546315 -0.23508325
0.5218803 -0.18608376 0.13599819 -0.14521517 -0.32404542 -0.22366509 -0.53171307 -0.37019908
0.051011328 -0.09926783 0.0096284365 0.09016442 -0.61069393 -0.23731305 0.13482608 0.65947247
-0.23811926 -0.004963132 0.14298116 -0.04368962 0.2083417 -0.13169523 -0.16717784 0.034559004
0.45335838 -0.37285498 0.23249431 -0.20175725 0.20119777 -0.46556464 -1.0448753 -0.6735985
-0.42140973 0.11906626 -0.06420766 0.049431555 -0.07263526 0.86964697 0.28498486 0.029278226
0.0095483735 -0.32945782 1.2531049 -0.39159682 -0.2807289 -0.30986792 -0.014410747 0.4031787
0.51892644 0.2656703 -0.23002738 -0.36533082 -0.49919975 0.0064718127 -0.10892132 0.47468317
0.18656266 0.34271196 -0.79548496 0.28913096 0.20338632 -0.34027484 -0.18607776 -0.41030714
-0.35556728 0.032189857 -0.14120987 0.31369036 -0.048350006 -0.05375228 -0.6208425 0.47337338
0.39265543 -0.3109686 0.29897577 0.72901297 -0.009024898 -0.12279415 0.10580958 -0.5370028
-0.5998255 -0.3863039 0.08690174 0.25416252 -0.22951965 0.47531062 0.2540349 0.006336495
-0.07112347 0.12584436 0.20140223 0.010520251 -0.55490035 -0.5181786 -0.55049765 -0.2537767
0.7642391 0.15885593 0.13849202 0.20591119 -0.066836685 -0.5489267 -0.7758391 0.28206065
1.0955902 0.33931476 -0.47337055 0.5053074 0.15427995 0.5510458 -0.3293609 0.9873574
0.7118553 0.029614788 1.0561221 0.23605576 -0.16520363 0.0486781 -0.35093683 -0.5965696
-0.3052296 0.134343 -0.16004908 -0.90090716 -0.70004016 -0.5860479 -0.34092695 0.15789989
0.32003045 -0.82165307 -0.9464656 0.14620227 -0.08489321 0.19839843 0.7569252 0.011208639
-0.6422004 0.41887912 0.82988226 0.22523203 0.31929612 0.2061262 0.56507355 0.3096739
0.33782956 1.0706742 -0.4653063 -0.16337754 -0.38963446 0.05370641 0.4699357 -0.83165175
-0.10541627 -0.16262959 -0.019147037 0.29809758 0.6538618 0.19888525 0.22318707 0.2652194
0.2026543 -0.45577294 0.16571192 -0.29123074 -1.2912737 0.0727968 0.31905782 0.4828504
-0.32854277 -0.46767893 0.027907573 -0.14330381 1.2078525 -0.7532769 0.5101055 -0.07093423
-0.284564 0.7442973 0.26733518 -0.04920841 -0.6535006 -0.7061431 -0.07491614 -0.28957134
-0.4117213 0.3684449 -1.1316442 -0.4092535 0.24655637 0.21801634 0.4740281 0.41360128
0.2805026 -0.37672386 0.380711 0.48046842 0.8779895 0.4226356 1.304629 0.49813235
-0.5664316 0.10309235 0.3008415 0.70747167 0.3040931 0.45882222 0.9351884 -0.74531
-0.044666745 -0.5663321 -0.41947824 -0.15799303 0.065622546 0.42549714 0.47402048 0.03908949
-0.31522885 0.07192989 0.33665597 0.6201691 0.26878285 -0.06884348 0.7687375 -0.17467016
-0.6511569 -0.47744584 0.28799218 0.101437524 0.20274003 0.26321015 0.28476188 -0.35968453
-0.12780617 0.05665278 -0.09243093 0.09241659 0.10091163 0.5824158 0.3376563 0.04304068

representation_encoder.7.bias f4 [16]
00000000: 8226 603f 2d81 3d3f 4a39 9abe 27a5 283e
00000010: 8308 b7be 19e6 2a3f 3f48 b03e a9b4 6e3e
00000020: 2aa4 c3be 549e be3e cb4d 123f 3173 913e
00000030: 8c8b b43e d2ec 0cbe 593c 213f c66d 123f
0.8755876 0.7402523 -0.30121833 0.1646925 -0.3574868 0.6675735 0.3443012 0.23311104
-0.38211185 0.3723017 0.5714995 0.28408197 0.35262716 -0.13762215 0.6298271 0.5719875
