results/perceptual_wgan-gp/mnist_tripletnet_state_dict.pth (torch, 123024 bytes, 6 tensors)

representation_encoder.0.weight f4 [16, 1, 3, 3]
-0.085862406 -0.4715694 -0.48557222 -0.255175 0.0022286111 -0.041417405 -0.3175756 -0.0023915756
0.20795415 0.1246008 0.14807625 0.26450324 0.1263041 0.0352773 -0.22232959 -0.13761139
-0.2510563 -0.13475059 0.04725516 0.30640918 -0.13822746 -0.22319645 -0.16495842 -0.54288113
0.06456476 -0.32052588 0.116886705 0.03264376 -0.010375333 -0.07799218 -0.043350603 0.034110747
-0.0017469159 0.009626634 -0.14248812 0.0197231 -0.18067028 0.21529537 0.105237804 0.041481525
0.27883446 -0.120053604 0.029259345 0.10640088 -0.07078862 0.26885742 -0.008941806 -0.45681247
0.15377846 0.07245869 -0.585917 -0.20481175 -0.44332486 -0.18210082 0.00505628 -0.104809925
0.073223315 0.0427098 0.12029227 -0.35901964 -0.092846245 0.17974478 0.0063794726 -0.004728014
0.17334834 0.25995848 -0.36580276 -0.037408106 0.21147983 -0.27946872 -0.3382357 -0.46059412
-0.020509541 -0.045650546 -0.055173784 0.04546372 -0.0076785707 -0.0954042 -0.46035114 0.5996905
-0.36181182 0.074422754 0.11658543 0.11214357 -0.3226427 -0.10434228 0.3159267 -0.069108665
0.12836663 0.0672337 -0.6939492 -0.30075517 -0.033351254 -0.5474021 0.19526967 0.3730574
-0.5889519 -0.22011085 -0.0008142251 0.03902391 -0.2470262 -0.20417365 0.29190585 -0.107419446
-0.1126149 0.055523828 0.23179153 0.047227293 -0.3827714 -0.090491585 -0.1717641 -0.057027806
0.5581482 0.08481801 0.058718517 -0.2349134 -0.38592142 0.14762343 -0.2958973 0.10477247
-0.24486825 0.0632488 0.14468277 0.014491762 0.15462156 -0.18564095 -0.012902886 -0.3110715
-0.21280675 -0.12056648 0.18247391 0.23924844 0.11095611 0.046064507 -0.0807319 0.028640427
0.014377997 -0.27576968 -0.0504153 0.15864858 0.36309385 -0.0026356478 -0.30400547 -0.17255946
00000000: a1d8 afbd 8b71 f1be ec9c f8be 4ca6 82be
00000010: e40d 123b 4ca5 29bd 4599 a2be fbbb 1cbb
00000020: eff1 543e b42e ff3d 4da1 173e f86c 873e
00000030: dd55 013e ee7e 103d 5eaa 63be 00ea 0cbe
00000040: 748a 80be 0ffc 09be a08e 413d aae1 9c3e
00000050: 808b 0dbe 9c8d 64be dcea 28be 42fa 0abf
00000060: 873a 843d f81b a4be 4c62 ef3d 77b5 053d
00000070: 4dfd 29bc 5dba 9fbd 6790 31bd b6b7 0b3d
00000080: c5f8 e4ba 08b9 1d3c 68e8 11be 5792 a13c
00000090: a101 39be 6476 5c3e eb86 d73d 88e8 293d
000000a0: 64c3 8e3e aade f5bd 4bb1 ef3c b4e8 d93d
000000b0: a0f9 90bd aea7 893e a780 12bc 53e3 e9be
000000c0: 1a78 1d3e 3965 943d a8fe 15bf 2cba 51be
000000d0: 7afb e2be a378 3abe 27af a53b 96a6 d6bd
000000e0: 1bf6 953d 79f0 2e3d cb5b f63d 6cd1 b7be
000000f0: 2c26 bebd 040f 383e e50a d13b 75ed 9abb
00000100: 3a82 313e 4719 853e 804a bbbe 3e39 19bd
00000110: 2b8e 583e 8616 8fbe 3b2d adbe fed2 ebbe
00000120: a003 a8bc 11fc 3abd e8fd 61bd 2a38 3a3d
00000130: 859c fbbb 4763 c3bd 25b3 ebbe 5185 193f
00000140: 663f b9be f56a 983d 58c4 ee3d 87ab e53d
00000150: 6d31 a5be 68b1 d5bd 25c1 a13e d888 8dbd
00000160: 8b72 033e d2b1 893d a8a6 31bf 95fc 99be
00000170: 539b 08bd 8b22 0cbf c6f4 473e 6101 bf3e
00000180: 8dc5 16bf bd64 61be b971 55ba 89d7 1f3d
00000190: 70f4 7cbe e612 51be af74 953e bafe dbbd
000001a0: a4a2 e6bd f46c 633d c25a 6d3e 6871 413d
000001b0: 9dfa c3be a753 b9bd eee2 2fbe fd95 69bd
000001c0: cde2 0e3f 11b5 ad3d d482 703d 238d 70be
000001d0: 7e97 c5be 992a 173e da7f 97be f392 d63d
000001e0: bebe 7abe 9688 813d b827 143e db6e 6d3c
000001f0: 1d55 1e3e a918 3ebe a066 53bc c344 9fbe
00000200: 03ea 59be 8feb f6bd 71da 3a3e 8bfd 743e
00000210: f53c e33d 23ae 3c3d c456 a5bd 549f ea3c
00000220: b191 6b3c af31 8dbe 4680 4ebd c674 223e
00000230: 70e7 b93e d5ba 2cbb 9ba6 9bbe 6db3 30be

representation_encoder.0.bias f4 [16]
-0.011566359 -0.17050855 -0.036573496 0.008606169 -0.26582125 -0.13322234 -0.045456734 -0.066096984
-0.103038564 -0.3558139 -0.0950241 -0.15094364 -0.19535168 -0.14137653 -0.0939473 -0.094248116
00000000: d380 3dbc cb99 2ebe 17ce 15bd e400 0d3c
00000010: b919 88be 706b 08be d730 3abd db5d 87bd
00000020: e205 d3bd 3d2d b6be ff9b c2bd f890 1abe
00000030: 450a 48be 02c5 10be 7167 c0bd 2805 c1bd

representation_encoder.3.weight f4 [32, 16, 3, 3]
-0.682594 -0.20158553 0.4399969 -0.11878872 0.14144161 0.09121195 -0.055376284 -0.5403791
-0.8990717 -0.20951356 -0.65948 -0.73952043 -0.059708264 -0.14871044 0.20050089 0.30993906
0.43960428 -0.31208533 0.122494854 0.11078232 0.25442374 -0.22575794 0.0650541 0.15093262
-0.32315338 -0.22765929 0.19445582 -0.1551912 0.07271611 0.10179842 -0.33975518 -0.0033859755
0.12370008 -0.3147662 -0.080300935 -0.09750679 -0.09872606 0.38760114 -0.323524 -0.6623653
-0.23704556 0.36197656 0.13122374 0.45847005 0.17181909 -0.3592481 -0.07450214 0.083435446
0.4554853 0.12401336 0.3009049 -0.5039152 -0.29070172 1.0384067 0.12063839 0.50986254
-0.6960592 -0.53497857 -0.5638336 0.3106053 -0.17947213 0.11630743 0.4468293 0.07771414
-0.79851586 -0.9616351 0.5873427 -0.40727198 -0.4251048 0.34803504 0.09130676 -0.120915316
0.51141685 -0.14020053 0.018164732 -0.21615645 -0.37443763 -0.1452632 0.11368457 0.42141804
0.43664637 -0.3487309 0.42142653 0.5002535 -0.35453275 -0.031844594 -0.30121267 -0.42757145
-0.21463212 0.50833195 0.36923295 0.078672595 -0.44298616 -0.5029485 0.06594442 -0.5154704
-0.4892657 -0.7649622 -0.2894268 -0.103630245 0.3424646 0.11768305 0.1149213 -0.39284295
-1.0221908 -0.01280394 -0.57472235 -0.2780846 0.36501545 -0.34020528 -0.09678426 0.0011380692
0.061018668 -0.07323574 0.38185826 0.4773892 -0.5490988 0.021520143 0.0028524478 0.63150793
-0.26785007 0.36795455 0.05536357 -0.6570007 -0.25819737 0.03745675 -0.19492523 -0.25767013
0.039510336 0.049206503 -0.04001578 -0.26906684 0.29356736 0.38324836 -1.3249277 -0.048413422
-0.46754184 -0.20687401 -0.011962585 0.06280382 -0.17941847 0.6767359 -0.06045913 0.23008408
-0.17912522 0.26218864 0.3524039 -0.35738736 0.124792755 0.32493648 -0.8660147 -0.4116182
0.4557718 -0.31383756 0.02594995 -0.6285036 0.42833674 0.41233802 0.66017103 -0.21255417
-0.19467667 0.13842183 -0.33892718 0.19909574 0.5144807 -5.575181e-05 0.052619975 0.80162036
-0.41968575 -1.1027142 -0.24810977 -0.13721038 0.055162944 0.13237654 -0.2842127 0.1673408
0.38431892 -0.37082183 -0.2653025 0.06485644 0.25785902 0.020276524 -0.051819295 0.55798924
-0.015653754 0.36836547 0.0530553 -0.44021174 0.2271848 0.26439923 0.8154763 0.6402787
0.50620437 0.22850108 0.3276265 -0.71878195 -0.7491397 0.02418914 -0.04815427 0.15219948
-0.3569701 0.11993182 -0.45439148 0.30783626 -0.11937157 -0.12676741 -0.09752524 -0.89346063
-0.4675233 -1.771187 -0.89826185 -0.8446512 -0.8131966 -0.28558347 -0.20871732 -0.031456504
0.21025409 0.36236906 0.32355392 0.04176442 -0.2891115 0.027287157 0.27818766 -0.15753129
-0.26037845 0.7871118 0.5924778 0.09392738 -0.6175542 0.21906349 0.58973175 -0.34327963
0.18638541 0.690167 0.26738822 0.12263742 0.7457531 0.15292753 -0.14153665 0.66641265
-0.39612117 -0.5595404 -0.40993848 0.17058386 0.17920005 -0.6509838 0.12127853 -0.65489876
0.302807 0.9767046 0.702535 0.3156248 0.19351895 0.07178707 0.23428993 0.48169833
00000000: 7bbe 2ebf 706c 4ebe 4647 e13e 8047 f3bd
00000010: 12d6 103e 55cd ba3d 3ed2 62bd 4956 0abf
00000020: 9029 66bf b98a 56be aed3 28bf 3651 3dbf
00000030: a790 74bd 8d47 18be 1b50 4d3e 55b0 9e3e
00000040: d013 e13e a6c9 9fbe 95de fa3d d7e1 e23d
00000050: d443 823e 172d 67be 153b 853d 158e 1a3e
00000060: 5c74 a5be 841f 69be 6d1f 473e 71ea 1ebe
00000070: 2fec 943d b17b d03d 64f4 adbe 3ee7 5dbb
00000080: 7856 fd3d 0929 a1be d174 a4bd a4b1 c7bd
00000090: e330 cabd a873 c63e f0a4 a5be c690 29bf
000000a0: 12bc 72be fe54 b93e 845f 063e 96bc ea3e
000000b0: 58f1 2f3e 5eef b7be 9494 98bd 34e0 aa3d
000000c0: 5f35 e93e b7fa fd3d 3510 9a3e 9600 01bf
000000d0: dbd6 94be 83ea 843f 4311 f73d 5a86 023f
000000e0: f030 32bf 5bf4 08bf 6657 10bf a807 9f3e
000000f0: 8bc7 37be 9732 ee3d cfc6 e43e 9728 9f3d
00000100: 896b 4cbf b82d 76bf 175c 163f f485 d0be
00000110: 56a7 d9be a631 b23e 0aff ba3d 73a2 f7bd
00000120: 37ec 023f ba90 0fbe 34ce 943c 1e58 5dbe
00000130: 4ab6 bfbe e0bf 14be 75d3 e83d 1bc4 d73e
00000140: 1d90 df3e db8c b2be 38c5 d73e 9d10 003f
00000150: 5185 b5be 7a6f 02bd 8c38 9abe a5ea dabe
00000160: 86c8 5bbe 0b22 023f 1a0c bd3e 191f a13d
00000170: 15cf e2be 3cc1 00bf de0d 873d def5 03bf
00000180: 0981 fabe 90d4 43bf c02f 94be 183c d4bd
00000190: 8557 af3e d003 f13d dc5b eb3d b622 c9be
000001a0: 26d7 82bf 9ec7 51bc 0121 13bf 1b61 8ebe
000001b0: 4ee3 ba3e 632f aebe d336 c6bd 442b 953a
000001c0: b6ee 793d 9ffc 95bd ed82 c33e 5b6c f43e
000001d0: bd91 0cbf 034b b03c 22f0 3a3b 81aa 213f
000001e0: a523 89be 8a64 bc3e e9c4 623d 3331 28bf
000001f0: 7232 84be 406c 193d 7b9a 47be 57ed 83be
00000200: 97d5 213d c28c 493d 96e7 23bd 21c3 89be
00000210: 764e 963e 2139 c43e 3b97 a9bf 274d 46bd
00000220: a561 efbe c8d6 53be b8fe 43bc 4a9f 803d
00000230: 7ab9 37be 903e 2d3f fea3 77bd 299b 6b3e
00000240: 9a6c 37be 973d 863e 496e b43e 7afb b6be
00000250: 5893 ff3d 135e a63e 24b3 5dbf 9fbf d2be
00000260: ec5a e93e 51af a0be fd94 d43c 9de5 20bf
00000270: f44e db3e f81d d33e f800 293f cda7 59be
00000280: 5259 47be 74be 0d3e dd87 adbe c1df 4b3e
00000290: 02b5 033f 0dd7 69b8 0b88 573d fe36 4d3f
000002a0: 0de1 d6be bd25 8dbf 7d10 7ebe e180 0cbe
000002b0: 8af2 613d b78d 073e 5484 91be 635b 2b3e
000002c0: 73c5 c43e 5cdc bdbe bbd5 87be 74d3 843d
000002d0: 1906 843e f41a a63c 7840 54bd 62d8 0e3f
000002e0: 4d3c 80bc 669a bc3e 8450 593d 6f63 e1be
000002f0: 22a3 683e 565f 873e 0ec3 503f 4ee9 233f
00000300: 9c96 013f 30fc 693e a9be a73e 1802 38bf
00000310: 9fc7 3fbf 4e28 c63c 693d 45bd 2eda 1b3e
00000320: c9c4 b6be d09e f53d 00a6 e8be b79c 9d3e
00000330: 1579 f4bd 51cf 01be 50bb c7bd d6b9 64bf
00000340: 375f efbe 41b6 e2bf 7df4 65bf 103b 58bf
00000350: a72d 50bf ff37 92be feb9 55be 89d8 00bd
00000360: d94c 573e 7088 b93e dca8 a53e 2b11 2b3d
00000370: 6c06 94be 5189 df3c 9d6e 8e3e e24f 21be
00000380: 5350 85be 2980 493f a0ac 173f 005d c03d
00000390: 0818 1ebf 2e52 603e a9f8 163f 59c2 afbe
000003a0: d1db 3e3e c9ae 303f 1ce7 883e 5429 fb3d
000003b0: ade9 3e3f 0999 1c3e fcee 10be 059a 2a3f
000003c0: 65d0 cabe 0a3e 0fbf 75e3 d1be 89ad 2e3e
000003d0: 3880 373e e0a6 26bf e160 f83d 72a7 27bf
000003e0: 8509 9b3e 5009 7a3f 55d9 333f 9399 a13e
000003f0: d529 463e 1905 933d b3e9 6f3e 2aa1 f63e

representation_encoder.3.bias f4 [32]
-0.64547735 -0.616314 -0.25453272 -1.0409223 -0.7946512 -0.75478613 -0.57406586 -0.5985921
-0.5030976 -0.82059604 -0.63765156 -0.5834525 -0.65567434 -0.5670484 -0.57378274 -0.7264723
-0.83338183 -0.84073055 -0.527016 -0.4789183 -0.18035495 -0.49649996 -0.5679359 -0.46199644
-0.8023322 -0.66647756 -0.64328057 -0.56814265 -0.92572397 -0.4812955 -0.79841065 -0.38586846
00000000: 013e 25bf c1c6 1dbf 1d52 82be f13c 85bf
00000010: 436e 4bbf aa39 41bf fbf5 12bf 553d 19bf
00000020: 01cb 00bf 9512 52bf 223d 23bf 255d 15bf
00000030: 46da 27bf 152a 11bf 6de3 12bf 17fa 39bf
00000040: 8358 55bf 1e3a 57bf 85ea 06bf c834 f5be
00000050: f8ae 38be 3e35 febe 3f64 11bf cc8a ecbe
00000060: a565 4dbf 469e 2abf 09ae 24bf cc71 11bf
00000070: 3ffc 6cbf 5d6c f6be a464 4cbf 8d90 c5be

representation_encoder.7.weight f4 [16, 1568]
-0.15485422 -0.044216868 -0.40275127 0.006238804 -0.50255084 -0.46685594 0.004281073 -0.03834485
-0.37549418 -0.032777607 -0.2188494 0.2897055 0.50262517 0.30266464 -0.23144774 -0.39781567
-0.7540351 -0.20989631 0.83307755 0.50749195 -0.37028837 -0.03124822 -0.14432442 0.119365744
0.44648948 0.91657096 1.0921596 0.09777762 0.18585865 -0.4608257 0.25661257 0.044814236
-0.1853641 0.016961679 0.050478674 -0.30123183 0.632151 -0.21110913 -0.1101314 -0.106163874
-0.3611567 -0.45210803 -0.07793704 1.3546039 -0.050378963 -0.16497362 -0.1174311 0.2718303
-0.79082847 -0.20515007 -0.15595374 0.3417778 0.23677525 0.5153641 0.28916624 0.64531463
-0.28972682 -0.61312884 0.092292696 0.10249622 1.151377 0.22617353 0.09353532 -0.1340823
-0.6552437 0.28182828 0.18002185 0.4697436 -0.16272388 0.010972601 -0.21407764 -0.3202966
0.111995764 -0.636324 -0.3037475 -0.38203087 0.34345025 -0.28884807 -0.1538205 0.08158989
-0.008538057 -1.3852829 -0.3325538 0.10802576 -0.088754214 -0.30468333 -0.8100501 -1.3075647
-1.1079477 -1.0575806 0.30003986 0.05774011 -0.44446456 -0.99119574 -0.42651376 -0.011084333
-0.45040807 -0.075206235 -0.07326958 -0.26611766 -0.16749725 0.076063514 0.45580876 0.19362141
-0.0013547197 0.026682682 0.08581533 0.3039401 -0.0029990778 0.30337393 -0.27519885 -0.4679934
0.013471945 -0.3060301 0.22615552 0.8142537 0.9035681 -0.50122696 -0.43212882 -0.12238535
-0.39997754 0.22244185 0.12171835 -0.12951237 0.49865863 0.17447871 -0.020780975 -0.6290249
-0.08201102 -0.13443905 -0.5886659 -0.49812126 0.16544347 -0.10302742 -0.8124215 -0.03775874
0.20174795 0.5185481 0.36171103 0.15188102 0.066883355 -0.21855362 -0.03679241 0.1148831
0.07125187 -0.23959073 -0.21161503 -0.22208256 -0.20233594 -0.24494375 -0.5858859 -0.8831471
-0.43939608 -0.21013105 -0.24664323 -0.073720455 -0.49198386 -0.16470505 -0.18420422 -0.43665504
-0.24741203 -0.24613649 0.014314885 0.42070743 0.38030973 0.127123 -0.2548135 -0.19391617
-0.2501276 -0.04732257 -0.23505345 0.122666515 -0.0564655 0.16589072 -0.74876577 -0.3451033
-0.34741154 0.3887663 -0.43198696 -0.3616674 0.86611974 -0.03472574 -0.31750086 -0.24212536
0.2917863 0.9568834 0.64198977 0.64698786 -0.44432142 -0.32529876 0.3104972 -0.42332712
0.026146885 0.9020393 -0.6489456 -0.6093015 0.29610407 0.32851553 0.17935587 0.28512943
0.45565507 0.49180266 0.5047213 0.16358319 0.2781726 0.3300152 0.61335546 0.023233753
-0.19796945 -0.29969278 0.5003931 0.7512471 0.3649386 0.57276005 -0.63541836 -0.15389396
-0.47292593 0.2551248 -0.49326754 0.17790632 0.33160913 0.508381 0.04990196 0.21483012
0.68535507 -0.11867409 -0.41531712 0.23406978 -0.0391131 0.09313538 0.0272921 0.30153716
-0.0846527 -0.4606997 -0.99166375 -0.09497775 -0.48425385 -0.34137788 0.14802031 -0.05434789
-0.11909207 -0.42944726 0.012887069 -0.31591436 -0.609036 0.12728181 -0.0548942 0.26477703
0.52151245 0.24421176 -0.019973 0.5022293 0.061969146 -0.15217851 -0.17762317 0.25246018
00000000: 1b92 1ebe bf1c 35bd 6a35 cebe e26e cc3b
00000010: 2ca7 00bf be07 efbe 3e48 8c3b 7d0f 1dbd
00000020: c640 c0be d041 06bd 0f1a 60be 4754 943e
00000030: 0bac 003f dcf6 9a3e a300 6dbe 7fae cbbe
00000040: 7208 41bf 0fef 56be 9244 553f feea 013f
00000050: 7096 bdbe 44fc ffbc c8c9 13be 0776 f43d
00000060: 459a e43e 65a4 6a3f e3cb 8b3f a23f c83d
00000070: bb51 3e3e 59f1 ebbe b962 833e 228f 373d
00000080: 16d0 3dbe 38f3 8a3c bac2 4e3d 0f3b 9abe
00000090: a6d4 213f fe2c 58be 928c e1bd 726c d9bd
000000a0: 88e9 b8be b47a e7be 749d 9fbd a963 ad3f
000000b0: 2c5a 4ebd d8ee 28be b77f f0bd 572d 8b3e
000000c0: bc73 4abf dc12 52be 56b2 1fbe 80fd ae3e
000000d0: 3675 723e e7ee 033f 990d 943e 5733 253f
000000e0: 1357 94be 03f6 1cbf f403 bd3d 8ae9 d13d
000000f0: 5260 933f 099a 673e 728f bf3d df4c 09be
00000100: 0dbe 27bf cc4b 903e a657 383e 3c82 f03e
00000110: 17a1 26be 6dc6 333c 2b37 5bbe eafd a3be
00000120: 095e e53d 21e6 22bf cb84 9bbe 8d99 c3be
00000130: b6d8 af3e e5e3 93be 1f83 1dbe 9a18 a73d
00000140: 35e3 0bbc f350 b1bf 7e44 aabe 9c3c dd3d
00000150: c5c4 b5bd 74ff 9bbe 715f 4fbf 485e a7bf
00000160: 3bd1 8dbf cd5e 87bf d39e 993e e580 6c3d
00000170: dc90 e3be 01bf 7dbf 0360 dabe 109b 35bc
00000180: e39b e6be ba05 9abd 5d0e 96bd 9340 88be
00000190: 6684 2bbe 30c7 9b3d c45f e93e b144 463e
000001a0: da90 b1ba a495 da3c f3bf af3d 099e 9b3e
000001b0: 2d8c 44bb d453 9b3e dde6 8cbe d59c efbe
000001c0: 6fb9 5c3c faaf 9cbe 5095 673e ee72 503f
000001d0: 3d50 673f 6950 00bf fd3f ddbe 2ca5 fabd
000001e0: dbc9 ccbe ccc7 633e 7847 f93d e49e 04be
000001f0: 2f50 ff3e 8caa 323e dd3c aabc c707 21bf
00000200: 65f5 a7bd 64aa 09be cfb2 16bf c009 ffbe
00000210: 036a 293e 0a00 d3bd dbfa 4fbf e9a8 1abd
00000220: 0497 4e3e 91bf 043f 3032 b93e b386 1b3e
00000230: 24fa 883d 85cc 5fbe a3b3 16bd d547 eb3d
00000240: 80ec 913d 4657 75be 9cb1 58be 9c69 63be
00000250: 2731 4fbe 89d2 7abe 9efc 15bf ee15 62bf
00000260: 86f8 e0be 982c 57be 0b90 7cbe c0fa 96bd
00000270: 4fe5 fbbe 71a8 28be 08a0 3cbe 4091 dfbe
00000280: 9459 7dbe 340b 7cbe fb88 6a3c f766 d73e
00000290: f5b7 c23e 882c 023e ea76 82be f691 46be
000002a0: ba10 80be 50d5 41bd dab1 70be 9538 fb3d
000002b0: 5e48 67bd 42df 293e 1daf 3fbf 61b1 b0be
000002c0: eddf b1be 600c c73e 652d ddbe 782c b9be
000002d0: 06ba 5d3f 943c 0ebd 798f a2be b6ef 77be
000002e0: 0465 953e 4ff6 743f 7159 243f ffa0 253f
000002f0: 197e e3be 8f8d a6be 7df9 9e3e 55be d8be
00000300: fe31 d63c 0cec 663f 4d21 26bf 2ffb 1bbf
00000310: f49a 973e 3033 a83e 11a9 373e 7cfc 913e
00000320: 9f4b e93e 8fcd fb3e 6a35 013f 5a82 273e
00000330: a46c 8e3e c1f7 a83e dd04 1d3f b654 be3c
00000340: 81b8 4abe 5571 99be c319 003f bb51 403f
00000350: 3bd9 ba3e 67a0 123f c7aa 22bf 6196 1dbe
00000360: 5923 f2be b89f 823e 908d fcbe 132d 363e
00000370: acc8 a93e 4225 023f ff65 4c3d 6dfc 5b3e
00000380: 6e73 2f3f 670b f3bd 72a4 d4be fdaf 6f3e
00000390: 0f35 20bd c3bd be3d af93 df3c 1463 9a3e
000003a0: 655e adbd d5e0 ebbe addd 7dbf b283 c2bd
000003b0: 1ff0 f7be 15c9 aebe a392 173e e59b 5ebd
000003c0: 8be6 f3bd 83e0 dbbe 4924 533c 87bf a1be
000003d0: c9e9 1bbf 2a56 023e bed8 60bd db90 873e
000003e0: d781 053f a612 7a3e 6b9e a3bc 1992 003f
000003f0: 5cd3 7d3d afd4 1bbe d9e2 35be 7642 813e

representation_encoder.7.bias f4 [16]
0.26954007 -0.27115998 0.38260174 -0.48470873 -0.20039117 0.6949162 0.33024102 0.11474955
0.5909289 -0.2639742 1.1036817 0.34533972 -0.1279029 0.61637825 0.39569178 0.28552946
00000000: 2801 8a3e 7bd5 8abe 60e4 c33e be2b f8be
00000010: 5833 4dbe 07e6 313f 5a15 a93e d001 eb3d
00000020: 1e47 173f a027 87be 7145 8d3f 5ed0 b03e
00000030: faf8 02be f7ca 1d3f 1d98 ca3e eb30 923e
