results/perceptual_wgan-gp/mnist_manipulable_ae_state_dict.pth (torch, 8754 bytes, 12 tensors)

manipulable_encoder.0.weight f4 [16, 16]
0	0xbf4f5184	-0.8098376
1	0xbeb0f3cf	-0.3456101
2	0xbe868ba9	-0.26278427
3	0x3e8dcaf1	0.27693895
4	0xbe94e661	-0.29082015
5	0x3d7acaff	0.06122875
6	0x3efbbcb2	0.491674
7	0x3ea7912a	0.3272794
8	0x3e2cf09f	0.16888665
9	0x3ec29a98	0.3800857
10	0xbf6807d2	-0.9063693
11	0x3c310d47	0.010806388
12	0xbf616c88	-0.8805623
13	0xbf4285e3	-0.75985545
14	0x3f87f15a	1.062053
15	0xbece1e17	-0.40257332
16	0x3d884d1a	0.06655331
17	0xbf2f17a8	-0.6839547
18	0xbe504e30	-0.20342326
19	0x3dc4e3ce	0.09613763
20	0xbe92ebbf	-0.28695485
21	0x3e1d20b2	0.15344504
22	0x3eaa1576	0.33219498
23	0x3e76c7f1	0.24099709
24	0xbe3bfbf7	-0.18357836
25	0x3dfdb430	0.12387884
26	0x3e898916	0.268624
27	0x3e041750	0.12899518
28	0xbed21a09	-0.41035488
29	0xbdeacc4e	-0.11464749
30	0xbf1328ad	-0.5748394
31	0x3e84994b	0.25898203
32	0xbf155c85	-0.583443
33	0x3e5634d4	0.2091859
34	0xbe886a1c	-0.26643455
35	0x3dbb5706	0.09147458
36	0x3e94ee85	0.29088226
37	0x3ee29ad9	0.44258764
38	0xbe05dae6	-0.13071784
39	0x3d02f8b4	0.031975463
40	0x3cd134fe	0.025537964
41	0x3b42eda2	0.002974369
42	0xbdc85c42	-0.09783222
43	0xbe752058	-0.2393812
44	0x3e262750	0.16225934
45	0xbe1cfe5e	-0.15331408
46	0x3f06a713	0.52598685
47	0x3ef7235c	0.48269165
48	0xbe4eae98	-0.2018379
49	0x3eb2fb76	0.34957474
50	0xbeb7fcc3	-0.3593503
51	0xbe8258ee	-0.25458473
52	0xbecb04af	-0.3965201
53	0x3d92a908	0.071611464
54	0x3e271d4b	0.16319768
55	0x3f1c2971	0.61000735
56	0x3ea623dc	0.32449234
57	0xbe908b6b	-0.28231367
58	0xbec3fa04	-0.38276684
59	0x3cd63a60	0.026150882
60	0xbe3131b6	-0.1730412
61	0x3e0dd7f8	0.13851917
62	0x3eb336f1	0.35002854
63	0xbe52bae4	-0.20579106
64	0x3f310fef	0.6916494
65	0x3f88d702	1.0690615
66	0xbf0ada5d	-0.54239446
67	0xbd99e152	-0.075136796
68	0x3e4f245e	0.20228717
69	0x3ddb2ac8	0.10701519
70	0xbe92e196	-0.28687733
71	0x3dd8abcb	0.10579642
72	0xbf33d58c	-0.7024772
73	0x3f908b43	1.1292499
74	0x3f1d8f0b	0.6154639
75	0x3ed0d7ab	0.40789542
76	0x3ee48e1a	0.44639665
77	0xbf266a9e	-0.65006435
78	0xbd5f6788	-0.054542094
79	0xbf168cd3	-0.5880863
80	0xbe3c39de	-0.1838145
81	0x3fe9c7fd	1.8264157
82	0xbdf8dae0	-0.12151122
83	0xbe833e1a	-0.25633317
84	0x3d858a15	0.06520478
85	0x3e81ec08	0.2537539
86	0xbe279b71	-0.1636789
87	0xbf652866	-0.8951477
88	0x3f8d9687	1.1061562
89	0xbe839f55	-0.25707498
90	0x3f4bb44f	0.79572004
91	0xbef097bf	-0.46990773
92	0xbf2290a1	-0.63501936
93	0xbe147a90	-0.14499879
94	0x3ec00593	0.37504253
95	0x3d961710	0.073286176
96	0x3f239752	0.6390277
97	0x3fd4f82d	1.6638237
98	0xbe92bb8d	-0.28658715
99	0x3d7f956a	0.06239835
100	0xbf37500e	-0.7160653
101	0x3ea6c12d	0.32569256
102	0xbe59f61f	-0.21285294
103	0x3f0529cd	0.5201691
104	0xbe30448f	-0.17213653
105	0xbf33053e	-0.69929874
106	0xbf5c6367	-0.86089176
107	0x3eabca76	0.33552903
108	0x3f57291b	0.84047097
109	0x3f114563	0.567465
110	0xbf975f41	-1.1825944
111	0x3f06e6f4	0.52696157
112	0xbdff2d15	-0.124597706
113	0x3fa34edf	1.2758445
114	0x3ea5a59c	0.32352912
115	0xbe6f27bc	-0.23355001
116	0x3f7d597e	0.9896468
117	0x3d938534	0.07203141
118	0x3e77bb57	0.24192558
119	0x3f77cfab	0.9680125
120	0xbf0c4a97	-0.54801315
121	0xbf035722	-0.5130483
122	0xbf4ad79f	-0.7923526
123	0x3ead72e4	0.33876717
124	0x3fa26553	1.2687172
125	0x3f118d91	0.5685664
126	0xbfaf3421	-1.3687783
127	0x3ebf6234	0.3737961
128	0x3ec6f584	0.3885919
129	0x4022c850	2.543476
130	0xbef0118a	-0.4688838
131	0xbead89a3	-0.3389407
132	0xbf9f0736	-1.2424076
133	0x3e5d504c	0.21612662
134	0xbef2ff18	-0.47460246
135	0xbd88803f	-0.06665086
136	0xbef26f93	-0.4735075
137	0x3ec571bb	0.38563332
138	0x3c915e9c	0.017745309
139	0xbf3b90e1	-0.7326794
140	0x3f133b08	0.5751195
141	0xbefae3b4	-0.4900185
142	0x3e336723	0.17519812
143	0x3f4c405d	0.7978571
144	0xbf3028bb	-0.6881215
145	0xc0092458	-2.1428432
146	0xbf0d1e15	-0.55124027
147	0x3e063522	0.13106206
148	0xbe1140a0	-0.14184809
149	0x3ebdfe34	0.37108004
150	0x3f1b2738	0.6060672
151	0x3daf947f	0.08573245
152	0xbec683e9	-0.38772514
153	0xbf203035	-0.6257356
154	0x3f329084	0.69751763
155	0xbf9cf1ef	-1.2261332
156	0xbf9a3353	-1.2046913
157	0x3f83efa3	1.0307506
158	0x3caf8fd1	0.021430882
159	0xbec76d49	-0.38950565
160	0xbeee9916	-0.4660117
161	0x3fc02773	1.5012039
162	0x3f08f826	0.53503644
163	0x3e783835	0.24240191
164	0x3fa58f50	1.293436
165	0x3dff0c23	0.12453487
166	0xbf8baa15	-1.091128
167	0xbea55bec	-0.32296693
168	0xbd2d8872	-0.042366453
169	0x3eda8329	0.42678192
170	0xbe270265	-0.16309507
171	0xbebd55b8	-0.3697946
172	0x3e80fb82	0.25191885
173	0xbe324562	-0.1740928
174	0x3eb65afa	0.35616285
175	0x3e360333	0.17774658
176	0xbf7ef37e	-0.9959029
177	0x3f420b23	0.75798243
178	0xbeaba7a1	-0.33526328
179	0x3eeb8fb5	0.46008077
180	0xbdc18fee	-0.094512805
181	0x3dd73ad3	0.10509267
182	0x3ebda8f0	0.37042952
183	0x3ef42615	0.47685304
184	0x3e2c6089	0.168337
185	0x3f2064cf	0.6265382
186	0x3c6c1a89	0.014410623
187	0x3f0c70a1	0.5485936
188	0x3f52e8db	0.8238656
189	0xbdd613f6	-0.10453026
190	0x3e415f54	0.18884021
191	0xbe9f6ccf	-0.31137702
192	0xbf35b305	-0.7097629
193	0x3f4985b0	0.78719616
194	0xbf1ac1a7	-0.6045174
195	0xbeb9109f	-0.36145493
196	0xbeadcfd6	-0.3394763
197	0xbdfb8dc4	-0.12282899
198	0x3f1bd9d3	0.6087925
199	0x3e667052	0.22503784
200	0x3ebd03ea	0.3691705
201	0xbe111af1	-0.14170434
202	0xbee17386	-0.4403345
203	0x3d3ba550	0.04581195
204	0xbe88ec9f	-0.26743028
205	0xbf13606a	-0.5756899
206	0x3e9f5765	0.31121364
207	0xbe51bbbf	-0.20481776
208	0x3ecb7b17	0.39742348
209	0x3f986d85	1.1908423
210	0x3f818ac0	1.0120468
211	0xbe9a2e0e	-0.30113262
212	0xbf25e748	-0.6480603
213	0x3df44ec8	0.11929089
214	0xbf592102	-0.8481599
215	0xbf561cc2	-0.8363763
216	0xbf01197d	-0.5042952
217	0x3f32795b	0.69716424
218	0x3ebe4387	0.37160894
219	0xbf674baf	-0.9034986
220	0x3f11e740	0.56993484
221	0xbda4bbf7	-0.08043664
222	0xbdefaf92	-0.11703409
223	0xbe83b728	-0.25725675
224	0x3e1a37b8	0.15060318
225	0xbec53643	-0.3851796
226	0x3ecb6337	0.39724132
227	0x3e035ce3	0.12828402
228	0xbf02dac3	-0.51115054
229	0xbcdb667c	-0.026782267
230	0x3d98ac0f	0.074546926
231	0x3ef4fce5	0.47849193
232	0xbe2f5f06	-0.17126092
233	0xbe0a6db9	-0.13518418
234	0xbecf1ae4	-0.40450203
235	0xbe8d1991	-0.27558568
236	0x3ed864f0	0.4226451
237	0xbd4632ac	-0.04838817
238	0xbe4fc7fd	-0.20291133
239	0xbe121df0	-0.14269233
240	0xbe3c7704	-0.18404776
241	0xbf1aa33a	-0.60405314
242	0x3e0bddea	0.13658872
243	0x3f0f1ef6	0.5590662
244	0xbf25027e	-0.6445693
245	0x3e3474b4	0.17622644
246	0x3e74da0e	0.23911306
247	0xbf270077	-0.65235084
248	0x3df1889b	0.117936336
249	0x3dcc62bd	0.0997977
250	0x3f6a1c2a	0.91449225
251	0xbc496354	-0.012291748
252	0x3eab28de	0.33429617
253	0xbf30bc75	-0.6903756
254	0x3f961b02	1.1726992
255	0xbf483dd9	-0.7821937

manipulable_encoder.0.bias f4 [16]
0	0xbf8c81f6	-1.0977161
1	0x3ffabfbc	1.9589763
2	0x3f9b07de	1.2111776
3	0x3fff6701	1.9953309
4	0xbf8f62a6	-1.120198
5	0x3f5cc522	0.862383
6	0xbfac0848	-1.3440027
7	0xbfed0114	-1.8515954
8	0xbf0739e3	-0.52822703
9	0x3d972af2	0.07381238
10	0xbfef516d	-1.8696724
11	0xbed13720	-0.4086237
12	0x3e0cdfb7	0.13757215
13	0x3f07ccf6	0.5304712
14	0x4013e7f7	2.311033
15	0xbded4b94	-0.11586681

manipulable_encoder.2.weight f4 [8, 16]
0	0x3f48106e	0.7815007
1	0x3ed950fa	0.42444593
2	0xbe835b27	-0.2565548
3	0xbf21deaa	-0.63230383
4	0xbfd671d5	-1.6753489
5	0xbef5a021	-0.4797373
6	0xbe0474c2	-0.12935165
7	0xbf22a05b	-0.63525933
8	0xbef756e1	-0.4830847
9	0x3f69caaa	0.91324866
10	0xbebcb798	-0.3685882
11	0xbed1e766	-0.40996855
12	0xbf3ec8df	-0.74525255
13	0xbfb681ac	-1.4258323
14	0x3ec7b42e	0.39004654
15	0x3eda3eef	0.4262614
16	0xbfcd0593	-1.6017326
17	0xbca30537	-0.019899948
18	0x3f0092b8	0.50223875
19	0xbe9ad7a6	-0.30242652
20	0xbea8781c	-0.32904136
21	0xbed06222	-0.4069987
22	0xbeab14a7	-0.33414194
23	0xbf853fae	-1.0410058
24	0xbe58ae9c	-0.21160358
25	0xbe34a396	-0.17640528
26	0x3f09291a	0.5357834
27	0xbf0cfb3a	-0.5507084
28	0x3d1499be	0.036279432
29	0xbe97942a	-0.29605228
30	0x3f4084a2	0.7520238
31	0x3e829245	0.2550222
32	0x3f460ac7	0.77360195
33	0x3f01b9c7	0.506741
34	0x3e405b8f	0.18784927
35	0xbcb33528	-0.021875933
36	0x3e659c4b	0.22422902
37	0xbf18b5b3	-0.5965225
38	0xbfcfdcbf	-1.6239241
39	0xbf9fc3ea	-1.2481663
40	0xbf83176e	-1.0241525
41	0xbf54e09c	-0.83155227
42	0xbf310845	-0.69153243
43	0x3eb6ec57	0.35727188
44	0xbeae5e81	-0.34056476
45	0x3f62f214	0.8865063
46	0xbdeb326e	-0.11484228
47	0xbbee62ab	-0.0072749457
48	0x3f42e0ac	0.7612407
49	0x3ece7412	0.4032293
50	0x3cd1ea9b	0.025624564
51	0xbf40be02	-0.7528993
52	0xbd42aab2	-0.04752607
53	0xbf0a18bc	-0.5394399
54	0xbfb3fe70	-1.4062023
55	0xbfab9e2b	-1.3407644
56	0xbf49b331	-0.7878905
57	0xbf4439ec	-0.7665088
58	0xbeef44f0	-0.46732283
59	0x3efcabec	0.49349916
60	0x3db07722	0.08616473
61	0x3f531f25	0.824694
62	0xbe73a9c5	-0.2379523
63	0xbd007a0a	-0.031366386
64	0x3e46dabe	0.19419381
65	0x3f004384	0.5010302
66	0xbf11f376	-0.57012117
67	0xbc4306e0	-0.011903495
68	0xbf093315	-0.5359357
69	0xbefe2435	-0.49637
70	0xbb7357f5	-0.0037131284
71	0xbe4c715f	-0.19965123
72	0x3f0786a5	0.52939826
73	0x3ea592d2	0.32338578
74	0xbf8bbc59	-1.0916854
75	0xbe297d61	-0.16551735
76	0xbe1efb2a	-0.15525499
77	0xbe38aa78	-0.18033779
78	0x3ee44603	0.44584665
79	0x3eec0c7c	0.46103275
80	0x3ec66e66	0.38756102
81	0xbe0d526f	-0.13800977
82	0x3e75f664	0.24019772
83	0x3e7af78a	0.24508491
84	0xbd521219	-0.05128679
85	0x3ee1eb04	0.44124615
86	0x3ec7d83b	0.39032158
87	0xbe1a9bbf	-0.15098475
88	0x3de2fd3b	0.11083456
89	0x3eba1615	0.36344972
90	0xbec05d74	-0.375713
91	0xbd5c64c0	-0.05380702
92	0xbe9e07ad	-0.3086523
93	0x3ea0e788	0.31426644
94	0xbe30dd30	-0.17271876
95	0x3f79b4b3	0.9754135
96	0x3f25a755	0.64708453
97	0x3e8f8b37	0.280359
98	0xbe9ab292	-0.30214363
99	0x3d46de6e	0.04855197
100	0xbed5fadb	-0.4179295
101	0x3d8eeda8	0.06978923
102	0x3ee58544	0.44828236
103	0xbe1fd8a9	-0.15609993
104	0x3f187175	0.5954812
105	0x3d2508ae	0.04029148
106	0x3e23e773	0.1600626
107	0x3e440d56	0.19145712
108	0xbeb6214c	-0.35572278
109	0xbcbc0649	-0.022952216
110	0x3d57aea7	0.052656796
111	0xbdc79e0e	-0.097469434
112	0xbef3ec19	-0.47641066
113	0x3bded6bd	0.006800501
114	0xbeaf0b83	-0.3418847
115	0x3df3e48e	0.11908828
116	0x3d63710e	0.05552774
117	0xbf32a8f7	-0.6978907
118	0xbf074a4c	-0.52847743
119	0x3dcf4efb	0.10122486
120	0xbce4ac5e	-0.027914222
121	0xbef11522	-0.47086436
122	0xbe161375	-0.1465586
123	0x3d564fdb	0.05232225
124	0xbd845c2c	-0.06462893
125	0xbeb64557	-0.35599777
126	0x3e6e78f2	0.23288324
127	0xbfaed861	-1.3659784

manipulable_encoder.2.bias f4 [8]
0	0xbf09f311	-0.53886515
1	0x3fe7859d	1.808765
2	0x3f26fe33	0.6523163
3	0xbed2562e	-0.41081375
4	0x402413b5	2.5637028
5	0xbf197dc7	-0.59957546
6	0x4004941e	2.0715404
7	0xbefee072	-0.49780613

manipulable_encoder.4.weight f4 [2, 8]
0	0x3d2bfacb	0.04198722
1	0xbc5d5909	-0.013509997
2	0x3f558ae5	0.8341506
3	0xbf3ae56a	-0.7300631
4	0xbcafa15f	-0.021439252
5	0xbe933206	-0.28749102
6	0x3dead8ee	0.11467157
7	0xbf8d6989	-1.1047832
8	0xbf0d88d4	-0.5528691
9	0x3eb77ae8	0.35835958
10	0xbc9afb54	-0.01891867
11	0x3da59a83	0.080861114
12	0x3e1736bd	0.14766975
13	0x3db4fa99	0.0883686
14	0x3e1d1633	0.153405
15	0x3e8475e0	0.2587118

manipulable_encoder.4.bias f4 [2]
0	0x3f0eb261	0.55740935
1	0x3de1d395	0.11026684

manipulable_decoder.0.weight f4 [8, 2]
0	0x3e6277e8	0.22116053
1	0x3e8560cc	0.26050413
2	0x3e821c6c	0.2541231
3	0x3f55b4c7	0.8347897
4	0x3f7779c4	0.96670175
5	0x3ce880e3	0.02838177
6	0xbf3b3fe9	-0.73144394
7	0xbdafba8f	-0.08580505
8	0x3c223e4c	0.009902548
9	0xbecef3f3	-0.40420493
10	0xbe1a2f06	-0.15057
11	0x3f19b66c	0.6004398
12	0xbdccf574	-0.10007754
13	0xbef7aed6	-0.48375577
14	0xbfb594e6	-1.4186065
15	0x3db3928d	0.08768187

manipulable_decoder.0.bias f4 [8]
0	0xbf9c91e8	-1.2232027
1	0xbf280de2	-0.65646183
2	0xbf2023ab	-0.62554425
3	0x3fc82e81	1.5639192
4	0x3f863de4	1.0487638
5	0x3f16e7c0	0.5894737
6	0xbdf27cef	-0.118402354
7	0x3ebe53e7	0.37173387

manipulable_decoder.2.weight f4 [16, 8]
0	0x3df53a6f	0.11974036
1	0xbcecabb2	-0.028890464
2	0x3ec5792e	0.38569015
3	0xbde8cfde	-0.113677725
4	0x3e7a41f1	0.24439217
5	0x3e5ffdb2	0.21874121
6	0xbd3951ce	-0.04524403
7	0x3fe034b0	1.7516079
8	0xbeb8b83a	-0.36078054
9	0xbf4d6612	-0.8023387
10	0x3f677e4e	0.904271
11	0xbf65f1ea	-0.89822257
12	0x3ee53ab5	0.44771352
13	0xc046c140	-3.105545
14	0xbf5f0c03	-0.87127703
15	0xbee16d3f	-0.4402866
16	0xbefb22b9	-0.4904993
17	0xbed93a1e	-0.42427152
18	0x3f40852b	0.752032
19	0xbefc1ab5	-0.49239126
20	0xbf286155	-0.65773517
21	0xbf16a25b	-0.58841485
22	0xbe51aec0	-0.20476818
23	0x3dba0bf1	0.09084309
24	0x3ef1fc70	0.47262907
25	0x3eb491f0	0.3526759
26	0xbf2dd10e	-0.6789712
27	0x3f5f4e68	0.87229013
28	0xbf65098b	-0.89467686
29	0x3efc849c	0.49319923
30	0xbf03f8b4	-0.51551366
31	0xc01386ab	-2.3050945
32	0xbf01e71d	-0.50743276
33	0x3f389082	0.720955
34	0xc0185f60	-2.3808212
35	0xbf60041c	-0.8750627
36	0x3ed7dd7e	0.42161173
37	0x3f8946c5	1.0724722
38	0xbf0a745c	-0.540838
39	0x3e94603b	0.28979668
40	0xbef8eded	-0.48619023
41	0x3c3f874c	0.011689972
42	0xbfac44dc	-1.3458514
43	0xbfd8c48f	-1.6934985
44	0x3fd730fb	1.6811823
45	0x3f1cf24b	0.6130721
46	0x3f46add7	0.7760901
47	0xbe97b01a	-0.29626542
48	0xbf0af5f7	-0.5428156
49	0x3d9a875d	0.0754535
50	0xbf512d1a	-0.81709445
51	0xbf237d0c	-0.6386268
52	0x3f0aaaf3	0.541671
53	0x3f354d7b	0.7082135
54	0xbf5165f9	-0.8179622
55	0xbf3e2add	-0.74284154
56	0xbe441a37	-0.19150625
57	0x3f34d9a9	0.70644623
58	0xbe7378dd	-0.23776574
59	0x3f5af656	0.8553213
60	0xc006238d	-2.0959198
61	0x3f34affc	0.7058103
62	0xbf01e532	-0.5074035
63	0x3eea78fd	0.45795432
64	0xbea8e665	-0.32988277
65	0xc0254323	-2.5822227
66	0x3eb97e3b	0.3622912
67	0xbf19a44a	-0.6001631
68	0x4008fa76	2.140287
69	0xbf854c68	-1.0413942
70	0x3e12e204	0.1434403
71	0x3e42cbd3	0.19023065
72	0xbf84d9be	-1.037895
73	0xc00a5218	-2.1612606
74	0x3f3ca8b1	0.736949
75	0x3dd90324	0.10596302
76	0x3dd26dc5	0.10274843
77	0x3fa33483	1.27504
78	0x3ec0e0fe	0.37671655
79	0x3e14a7d4	0.14517146
80	0xbfa6f79b	-1.3044313
81	0xbfe66597	-1.7999753
82	0xbf311ef5	-0.6918786
83	0x3ee23c52	0.44186646
84	0x3fc12874	1.509047
85	0xbec37553	-0.3817545
86	0x3e623b49	0.22092928
87	0x3fd1832d	1.6368157
88	0xbf241d33	-0.64107054
89	0xbeb7fd51	-0.35935453
90	0xc03a18dc	-2.9077673
91	0x3f91a29c	1.137775
92	0x3fce91cd	1.6138245
93	0x3f731318	0.9495101
94	0x3ddcbd7a	0.10778327
95	0xbfdeaca9	-1.7396442
96	0xbf969db4	-1.1766877
97	0xbf619a13	-0.88125724
98	0x3e6f70e3	0.23382907
99	0xbf36557d	-0.71224195
100	0x3eae8205	0.34083572
101	0x3f3baf7a	0.7331463
102	0xbf2d0e73	-0.6760017
103	0x3ea742a4	0.3266803
104	0xbcf2a47a	-0.029619444
105	0x3e532a83	0.20621686
106	0x3e026ffa	0.12738028
107	0x3dce31b2	0.100680724
108	0xbe8fe635	-0.28105322
109	0xbf4ced6e	-0.8004979
110	0xbf393d13	-0.72358817
111	0x3ef1da73	0.47236976
112	0xbf13c7f4	-0.5772698
113	0x3f61a7b1	0.881465
114	0x3f0aab99	0.5416809
115	0x3d259226	0.04042258
116	0xbfc58200	-1.5430298
117	0x3d87841a	0.06616993
118	0xbf437b03	-0.76359576
119	0x3e738713	0.23781995
120	0xbd6af98e	-0.0573669
121	0x3f136aec	0.57585025
122	0xbf86d466	-1.0533569
123	0xbf4a9c8e	-0.79145133
124	0x3c2ae1dd	0.010429827
125	0x3f927ad6	1.1443737
126	0xbedd0cca	-0.4317382
127	0xbf0efd5b	-0.5585534

manipulable_decoder.2.bias f4 [16]
0	0xc04b50c3	-3.1768043
1	0xbe88cdb8	-0.2671945
2	0x3f9987a3	1.1994518
3	0x3f083244	0.532017
4	0x3fa246fd	1.2677914
5	0x402d8198	2.7110348
6	0xbf07670a	-0.528916
7	0xbffc96fa	-1.9733574
8	0x3f05ccfb	0.522659
9	0xbe3b2df3	-0.18279247
10	0x3fb35e43	1.4013141
11	0x3fc02d39	1.5013801
12	0x3fd013fc	1.6256099
13	0x3ffe3dae	1.9862573
14	0xbe802cd3	-0.25034198
15	0x3fae0510	1.3595295

manipulable_decoder.4.weight f4 [16, 16]
0	0x3fdd9ce4	1.7313504
1	0xbde0ff49	-0.10986192
2	0x3da3e8ab	0.08003362
3	0x3eafe5fa	0.34355146
4	0x3faec993	1.3655266
5	0xbfc3bab9	-1.5291358
6	0xbf754b5f	-0.9581813
7	0xbfaf0d4c	-1.3675933
8	0x3f90556e	1.1276071
9	0xbf5f01f4	-0.87112355
10	0xc0306a89	-2.7565024
11	0x40517d5f	3.273277
12	0x3f22b175	0.6355203
13	0x3f45d689	0.7728048
14	0x3fbbea28	1.4680834
15	0xbe9cd13e	-0.3062839
16	0x39bd08ce	0.0003605545
17	0xb95b148b	-0.0002089312
18	0xb9b9e384	-0.00035455462
19	0xb96706a4	-0.0002203235
20	0xb8b575e0	-8.6527085e-05
21	0xba2cc177	-0.0006590108
22	0xb9bcb7ff	-0.00035995242
23	0x395422c0	0.00020230841
24	0x38087995	3.253816e-05
25	0xb8efdbf2	-0.00011437376
26	0xb9bfbd55	-0.00036571422
27	0xba1da9c0	-0.00060143694
28	0xb989e0ed	-0.0002629826
29	0xb9ee7a08	-0.00045485818
30	0xb9a80d44	-0.0003205334
31	0xb990ba6b	-0.00027604713
32	0x3ecd9e0d	0.40159646
33	0x3e8bb8b1	0.27289346
34	0xbf7cca63	-0.9874632
35	0x3f8490d3	1.0356697
36	0xbfdb8a8c	-1.7151656
37	0xc03d019c	-2.9532232
38	0xbe089314	-0.13337356
39	0x3fb6dcb9	1.4286109
40	0x3f748c1d	0.95526296
41	0x3fa862a2	1.31551
42	0x3f72feea	0.9492022
43	0x3e5dfcd6	0.2167848
44	0x3fc1e2a9	1.5147296
45	0x3ee1193d	0.43964568
46	0xbdc05ee6	-0.093931004
47	0x400219c5	2.0328228
48	0xba74ac99	-0.00093335804
49	0xbb156b86	-0.0022799685
50	0xba66cab1	-0.0008804007
51	0xbb49af21	-0.003077455
52	0x3b919362	0.004442618
53	0xbb431026	-0.0029764264
54	0x399a816c	0.00029469596
55	0xbb593942	-0.00331457
56	0xbb3a3687	-0.0028413848
57	0xbb134f44	-0.0022477666
58	0xbbf757d2	-0.007548311
59	0xbb0e59be	-0.002172097
60	0x3b66fa7b	0.0035244513
61	0xb9af56af	-0.00033443185
62	0xbb7f1019	-0.0038919507
63	0xbaabdb06	-0.0013111539
64	0xb9cf2495	-0.00039509372
65	0x38b2d602	8.5275635e-05
66	0xb923a092	-0.00015604708
67	0x398559b1	0.00025434562
68	0x37b5157b	2.1586884e-05
69	0xb891e7e7	-6.957334e-05
70	0xb9da5fc5	-0.00041651554
71	0x380dbe6d	3.3794367e-05
72	0xb8a70d7f	-7.9656944e-05
73	0x3908256e	0.00012983914
74	0xb9caa081	-0.00038648027
75	0xb940a502	-0.00018372017
76	0xb99d1931	-0.00029964143
77	0x3a61be40	0.00086114183
78	0xba07217d	-0.00051548315
79	0x381239ee	3.4863064e-05
80	0xbae9ca74	-0.0017836825
81	0xbabc035b	-0.0014344262
82	0xbb58598d	-0.003301236
83	0xb9213d51	-0.00015376999
84	0xbae52f4a	-0.0017485407
85	0x3a1e0dac	0.0006029259
86	0xba8663e8	-0.0010253163
87	0xbaa8e327	-0.001288508
88	0xbb0e5a1c	-0.002172119
89	0x39e1c344	0.00043060828
90	0xba63a5bb	-0.00086840586
91	0x3a15f3e8	0.0005720244
92	0xb955d08d	-0.00020390954
93	0xbb95497c	-0.004555879
94	0xbb0e4de8	-0.0021713916
95	0xb9a2b5ca	-0.0003103449
96	0xbf06d3e1	-0.5266705
97	0xbfca2e3c	-1.579536
98	0x3f8fc772	1.1232741
99	0x3e058a45	0.13041027
100	0x3ef16367	0.4714615
101	0xbfb5554a	-1.4166653
102	0xbe5ed6e6	-0.21761665
103	0xbe2c65bf	-0.16835688
104	0x402ab5fa	2.667357
105	0x3f37bd0b	0.7177283
106	0x3a6d3dec	0.00090500596
107	0xbf03f4e0	-0.51545525
108	0xbec9db86	-0.39425296
109	0x3fa6cba9	1.3030902
110	0x3ec7feff	0.39061734
111	0x3d5aa81f	0.05338299
112	0x3f8b1b51	1.0867711
113	0x3f8aaf39	1.0834724
114	0x3e8356ce	0.25652164
115	0xc0045c9c	-2.0681524
116	0x3e5e82ee	0.21729633
117	0x3f7a6647	0.9781231
118	0xbf824d4b	-1.0179838
119	0x3fa3cdba	1.2797158
120	0xbebdb550	-0.37052393
121	0xc01a8c0b	-2.4147975
122	0x3ee91a62	0.4552794
123	0x3f5954a6	0.8489479
124	0xbf4bcf67	-0.79613346
125	0x3fc214e5	1.5162627
126	0x3f86832a	1.0508778
127	0xbf06e568	-0.52693796
128	0x3eafc3c7	0.34329054
129	0x3ef7b022	0.48376566
130	0x3f871721	1.0553933
131	0xbf18d3f7	-0.5969843
132	0xc001cef5	-2.0282567
133	0x406ba8dc	3.6821814
134	0xbf90cf3c	-1.1313243
135	0x3f6b3196	0.9187254
136	0xc029fce2	-2.6560597
137	0xbedacd07	-0.42734548
138	0xbf5189f0	-0.818511
139	0xbe61a857	-0.22036873
140	0x40286fde	2.6318278
141	0x3fbcd10e	1.4751298
142	0xc014edba	-2.3270097
143	0x3f513595	0.81722385
144	0xb8ba4bb8	-8.883275e-05
145	0xb8f6cfa8	-0.00011768873
146	0x3906f974	0.00012872164
147	0xb9a5d793	-0.00031631868
148	0xb8f73e62	-0.000117894975
149	0xb9d577f9	-0.00040715912
150	0x38e36f8f	0.00010844983
151	0xb9b69bbb	-0.00034829773
152	0x39a4a4e2	0.00031403365
153	0xb9f55c12	-0.0004679864
154	0x392d2f42	0.0001651617
155	0x38007974	3.063069e-05
156	0xb8a81359	-8.014468e-05
157	0x3a0d02ac	0.0005379121
158	0xb8f2baee	-0.000115742776
159	0x39e8bd2b	0.0004439143
160	0xc03e9b24	-2.978219
161	0xbfdc616f	-1.7217234
162	0x3ef590f3	0.4796215
163	0x3db87417	0.090065174
164	0x3f9e7f49	1.2382594
165	0x3ff3ece0	1.9056664
166	0xbf2caae9	-0.6744829
167	0xbf3ce278	-0.73783064
168	0x3f8d9043	1.105965
169	0xbf8f8673	-1.1212906
170	0x3f73faaa	0.9530436
171	0xc02a795f	-2.663658
172	0x3ec6a500	0.3879776
173	0x3fa75baa	1.3074849
174	0x3f964dc6	1.1742485
175	0xbf2c7147	-0.6736035
176	0x3eab486b	0.33453688
177	0xbfbb39fc	-1.462707
178	0x402876fc	2.6322622
179	0x3f955dfd	1.1669308
180	0x3f831765	1.0241514
181	0xbf07b5c8	-0.5301175
182	0xc00415ef	-2.0638387
183	0xbf63b35d	-0.8894556
184	0xbf82046f	-1.0157603
185	0x4002f3d7	2.0461328
186	0xbdf5072a	-0.11964257
187	0x3d9cb087	0.076508574
188	0x3fd53bcc	1.6658874
189	0x3ff2e6bb	1.8976663
190	0x3d8359c3	0.06413605
191	0xbf56620d	-0.83743364
192	0xbcde8aa2	-0.027165715
193	0xbc19da0f	-0.009390368
194	0x3c884967	0.016636563
195	0x3ccefab2	0.025266025
196	0xbbd4b6bf	-0.0064915116
197	0xbd918a68	-0.07106477
198	0x3cbcdc24	0.02305419
199	0x3d07beb2	0.033140846
200	0x3d451c03	0.048122417
201	0xbca9dde6	-0.020735692
202	0xbcd35131	-0.025795551
203	0x3d5e6188	0.05429223
204	0xbd84804c	-0.06469783
205	0x3d3a70b0	0.045517623
206	0xbca54bd0	-0.020177752
207	0xbc73f83c	-0.014890727
208	0x4017a936	2.3697028
209	0x3f825608	1.0182505
210	0x3d04244e	0.032261185
211	0x4041e5de	3.029655
212	0xbf29125c	-0.6604364
213	0xbd9ccf54	-0.07656732
214	0xbf603c8c	-0.8759239
215	0xbf23c326	-0.6396965
216	0xbe9ef491	-0.31045964
217	0x3eae2bfa	0.34017926
218	0x3f8fe961	1.1243097
219	0x404aac8c	3.1667814
220	0xbf237919	-0.63856655
221	0x3da50e0b	0.08059319
222	0x3ee31d48	0.44358277
223	0xbf44f883	-0.769417
224	0xbf710d6f	-0.94161123
225	0x3fa5b865	1.2946898
226	0xbeea9358	-0.4581554
227	0x3f5185dd	0.81844884
228	0x3f5edc4a	0.87054884
229	0xbf579c49	-0.8422285
230	0xbea0bac5	-0.31392494
231	0xbf5d6277	-0.8647837
232	0x3f62f1b6	0.8865007
233	0xbcb83657	-0.022486849
234	0x3ed0841f	0.407258
235	0xbf5d13d3	-0.86358374
236	0xbeaf8b02	-0.34285742
237	0x3ed4c624	0.4155742
238	0x3f12d101	0.57350165
239	0x3f9edef7	1.2411793
240	0xbf388a61	-0.7208615
241	0xbf0ab260	-0.5417843
242	0x3f9f3fbc	1.2441325
243	0x3eeaeba8	0.45882916
244	0x3f6ddf49	0.9291883
245	0x3f22e3c4	0.6362879
246	0x3f91bb08	1.1385202
247	0xbf5780da	-0.84180987
248	0xbf6c4b75	-0.9230264
249	0x3e9c7e69	0.30565193
250	0x3f6003b4	0.8750565
251	0xbfd200c6	-1.6406486
252	0x3f1affb4	0.6054642
253	0x3f3db0e9	0.7409807
254	0xbfa251a8	-1.268117
255	0x3fa33902	1.2751772

manipulable_decoder.4.bias f4 [16]
0	0x3ea384cc	0.31937253
1	0xba1141b3	-0.0005541101
2	0x3f98b21b	1.1929353
3	0xbb92fd1f	-0.004485741
4	0xbacfc13f	-0.0015850439
5	0xbad20815	-0.0016024137
6	0x3f98b4d4	1.1930184
7	0x3fd0d30c	1.6314406
8	0x401d609d	2.4590218
9	0xba269931	-0.0006355225
10	0x402159f8	2.5211163
11	0x3ffbabcc	1.9661803
12	0x3ca35e34	0.01994238
13	0x40003beb	2.003657
14	0x3fad9a4e	1.3562715
15	0x3fed1656	1.8522441
