results/perceptual_wgan-gp/mnist_disc_state_dict.pth (torch, 58792 bytes, 7 tensors)

main.0.weight f4 [8, 1, 3, 3]
000000 e2 88 18 bc 99 27 c8 bf 32 5c f8 bf 2b 23 bc 3d
       -0.009309979 -1.5637084 -1.9403136 0.09186395
000010 ef 00 61 3f 72 9c d6 3f 2a c0 49 3e 7b 85 f4 3d
       0.8789205 1.6766493 0.19702211 0.11939522
000020 ca 9b 02 3e 72 40 0c 3e 17 bf c4 bc 27 ca 19 3e
       0.12754741 0.13696459 -0.0240169 0.15018521
000030 1a ef 75 3d 15 5e 7f 3f e9 59 12 40 3e 21 86 be
       0.06004248 0.9975293 2.2867377 -0.26197237
000040 76 e1 ce bf b9 25 f4 bf 2e df 91 bd b7 8d 77 bf
       -1.6162555 -1.9074012 -0.07122646 -0.96700615
000050 63 1b 51 3f 80 61 1e bf fa 30 1b c0 95 60 f7 3f
       0.81682414 -0.61867523 -2.4248643 1.932635
000060 27 01 75 be 78 88 1d be 67 1e 34 3f 92 a0 ae 3e
       -0.23926221 -0.1538409 0.7035889 0.3410688
000070 cd 24 87 3f 5b e4 0a c0 03 33 a6 bd 58 f3 d8 3f
       1.0558106 -2.1701877 -0.081151985 1.6949263
000080 52 f4 a4 bf 1f b9 eb bd ae 88 da 3e 80 0b 1f 3e
       -1.2887061 -0.115099184 0.42682403 0.1553173
000090 39 20 65 3d ec fd 02 3e 02 98 4c 3b b2 d8 b3 3e
       0.055938933 0.12792176 0.0031218533 0.35126263
0000a0 06 65 21 3f 6e 03 5d 3e bc c6 ea 3e af 5b 25 3f
       0.63044775 0.2158334 0.45854747 0.64593023
0000b0 6e 82 64 3e 5d 7b a1 3f 10 5a e2 3f b7 6d da be
       0.2231538 1.2615772 1.7683735 -0.4266183
0000c0 67 e8 63 3f 23 95 c3 bf af bb 7f bf fe 1d ad 3d
       0.8902649 -1.5279888 -0.9989576 0.08452986
0000d0 34 15 77 bf e2 4d c9 be c3 10 66 3e f8 91 75 3f
       -0.9651673 -0.39317232 0.22467332 0.95925856
0000e0 21 bc 53 3f 33 22 09 3f af 8b b1 3f fa aa 86 3f
       0.82708937 0.5356781 1.3870753 1.0520928
0000f0 62 9a b6 3e 1d e0 72 3f 10 d7 f3 3e 44 58 0b 3e
       0.3566466 0.9487322 0.47625017 0.1360789
000100 26 16 9c be 84 b2 45 3e 2c c3 ae bd 09 82 67 3e
       -0.30485648 0.1930638 -0.0853332 0.22608198
000110 01 f1 35 be 15 22 7f bc 06 21 e6 3b 58 00 a6 3c
       -0.17767717 -0.015572091 0.0070229797 0.020263836

main.0.bias f4 [8]
000000 e3 18 fa be 70 c1 19 bf 5f 14 03 bf 01 52 1d bf
       -0.48847112 -0.6006079 -0.5120296 -0.61453253
000010 2a aa 04 c0 26 fd f5 be 5f 81 15 bf e9 55 86 3f
       -2.072886 -0.480447 -0.5840053 1.0494968

main.3.weight f4 [16, 8, 3, 3]
000000 d3 15 33 bd 9d e7 9d bd 26 14 96 bd 40 60 64 be
       -0.043721985 -0.07710192 -0.07328062 -0.22302341
000010 2b 78 16 be 76 0a 00 be 34 15 46 be 76 06 05 be
       -0.14694278 -0.1250399 -0.19344026 -0.12990746
000020 d5 a8 65 3d 1a 5b f7 bd f3 40 21 be 32 b0 f5 bd
       0.056069214 -0.12077923 -0.15747432 -0.11996497
000030 15 cc 1e be 9a d6 a1 bd 49 f0 28 be 9a 1a 09 bb
       -0.15507539 -0.0790226 -0.16497912 -0.0020920397
000040 ad 28 4f bb 42 84 00 3d 9f 11 70 be ef 8a cc bd
       -0.0031609938 0.03137613 -0.23444222 -0.09987437
000050 6a 8b 34 be 13 60 7e be 98 7b 68 bc 72 e8 19 be
       -0.17631307 -0.24841337 -0.014189623 -0.15030077
000060 5d eb 6e be 2e f9 32 be 33 d8 6d be 2f 07 f5 bd
       -0.23331971 -0.17477867 -0.23227005 -0.11964261
000070 ed ba b2 bd 9e 2a fe bc 5b de f6 bd 8b 77 24 be
       -0.087270595 -0.03102618 -0.1205413 -0.16061227
000080 fc 02 d5 bd da 05 77 bc 74 3d 5c be e3 c4 c1 bd
       -0.1040096 -0.015077079 -0.21507818 -0.09461381
000090 12 e9 b5 be 76 87 5b be f1 a0 23 3e da 85 fc 3e
       -0.3552938 -0.21438393 0.15979363 0.4932087
0000a0 71 70 35 bc 16 1f de be 50 36 50 be c6 2e 04 3d
       -0.011074171 -0.43383092 -0.20333219 0.03227117
0000b0 c5 c2 3d bf 00 b0 26 3b 6c a3 dd bd 90 5d 2d be
       -0.7412532 0.0025434494 -0.10822186 -0.16930223
0000c0 ee 48 3a be 2a a7 e0 bd 98 04 c6 3b 16 9c 4b be
       -0.18191883 -0.10969384 0.006043028 -0.19883761
0000d0 4f 7a 93 bd 5b 12 01 3e 94 c1 88 3e b6 c2 3b 3f
       -0.07201063 0.12604658 0.26710188 0.7334398
0000e0 09 88 bd 3d d7 02 73 3e 2a 6e 0d 3f 66 20 14 3e
       0.09254462 0.23731552 0.5524622 0.14465484
0000f0 60 9a 44 3e c7 a4 1a 3c 74 e9 0e 3e 2d 13 3d bd
       0.19199514 0.0094387 0.13956243 -0.046160866
000100 1a 3b f3 be e0 36 5b be 41 38 0f bf f7 66 03 bf
       -0.47506028 -0.21407652 -0.5594521 -0.51328987
000110 96 4e cc be 0f 82 32 be aa f6 7b be 28 80 2c 3d
       -0.39903706 -0.17432426 -0.24605814 0.042114407
000120 da c6 b5 3e c1 47 3c 3d 54 c2 1f 3e 82 40 1d 3e
       0.35503274 0.045966867 0.15601474 0.15356639
000130 51 8a bb bc 77 1c 4d 3e 56 c8 a8 3e 63 bb b1 3e
       -0.022893103 0.2003039 0.32965344 0.34713277
000140 81 ed 8e 3e 99 1f 3c bd f1 a9 01 bc 16 59 3e 3e
       0.27915576 -0.04592857 -0.007914052 0.18588671
000150 9b bf ac 3e 45 b4 98 3e 32 63 29 3e 1e d7 d5 3d
       0.33739933 0.29825035 0.16541746 0.10441421
000160 bf c9 22 3d 36 b3 62 3e ea 77 24 3e 7c 24 77 3e
       0.03974318 0.22138676 0.16061369 0.24135011
000170 33 e2 96 3d 3f e7 d7 3b 4b ee 2a 3d f0 61 d2 3e
       0.07367363 0.006588846 0.04173116 0.41090345
000180 10 d0 85 3e 3f 4e cb 3e 66 3f 9f 3e d0 68 3d 3e
       0.26135302 0.39708135 0.31103057 0.18497014
000190 98 41 7b 3e 90 60 86 3d a6 2b 0e 3d 3c 98 3a 3e
       0.24536741 0.065613866 0.034709595 0.18222135
0001a0 08 10 52 3e a2 ec 00 3e a9 68 e8 3e fa 7b ee 3e
       0.20513928 0.12590268 0.4539235 0.46578962
0001b0 5c 79 13 3f 15 10 41 3f ce 7f b9 3f 11 42 0d 3c
       0.57607055 0.75415164 1.4492128 0.0086217085
0001c0 81 9a 28 3e f6 e9 97 3f 30 64 40 3f 43 12 0e 3d
       0.16465189 1.1868274 0.75152874 0.034685384
0001d0 34 18 73 3f 36 97 b3 3d 24 5c da bc 21 0e 0a 3e
       0.94958806 0.087690756 -0.026655264 0.13481952
0001e0 4a 1a 02 3d 54 d1 13 3f 2c 76 21 3e 5c 09 e5 3d
       0.031763352 0.57741284 0.15767735 0.11183426
0001f0 fb 84 b7 3e 01 2f 26 3e fc 79 d7 bd 3c 6a 13 be
       0.35843644 0.16228868 -0.105213135 -0.14395994
000200 62 56 38 be 8c 9f b1 be 28 67 90 bc 7a ce 88 be
       -0.18001702 -0.34692037 -0.017627314 -0.2672003
000210 64 6e 23 be ab 40 dc 3d 68 4d fe bd 27 bc 32 3e
       -0.1596008 0.10754522 -0.12417108 0.17454587
000220 f8 ed b9 3d 8f 01 ac 3e 51 49 18 3e 7a 38 87 bd
       0.09078592 0.3359494 0.14871718 -0.06602569
000230 49 17 c0 3e e0 81 b8 3e d3 7f 11 3e 43 dd a2 3e
       0.37517765 0.36036587 0.14208917 0.31809434
000240 bc 1b 1b be 97 e0 4f bf 9d 64 f3 be 10 15 13 3d
       -0.15147299 -0.8120207 -0.475377 0.03590876
000250 a6 78 3d 3e 5f 8d 03 3f 5d ff 29 3e 44 12 61 3e
       0.18503055 0.5138759 0.1660132 0.21979624
000260 13 bb b9 bd ce 59 86 3b 0f ee 06 3e 86 ce a1 3d
       -0.09068885 0.004100061 0.1317675 0.07900719
000270 ca 97 22 3d f0 e2 8e be e0 81 5f 3d 3d ed 27 3e
       0.03969554 -0.27907515 0.054567218 0.16399093
000280 5c e1 1e 3e 3c 07 85 3e 6b 13 b7 3d 4d 57 20 be
       0.15515655 0.25982082 0.089392506 -0.15658303
000290 48 74 4e be 1a 6c b7 bd cd ff 8c be 52 12 1c 3e
       -0.20161545 -0.089561656 -0.2753891 0.15241364
0002a0 75 8c e2 bb e4 20 db bd f1 22 e2 bd 2d 50 94 be
       -0.0069137164 -0.10699633 -0.11041821 -0.2896742
0002b0 95 51 d8 3e 53 a1 47 be 9f ba 8b 3e 97 32 cd bc
       0.42249742 -0.19495134 0.27290818 -0.025048537
0002c0 6d a7 3b be fb e7 18 bd a9 04 0b be e2 24 58 be
       -0.18325587 -0.03733061 -0.13575996 -0.2110782
0002d0 04 5c 70 3e cf fb be be 2e ec 86 bf f1 87 d2 be
       0.23472601 -0.3730149 -1.0540826 -0.4111934
0002e0 ab 45 47 c0 5a cc 72 be 1f e2 b0 be de 23 bb bf
       -3.1136272 -0.23710766 -0.34547517 -1.4620321
0002f0 02 cd e0 be 32 e6 ab bd cb 44 b0 3e 24 78 0e 3f
       -0.4390641 -0.08393516 0.34427485 0.5565207
000300 fe f1 a6 3e 23 ec f5 3d 39 cb 9a be b5 da 8e 3d
       0.326065 0.1200793 -0.30233172 0.06975309
000310 29 a8 c2 bd d9 54 a7 be ea 03 b0 bb 25 8b 65 be
       -0.0950473 -0.3268192 -0.0053715603 -0.2241636
000320 4e d1 07 bf 62 03 96 bd 6f 00 9d 3f 6a ce 59 3d
       -0.5305375 -0.07324864 1.2265757 0.053175367
000330 fc 42 b8 3e de 7a bb 3e 8d f7 e4 3d 34 bf 6c 3e
       0.35988605 0.36617178 0.11180029 0.23119813
000340 6b d8 7a 3e 35 d9 92 bd 2e 99 27 3e b6 f4 b0 3e
       0.2449662 -0.07170335 0.16367027 0.345617
000350 11 56 cc 3d b8 23 1f 3f 1d 2b 6a 3f 5d 10 01 3f
       0.09977353 0.6216388 0.91472036 0.50415593
000360 36 0a 26 bd 50 66 a9 3e 26 e5 23 3d 48 75 d0 3e
       -0.04053708 0.3308587 0.040013455 0.40714478
000370 ab 09 c2 be 24 ed aa 3b 3e 52 2d 3e 32 06 de 3e
       -0.37898 0.0052162576 0.16925904 0.43364102
000380 10 ca fc 3e a1 22 0a 3e 65 6c a4 3e ed 1e 15 3e
       0.4937291 0.13489772 0.32113948 0.14562578
000390 cb 7c 12 bd 8e 66 84 3e fb cf 8a 3e 29 49 80 3d
       -0.035763543 0.25859493 0.27111802 0.06263954
0003a0 a2 cc 27 be c4 19 51 3c 18 6d 17 bd b8 b4 c6 3e
       -0.16386655 0.012762491 -0.036969274 0.38809752
0003b0 3b cb 25 bf ab ec f8 bd 52 36 73 3d 1f 21 94 3d
       -0.6476323 -0.12154516 0.059377976 0.0723288
0003c0 f1 eb 52 be 2b 93 ea 3d d9 ab 83 3d 23 2a 51 3e
       -0.20597817 0.11453851 0.06429262 0.2042623
0003d0 f0 2f 58 be 66 ba b5 3e 4b a5 8d 3e 66 57 f1 be
       -0.21112037 0.35493773 0.2766517 -0.47136992
0003e0 e2 eb 48 3e 93 f3 1a 3d c8 4e 49 3c 67 83 aa 3c
       0.19621232 0.037829947 0.012286849 0.02081461
0003f0 75 3a 5a 3f b1 4b 3c 3e 3e 51 aa be e7 23 4c 3e
       0.8524545 0.18388249 -0.33265108 0.1993557

main.3.bias f4 [16]
000000 ae 3d bb 3e 3d 94 86 c0 15 7e ab 3f 43 85 36 c0
       0.36570495 -4.2055955 1.3397852 -2.8518836
000010 e9 22 88 3e f2 a6 e7 bf 29 3a 80 bf 79 01 0e c0
       0.26589134 -1.8097823 -1.0017749 -2.21884
000020 25 1e b7 3f cd 53 7a bf ea 05 f5 bf 3a 0d b5 3f
       1.4306074 -0.9778412 -1.914243 1.4144661
000030 e5 66 54 be 90 a2 56 3e 40 fa 98 3e 8f b3 1a c0
       -0.20742376 0.2096045 0.29878426 -2.4172094

main.7.weight f4 [16, 784]
000000 50 7d 6d be 8d 31 4e 3e 40 27 83 3e b3 0d bd be
       -0.23192334 0.2013609 0.25615883 -0.36924514
000010 6a 90 82 3e a0 b2 c4 3e 3e 7f 74 bd 4c a4 fe 3d
       0.25500804 0.3841753 -0.05969166 0.12433681
000020 82 de 96 be a6 d6 09 3b 6e e3 70 3b ec 8f f2 3d
       -0.29466635 0.0021032481 0.0036756652 0.11843857
000030 fc 31 12 bf 13 ed 81 3c 7a f4 fc bd 27 43 fb be
       -0.5710752 0.015860116 -0.12351318 -0.4907467
000040 ad bf 05 be 44 75 0e 3e b2 fe 28 be 4e 0f 92 be
       -0.130614 0.13911921 -0.16503409 -0.28527302
000050 20 a0 0d bf c6 10 f3 bc 0b ba bd 3e 52 c5 3c 3e
       -0.55322456 -0.029671084 0.37056002 0.18434647
000060 7f 56 c9 bd 4f e2 05 3e d1 ec 30 bf f9 26 40 bd
       -0.09830951 0.13074611 -0.69111353 -0.046912167
000070 c3 6d 56 bd ab ec a7 bd b7 b1 61 be fc 21 e9 be
       -0.05235077 -0.08199438 -0.22040449 -0.4553374
000080 14 90 e3 be e4 e8 fe bc 66 c0 cc 3d 03 36 20 be
       -0.4444586 -0.03111691 0.099976346 -0.15645604
000090 70 dc 94 be 57 eb 14 bf 98 51 9d bd 64 07 89 bd
       -0.2907443 -0.581716 -0.076815784 -0.06690863
0000a0 35 6f c2 be 9d 48 21 bd 74 1e 75 bd af f4 28 bd
       -0.3797547 -0.03937589 -0.059843495 -0.041248973
0000b0 bd 05 55 3e 0a d0 18 3e c4 7c 80 3d 1e 69 35 3e
       0.2080297 0.1492311 0.06273797 0.1771588
0000c0 13 ca c8 bd 58 f3 40 be a6 d3 de be fd a2 04 3e
       -0.098041676 -0.18842828 -0.4352085 0.129528
0000d0 ea 2a 17 be 9c 1b c0 bd 7c c3 98 3d 73 2f 8b be
       -0.14762464 -0.09380266 0.07459161 -0.27184638
0000e0 6e 82 ce be b7 27 ac 3e b5 31 9d bd a8 fe a7 be
       -0.40333885 0.3362405 -0.076754965 -0.32811475
0000f0 74 30 67 be 4b e0 ce bc 2e 4c bb 3d 62 8e ac bd
       -0.22577077 -0.025253436 0.091453895 -0.08425595
000100 6a 3e d8 bd f7 ff 57 be 7d 32 c5 bc 08 8b aa be
       -0.105587795 -0.21093737 -0.024071926 -0.33309197
000110 53 e6 da bc 5b 07 7c be bf 2d 98 be 7d 94 e4 3d
       -0.026721155 -0.24612181 -0.29722401 0.111611344
000120 89 4c 21 be 5e 58 03 bf 49 b6 8f be 41 69 20 bc
       -0.15751852 -0.5130671 -0.2806876 -0.0097907195
000130 90 b1 40 be ac 0e cf be e9 fe a5 be 0a c7 07 be
       -0.18817735 -0.4044088 -0.32421044 -0.13259521
000140 e7 bc 77 be aa a5 96 be bc c5 05 be 14 2c 6f be
       -0.24193154 -0.29423267 -0.13063711 -0.23356658
000150 22 31 c4 be bd 0f 0a 3e 65 0b 87 3c a1 11 69 be
       -0.38318735 0.13482566 0.016484926 -0.22760631
000160 ff 2b 39 be c8 6d 78 be d3 92 5e be 26 ac 82 be
       -0.1808319 -0.24260628 -0.21735696 -0.25521964
000170 2f c8 d6 3e 48 a7 ae 3e 4c b2 ff 39 cc 98 98 bd
       0.41949603 0.34112 0.00048770232 -0.07451019
000180 93 5c a2 3e 0e b6 ec be f1 9f 46 3d 59 08 b9 bd
       0.31711254 -0.46232647 0.048492376 -0.09034795
000190 6a 4f 04 3e 97 3b d1 3c f9 88 a0 bd a4 54 69 be
       0.12920919 0.02554111 -0.078386255 -0.22786194
0001a0 25 b6 8d be f3 69 02 3e 4c cd 14 3d 30 91 97 3e
       -0.27678028 0.12735729 0.0363286 0.29602957
0001b0 38 67 7e be 52 02 ad be ed 8c 40 be 72 a6 52 3e
       -0.24844062 -0.33790833 -0.18803759 0.20571306
0001c0 fd 4c 7b be da 1d 82 3d d2 2a 65 bb 74 70 e9 bc
       -0.24541087 0.0635335 -0.003496815 -0.028496005
0001d0 e7 dc 92 be 6b 4f 3a 3e b9 9c 7a 3e 61 a2 3a 3e
       -0.2868416 0.18194358 0.24473847 0.18226005
0001e0 df 8b f4 bb 90 08 a7 be 9f e4 81 bd 06 9e 6b be
       -0.007462963 -0.3262372 -0.06342434 -0.230095
0001f0 de cc c4 bd 93 76 a6 3e 59 8e b4 3e 4a 61 d2 3d
       -0.09609388 0.3251234 0.35264853 0.10272463
000200 a0 24 e5 be 08 1d 35 bf 76 a3 21 be 77 f1 ac be
       -0.44754505 -0.70747423 -0.15785012 -0.33777973
000210 9e 35 c2 bc 15 e7 cc bd 11 a4 a8 bd 48 02 28 bf
       -0.023707207 -0.10005013 -0.08234418 -0.6562848
000220 b6 ff f1 3d 61 2a d1 be 4a ec 8c be 0a 6e 82 3d
       0.11816351 -0.40852645 -0.27524024 0.063686445
000230 9e ba ae 3d dc dc 81 be 3a 9d e1 be e6 cb 25 be
       0.08531688 -0.25363815 -0.44065267 -0.16191062
000240 7e 8d 66 be 79 7c 48 bf 56 57 a4 bc 0f 4f 1e bd
       -0.22514912 -0.7831493 -0.020061176 -0.038649615
000250 f4 79 46 be b7 b6 5b 3e c8 66 92 be 20 ed 72 bd
       -0.19382459 0.21456419 -0.2859404 -0.05930817
000260 1b 63 10 bf 37 4e 42 be dd 34 e2 be 27 60 a7 bc
       -0.5640122 -0.18975149 -0.44180956 -0.020431591
000270 69 ac 7a 3d 82 6a 99 3d d3 9c b7 bd 74 22 bf 3d
       0.06119958 0.07491018 -0.08965459 0.09332743
000280 29 71 24 be dc 6f 41 be 68 91 31 3e dd 52 8d 3e
       -0.16058792 -0.18890327 0.17340624 0.27602282
000290 82 6e 36 3e f4 2b 7f 3d 6f c2 a7 3e eb 58 af bd
       0.17815593 0.062297776 0.3276553 -0.08561882
0002a0 21 cb 03 bf b5 1e 11 3e 69 54 fa 3d 86 35 66 3e
       -0.51481825 0.1417187 0.12223131 0.22481355
0002b0 d7 82 ed 3e a9 ab 8e 3d 86 d4 10 3e a6 21 14 be
       0.46388885 0.06966335 0.14143571 -0.14465961
0002c0 cd 7b bf bc 54 9f ab 3c e4 c9 05 3e b1 06 8d 3e
       -0.023374463 0.020949997 0.13065296 0.27544168
0002d0 56 a9 b6 3e 90 e4 b9 be 6c 0a 37 be e4 08 bd bd
       0.35676068 -0.36307192 -0.1787507 -0.092302114
0002e0 88 66 99 3e 7b ca 8f 3e 0d 22 f0 3e 5a 37 04 bf
       0.29961038 0.28084168 0.4690098 -0.5164696
0002f0 29 7d 54 be a0 35 a8 be 5c d8 68 3d b8 3d 05 3e
       -0.2075087 -0.32853413 0.05684696 0.13011825
000300 88 5e 01 3e e5 de 33 3f 09 4c bb be 46 73 df 3c
       0.12633717 0.70261985 -0.36581448 0.027276646
000310 e1 53 6c 3e 9c 3a 83 3e 59 18 6d 3e b9 59 2f be
       0.23078872 0.25630653 0.23153819 -0.1712407
000320 cf 25 f7 3e b3 9a 9a 3e fd ba 5f 3e a9 e0 6b 3e
       0.48271033 0.3019615 0.21848674 0.2303492
000330 6b c8 7d be 6c e6 7f 3e 4d bd 95 be b6 08 83 be
       -0.24783485 0.24990243 -0.29245988 -0.25592583
000340 e8 12 2d bd 3c 20 13 3e af 66 cf bd a9 99 02 3e
       -0.04225436 0.14367765 -0.10127007 0.12753929
000350 ef 77 dd bd 37 10 1b be 04 69 b7 be d4 f8 04 be
       -0.10813891 -0.15142904 -0.35822308 -0.12985545
000360 ba 68 e3 3d b4 78 21 3e 84 c7 25 3d 0a db b2 be
       0.111039594 0.15768701 0.040473476 -0.3493274
000370 15 cf 95 be 51 ad b6 be bd c5 90 be 29 fc 43 be
       -0.29259554 -0.35679105 -0.28275862 -0.1913916
000380 47 47 a5 3e bd 34 4e 3e b1 a2 b8 3d 57 64 2e be
       0.32280943 0.20137306 0.09015406 -0.17030464
000390 fa f5 7f be 1b 19 98 bd bc d5 74 3b 67 4d 7e 3d
       -0.24996176 -0.074266635 0.003735884 0.062085535
0003a0 3a 03 fc bd 98 b7 1b be 51 7e 07 be 38 4b 83 3c
       -0.12305303 -0.15206754 -0.1323178 0.016027078
0003b0 78 83 66 3d 8b 98 f8 bd 2f d7 e8 bd 90 98 a0 3d
       0.056277722 -0.1213847 -0.11369168 0.07841599
0003c0 77 68 9a 3e bc f3 a5 3d a3 d1 0c 3d 9f 5d 8f be
       0.30157825 0.08103129 0.034379613 -0.28001115
0003d0 83 8a 87 3e c6 14 e9 3c a6 87 1d be cc a0 83 be
       0.26472864 0.028452288 -0.15383777 -0.25708616
0003e0 1e 23 8f 3c 39 0b 66 bd 0c 9e 23 be c9 a3 d8 bd
       0.0174728 -0.056163047 -0.15978259 -0.105781145
0003f0 b7 f9 62 bd 77 2f 9f 3e 45 7a d0 3e fb 14 27 3e
       -0.055413928 0.310909 0.40718284 0.16316597

main.7.bias f4 [16]
000000 f4 cd 6e 3e be 32 14 40 d4 69 9c 3f 3e 31 46 be
       0.23320752 2.315597 1.2219796 -0.19354722
000010 b2 ef 97 3f a4 2e c3 3f 9b b5 48 3d 99 70 50 3e
       1.1870024 1.5248609 0.049001317 0.20355453
000020 d3 cd 91 3f f5 d4 dd 3c fe 4e 0d 3d cf 96 87 3f
       1.1390938 0.027079085 0.03449916 1.0592898
000030 85 5f 33 3d da b7 ef 3d 40 d4 f6 bd 06 67 04 40
       0.043792266 0.11704989 -0.12052202 2.068788

main.9.weight f4 [1, 16]
000000 b0 2f e4 3d 4d 01 2e 3c f9 19 bc 3c 7b c7 c2 ba
       0.11141908 0.010620427 0.022961603 -0.0014860475
000010 ea 12 1d bc be 21 85 3c a4 45 20 be 3c ea 92 3b
       -0.009587029 0.016251441 -0.15651566 0.0044834893
000020 ff d5 c8 bb 27 60 af bd a0 6c cc bd 28 15 23 bd
       -0.006129026 -0.085632615 -0.09981656 -0.039815098
000030 1b dd 58 be 75 e0 16 be 46 8a 2c bd a7 11 f4 bb
       -0.21178095 -0.14734061 -0.042124055 -0.0074483934
