mnist_tripletnet_state_dict.pth (torch, 130584 bytes, 18 tensors)

representation_encoder.0.weight f4 [16, 1, 3, 3]
-0.07588073 0.29381505 0.0536055 0.21271917 -0.15286139 -0.015595526 0.020317866 -0.15036206
-0.33104497 -0.18853284 -0.6595157 -0.41470253 -0.5548473 0.015965689 0.10513986 -0.599007
0.26322937 0.17367525 -0.42619678 0.06463915 0.45913103 -0.40634853 0.06022419 -0.016732985
-0.22327133 -0.12156443 -0.4794752 -0.022960106 -0.44716647 0.12572525 -0.2589061 0.052334566
0.32127258 0.13539809 0.3819288 -0.33054048 0.19108383 0.33324838 0.34882262 -0.24858466
0.07299662 -0.1690487 -0.370071 -0.4753485 -0.17106655 0.043985616 -0.2663129 -0.19520862
0.14794919 0.37326857 0.23843546 -0.19271947 -0.18828478 -0.12594807 -0.16437212 -0.37667847
-0.23654535 -0.07234747 0.2190076 -0.28670362 0.29282537 0.09679466 0.1567391 -0.028062044
-0.31270486 -0.267152 0.47152507 0.1319676 -0.6210749 -0.3286382 -0.08090815 -0.4088659
0.027865455 -0.040195074 0.18377975 -0.40619677 -0.06880008 0.07007421 -0.14235184 -0.064860694
0.18590133 -0.18912938 0.21961461 0.05590956 -0.5668138 -0.645003 -0.25113347 0.2446395
0.08754055 -0.46487612 0.06270161 0.17659126 0.0997427 -0.07411639 0.025038945 0.16101468
0.15731734 0.06968685 0.08028431 0.29434112 0.18410727 -0.2533542 0.3642741 -0.39544368
-0.46446982 0.053699348 -0.13580124 0.17781807 -0.30802587 -0.28132293 0.2294911 0.14518166
0.33022705 0.18513487 0.13991778 -0.048369937 -0.3419729 0.07781506 0.45646682 -0.44692716
-0.2152109 0.22609477 0.17512016 -0.3787218 0.014077911 0.06334562 -0.11436145 0.20601766
0.075449914 -0.34988534 -0.15128398 0.341118 -0.08146337 0.014605143 0.21595246 0.13723338
-0.44246346 -0.15763566 -0.24164216 -0.23030041 0.31762725 -0.5279838 -0.2590946 0.043881778
00000000: 5b67 9bbd ed6e 963e 7191 5b3d 0ed3 593e
00000010: b287 1cbe 6184 7fbc a771 a63c 83f8 19be
00000020: ba7e a9be c10e 41be 05d6 28bf e453 d4be
00000030: 790a 0ebf 7aca 823c 9153 d73d 8658 19bf
00000040: 00c6 863e edd7 313e 7736 dabe 8861 843d
00000050: 3913 eb3e ea0c d0be a4ad 763d 9d13 89bc
00000060: 3da1 64be c6f6 f8bd c67d f5be d516 bcbc
00000070: 01f3 e4be 1fbe 003e 578f 84be c55c 563d
00000080: d77d a43e cca5 0a3e 2c8c c33e 9a3c a9be
00000090: 7bab 433e 889f aa3e e198 b23e fa8c 7ebe
000000a0: 407f 953d 1a1b 2dbe f279 bdbe e160 f3be
000000b0: 122c 2fbe 432a 343d 2a5a 88be c5e4 47be
000000c0: fe7f 173e 0f1d bf3e 6d28 743e 4158 45be
000000d0: bacd 40be 88f8 00be 2a51 28be 00dc c0be
000000e0: f238 72be e92a 94bd 8743 603e d1ca 92be
000000f0: 35ed 953e 473c c63d 3780 203e 5fe2 e5bc
00000100: da1a a0be 26c8 88be bc6b f13e 8422 073e
00000110: c4fe 1ebf 4443 a8be 2cb3 a5bd df56 d1be
00000120: 1846 e43c 97a3 24bd c230 3c3e 06f9 cfbe
00000130: 0ee7 8cbd 1183 8f3d aec4 11be afd5 84bd
00000140: eb5c 3e3e 22ab 41be a7e2 603e 6c01 653d
00000150: b61a 11bf eb1e 25bf 9194 80be c782 7a3e
00000160: 7648 b33d 3e04 eebe b469 803d 57d4 343e
00000170: e745 cc3d 55ca 97bd 791e cd3c 08e1 243e
00000180: cc17 213e fbb7 8e3d 1a6c a43d e1b3 963e
00000190: 9e86 3c3e a4b7 81be 2382 ba3e 9877 cabe
000001a0: fdce edbe d9f3 5b3d 7b0f 0bbe f115 363e
000001b0: 91b5 9dbe 8f09 90be b7ff 6a3e 80aa 143e
000001c0: 8513 a93e ff93 3d3e 9b46 0f3e 8e1f 46bd
000001d0: 1217 afbe 815d 9f3d 05b6 e93e a3d3 e4be
000001e0: 3f60 5cbe 6385 673e b352 333e d3e7 c1be
000001f0: 0aa7 663c 59bb 813d 5636 eabd 4bf6 523e
00000200: 7c85 9a3d 2c24 b3be 30ea 1abe 05a7 ae3e
00000210: 44d6 a6bd 694a 6f3c a422 5d3e e886 0c3e
00000220: 928a e2be 3e6b 21be 0b71 77be dfd3 6bbe
00000230: 0aa0 a23e f229 07bf 0ca8 84be 61bd 333d

representation_encoder.0.bias f4 [16]
-0.25155064 0.03345612 -0.15255584 -0.18370928 0.026752157 -0.018241271 -0.06786041 -0.0032727097
-0.19496714 0.14644115 -0.26516145 -0.17355147 -0.33142006 -0.2800145 -0.038006112 -0.042348567
00000000: 3fcb 80be 4909 093d 9937 1cbe 491e 3cbe
00000010: 5727 db3c b86e 95bc 66fa 8abd f57a 56bb
00000020: 77a5 47be abf4 153e 3ec3 87be 7ab7 31be
00000030: e4af a9be 0f5e 8fbe 4cac 1bbd b175 2dbd

representation_encoder.3.weight f4 [32, 16, 3, 3]
-0.06583525 -0.037109144 0.16782859 -0.11026884 0.071243845 0.10170674 0.046661276 -0.13066302
-0.089642815 -0.24784303 -0.0073396624 -0.039505348 -0.04272666 -0.07184866 -0.14346859 0.13154905
-0.008102966 -0.09959855 0.068568245 0.10100701 0.15383106 -0.027206505 0.06308325 -0.09179066
0.063746326 -0.055881474 -0.1952899 -0.26859847 0.12926579 0.1946072 -0.17656599 -0.07197765
-0.14976382 -0.07927021 0.062695935 -0.030740205 0.22048406 0.14489333 0.20723121 0.0043378165
0.0072472827 0.116607934 0.12130281 0.034676656 -0.19296694 0.0768259 0.008416084 0.03851546
-0.2312437 -0.073421754 -0.11420108 -0.16366737 -0.092391625 -0.22638556 -0.114412434 -0.040610246
-0.07746554 0.039407838 -0.004976111 0.0016330418 -0.11635133 -0.008932071 0.021953266 -0.00784529
-0.28760237 -0.1847076 -0.13424917 -0.22640654 0.10556071 0.09776673 -0.091553554 0.18520592
0.16462943 -0.18988359 -0.15911557 -0.07931186 -0.09655178 -0.22279668 0.16684186 0.10825163
0.09294181 -0.14396961 -0.08870313 0.10781766 0.0054740636 0.03639497 0.02011208 -0.1372296
-0.030140901 -0.12691179 0.11558261 -0.097525574 0.1790699 -0.092377074 -0.009604227 0.038400397
-0.17168678 -0.0628128 -0.049920835 -0.1406662 -0.22717284 0.14864862 -0.3206497 -0.18563335
0.067941196 -0.13241397 -0.22259808 -0.0908289 -0.11254567 0.1498095 0.35356802 -0.05093808
-0.082651146 -0.11116749 -0.15598375 -0.0014890413 0.0045918515 0.24540053 -0.018957565 -0.032574765
0.24077867 -0.0077742636 0.18680693 0.13939938 -0.033073597 -0.13351943 0.07886563 -0.17549531
-0.113622524 -0.25589845 -0.23108783 -0.22709307 0.024309244 -0.005780798 -0.027920254 -0.14949682
-0.16266045 -0.041101687 -0.13306755 -0.09295734 -0.14153287 0.26088694 -0.05663458 0.039507307
-0.37568915 -0.07040417 0.21656954 -0.23660655 -0.22416057 -0.124191105 -0.18470868 -0.17943484
-0.0074337223 -0.09272203 -0.36512545 0.13701771 0.023557803 -0.15227583 0.115624435 -0.23398085
-0.22470298 -0.13633204 0.09225861 0.35392728 0.35956347 0.14710802 0.08699173 0.058407333
0.05128305 -0.051640447 0.09498422 -0.21136248 -0.15249762 -0.30450535 0.14686756 -0.050363652
-0.04645948 -0.054255195 -0.18326883 0.14333166 -0.11465958 -0.27521574 -0.047606446 -0.2226047
-0.146651 -0.47300616 0.0006867225 -0.0673384 -0.018654717 -0.31044298 -0.5105191 -0.09494444
0.06115609 -0.16089883 0.07643621 0.19569743 0.22380756 0.32508758 -0.37329948 -0.3586194
-0.11626631 0.21095747 -0.13445345 -0.013844493 0.19167262 -0.2370618 0.006148015 -0.015263194
-0.045867596 -0.0070225834 0.20302787 0.010859688 0.05302316 -0.03173668 -0.24089655 -0.042511176
0.12573873 0.220338 -0.1422232 0.089339405 0.12620573 -0.18315761 0.08587398 0.020594873
-0.09584146 0.12918779 -0.25227317 -0.10565448 0.08759027 -0.072208084 0.18419355 -0.09563645
-0.08283766 -0.061933912 -0.09775288 -0.012694353 -0.07764842 0.03766689 -0.06302429 -0.03196399
-0.1772321 0.07346078 0.0027605442 0.027278967 0.012034582 0.30955938 -0.4120303 -0.10211589
0.09582423 -0.46321577 -0.09250049 0.060930688 -0.265637 -0.2365625 -0.268982 0.09696823
00000000: a2d4 86bd c2ff 17bd 42db 2b3e a1d4 e1bd
00000010: 4be8 913d a04b d03d e51f 3f3d 87cc 05be
00000020: a796 b7bd 90ca 7dbe 8d81 f0bb 5cd0 21bd
00000030: 2602 2fbd 6425 93bd 6ee9 12be cbb4 063e
00000040: 4dc2 04bc 53fa cbbd 826d 8c3d c3dc ce3d
00000050: e485 1d3e 2de0 debc ca31 813d befc bbbd
00000060: 6f8d 823d f9e3 64bd 13fa 47be bd85 89be
00000070: 405e 043e 1c47 473e b7cd 34be 0569 93bd
00000080: b05b 19be 6b58 a2bd ba66 803d e2d2 fbbc
00000090: 93c6 613e eb5e 143e 6b34 543e 3e24 8e3b
000000a0: 9d7a ed3b 24d0 ee3d 9c6d f83d 1c09 0e3d
000000b0: 2099 45be e656 9d3d 9de3 093c 63c2 1d3d
000000c0: 26cb 6cbe 255e 96bd 41e2 e9bd 6b98 27be
000000d0: d237 bdbd 9ed1 67be 1151 eabd ee56 26bd
000000e0: 41a6 9ebd 1d6a 213d a50e a3bb ca0b d63a
000000f0: 9b49 eebd d257 12bc 56d7 b33c 8889 00bc
00000100: 9e40 93be fd23 3dbe 9d78 09be 1ed7 67be
00000110: 3730 d83d ec39 c83d 6e80 bbbd 9fa6 3d3e
00000120: 9e94 283e d870 42be 31ef 22be 426e a2bd
00000130: f1bc c5bd d024 64be 98d8 2a3e 08b3 dd3d
00000140: 4758 be3d c56c 13be fda9 b5bd 81cf dc3d
00000150: c65f b33b e412 153d 17c2 a43c eb85 0cbe
00000160: 0dea f6bc 2af5 01be 93b6 ec3d 7dbb c7bd
00000170: 1a5e 373e 3130 bdbd 0c5b 1dbc bc49 1d3d
00000180: a9ce 2fbe ffa3 80bd ca79 4cbd cd0a 10be
00000190: ff9f 68be 5837 183e 332c a4be ab16 3ebe
000001a0: c124 8b3d 8797 07be c0f0 63be 8104 babd
000001b0: 587e e6bd a967 193e de06 b53e 73a4 50bd
000001c0: 0145 a9bd c8ab e3bd 34ba 1fbe ef2b c3ba
000001d0: 3e77 963b 474a 7b3e e54c 9bbc 1e6d 05bd
000001e0: af8e 763e 40bf febb 514a 3f3e b6be 0e3e
000001f0: 2e78 07bd 51b9 08be 4e84 a13d 0bb5 33be
00000200: edb2 e8bd 1f05 83be 4aa2 6cbe 168b 68be
00000210: 2e24 c73c d96c bdbb 04b9 e4bc b215 19be
00000220: 7690 26be 3e5a 28bd dc42 08be 6b60 bebd
00000230: feed 10be f992 853e a9f9 67bd 6ad2 213d
00000240: 545a c0be 1030 90bd 68c4 5d3e fd48 72be
00000250: 598a 65be e857 febd 4624 3dbe c4bd 37be
00000260: 9596 f3bb 0ce5 bdbd b9f1 babe 5f4e 0c3e
00000270: 4bfc c03c 32ee 1bbe 81cc ec3d ad98 6fbe
00000280: 8a18 66be a09a 0bbe 15f2 bc3d f535 b53e
00000290: b418 b83e 7ca3 163e b828 b23d 873c 6f3d
000002a0: 2d0e 523d ef84 53bd 1687 c23d 686f 58be
000002b0: 5628 1cbe 20e8 9bbe 7364 163e 1e4a 4ebd
000002c0: 4c4c 3ebd b23a 5ebd d3aa 3bbe 89c5 123e
000002d0: a4d2 eabd 14e9 8cbe fafe 42bd 7df2 63be
000002e0: ae2b 16be dd2d f2be 2b05 343a b7e8 89bd
000002f0: c7d1 98bc 62f2 9ebe 61b1 02bf 3b72 c2bd
00000300: cf7e 7a3d aac2 24be 968a 9c3d e864 483e
00000310: cf2d 653e e171 a63e 1c21 bfbe f69c b7be
00000320: 081d eebd 3c05 583e 2aae 09be 03d4 62bc
00000330: d445 443e 54c0 72be 4a75 c93b 7a12 7abc
00000340: a9df 3bbd b31d e6bb 8ae6 4f3e d5ec 313c
00000350: d02e 593d 52fe 01bd 96ad 76be 3320 2ebd
00000360: a7c1 003e 49a0 613e f5a2 11be 94f7 b63d
00000370: 133c 013e ab8d 3bbe b2de af3d 94b6 a83c
00000380: 8748 c4bd ce49 043e f329 81be 6061 d8bd
00000390: 8762 b33d d5e1 93bd 3c9d 3c3e 0bdd c3bd
000003a0: cba6 a9bd 6aae 7dbd a932 c8bd fafb 4fbc
000003b0: 2306 9fbd 9948 1a3d e112 81bd acec 02bd
000003c0: 557c 35be 9b72 963d 3fea 343b 2478 df3c
000003d0: b22c 453c 917e 9e3e a3f5 d2be 2322 d1bd
000003e0: 7e3f c43d 9e2a edbe e670 bdbd 7592 793d
000003f0: 9301 88be 713d 72be 02b8 89be 4897 c63d

representation_encoder.3.bias f4 [32]
-0.19172145 -0.10466625 -0.012852304 -0.077135794 -0.1840272 -0.28467864 -0.33794525 -0.04501402
-0.13322274 -0.15889499 0.034140266 -0.27320355 -0.19368687 -0.11036553 -0.30761507 -0.05856559
-0.12869501 -0.057210956 -0.20208025 -0.25811 -0.14101374 -0.108551316 -0.10588367 -0.26112688
-0.27061525 -0.23552182 -0.08539979 -0.018266521 -0.14237808 -0.254245 -0.14987594 -0.15109667
00000000: a152 44be 425b d6bd 7892 52bc 5ff9 9dbd
00000010: a071 3cbe 66c1 91be 2907 adbe 9f60 38bd
00000020: 8b6b 08be 5eb5 22be aad6 0b3d 56e1 8bbe
00000030: da55 46be 5307 e2bd b97f 9dbe 79e2 6fbd
00000040: a0c8 03be 0956 6abd 20ee 4ebe fe26 84be
00000050: e865 10be 2750 debd 8ad9 d8bd 6cb2 85be
00000060: 158e 8abe a22c 71be 16e6 aebd aca3 95bc
00000070: 8fcb 11be 672c 82be 1479 19be 16b9 1abe

representation_encoder.7.weight f4 [16, 1568]
0.05835168 0.0415048 0.023120672 0.05708728 0.06805554 0.11780077 -0.0016753712 0.09405961
0.052717976 0.04774987 0.007585423 -0.002707579 -0.050940074 0.07072138 0.11437388 0.019313466
-0.021168226 0.06891059 -0.02697865 -0.12083882 -0.0009695245 0.09581428 0.024144536 -0.04693388
-0.012100667 0.018313918 -0.05973299 0.029376745 0.13852508 -0.014418224 -0.056405947 -0.03575526
0.01859796 -0.08097848 -0.04571408 0.044784933 0.02191595 0.031402647 0.06546549 0.025474614
0.026957143 -0.07315143 0.028462112 0.0016148867 -0.027810045 -0.015145994 -0.021538334 0.020431213
-0.002921632 -0.014869478 0.0019199643 0.112692 -0.015989652 0.013114183 0.030441744 -0.085252814
-0.036428157 -0.004097558 0.08498009 0.004513335 0.02176125 0.073764384 -0.090194866 -0.11747636
-0.0737745 -0.056035157 0.02472856 0.0027776242 0.045057964 -0.029682228 -0.05766814 -0.06013842
-0.033942893 -0.07633006 -0.007555876 0.09737542 0.0030991985 -0.06556679 -0.06302891 -0.049973696
-0.07810784 0.039016467 0.06382656 0.05750126 -0.022903776 -0.02401331 -0.05036143 0.0046873535
-0.050807033 -0.028443782 0.08258755 -0.062227856 0.027186932 0.088394426 0.0015932189 -0.009329727
-0.025119888 0.012611747 -0.0012804605 0.0020200445 0.062351566 -0.056558806 -0.021253092 0.124468535
-0.015472412 0.059085477 0.02767635 0.13942973 0.0035470042 0.023410516 0.11752615 0.058567103
0.084481925 -0.05229733 -0.08298545 -0.11592791 0.06582639 0.11006033 0.018187344 0.06446373
-0.15186253 -0.07994444 -0.056742184 0.0091205025 -0.021501638 -0.0029446783 0.05186205 -0.11293561
-0.110252686 0.009165172 -0.07133243 -0.010189903 0.06968844 0.016871616 -0.09903967 -0.05509383
-0.08179269 -0.102297395 0.018994093 0.14346544 -0.006772406 -0.042309407 0.049651727 -0.06652035
-0.09529737 -0.016970595 0.073357336 0.034219295 0.0911103 0.10462862 0.1144943 0.095981345
0.05213113 0.13546646 0.07971607 0.084270224 0.03768577 0.0074306764 0.041873187 0.030746857
0.11182176 0.12796514 -0.08906348 -0.061574917 -1.817234e-05 0.030498719 0.044914998 0.16619429
0.027939951 -0.13812707 -0.11260119 0.19060642 0.060687356 0.054016 0.10348233 0.045208953
-0.08934016 -0.10761314 0.1167919 0.08171178 0.09862017 0.027055895 -0.008661631 0.039200876
-0.09614073 0.011568461 0.0033867978 -0.035736356 0.10560247 0.09170395 0.026406037 0.019556528
0.07809692 0.006116856 0.0040057963 0.24742255 0.018034425 0.058270942 0.06460546 0.12150663
0.15410554 0.1007735 0.024858415 0.027854873 0.080559835 0.19004342 0.14129332 0.109405205
-0.13610372 -0.08741716 0.03291032 0.08798081 0.009569851 0.055551834 0.008180576 -0.026987249
-0.026257522 0.0065574134 0.04011183 0.094857804 0.0569278 -0.04740343 -0.077565216 0.045736298
0.056190256 0.067038976 0.009830584 -0.046492342 0.053399697 -0.05424799 -0.10327037 0.0538827
0.14209184 -0.05762141 0.06171408 -0.06189831 -0.0027524012 -0.0764677 0.08096543 0.13953377
-0.030242478 0.1353304 0.10539996 -0.09368364 0.021179557 -0.031533044 -0.018255854 -0.024014322
-0.032071073 -0.009897676 -0.0518191 -0.05159855 0.00787901 0.06472014 0.003345184 -0.09107018
00000000: 2c02 6f3d f000 2a3d 9067 bd3c 5ad4 693d
00000010: b460 8b3d 8841 f13d 2198 dbba 53a2 c03d
00000020: ceee 573d 5e95 433d 248f f83b a371 31bb
00000030: 8aa6 50bd 5fd6 903d da3c ea3d 4637 9e3c
00000040: fd68 adbc ff20 8d3d 5402 ddbc 587a f7bd
00000050: b027 7eba 473a c43d c3ca c53c bd3d 40bd
00000060: e041 46bc 1207 963c 94aa 74bd 80a7 f03c
00000070: 85d9 0d3e 6a3a 6cbc ec09 67bd 1c74 12bd
00000080: c05a 983c 0cd8 a5bd b03e 3bbd 6870 373d
00000090: 1489 b33c 10a0 003d c512 863d 23b0 d03c
000000a0: 3ad5 dc3c 6bd0 95bd 6029 e93c 9baa d33a
000000b0: e4d1 e3bc e726 78bc 2971 b0bc 5c5f a73c
000000c0: da78 3fbb 1c9f 73bc 50a7 fb3a 10cb e63d
000000d0: bbfc 82bc dfdc 563c f760 f93c 0799 aebd
000000e0: b135 15bd cf44 86bb 0b0a ae3d 99e4 933b
000000f0: a644 b23c c811 973d 16b8 b8bd 7297 f0bd
00000100: 1617 97bd 1f85 65bd 8d93 ca3c cd08 363b
00000110: b38e 383d 2528 f3bc 6d35 6cbd b453 76bd
00000120: b407 0bbd ef52 9cbd 4897 f7bb c46c c73d
00000130: ec1b 4b3b e247 86bd 4d15 81bd 38b1 4cbd
00000140: 01f7 9fbd bbcf 1f3d 80b7 823d 7186 6b3d
00000150: b3a0 bbbc 90b7 c4bc c947 4ebd 5f98 993b
00000160: 091b 50bd ef02 e9bc a923 a93d a3e2 7ebd
00000170: 21b7 de3c 2308 b53d 8ed3 d03a b6db 18bc
00000180: 39c8 cdbc 80a1 4e3c 20d5 a7ba b962 043b
00000190: 5b64 7f3d 35aa 67bd f71a aebc 5ce9 fe3d
000001a0: 0080 7dbc 9d03 723d 83b9 e23c abc6 0e3e
000001b0: db74 683b 69c7 bf3c 8db1 f03d 0fe4 6f3d
000001c0: dc04 ad3d ba35 56bd 47f4 a9bd 9d6b edbd
000001d0: fdcf 863d 4f67 e13d a0fd 943c 8f05 843d
000001e0: da81 1bbe e9b9 a3bd 7e6a 68bd 296e 153c
000001f0: 3424 b0bc 81fb 40bb 4d6d 543d c94a e7bd
00000200: 29cc e1bd 8529 163c bd16 92bd 8df3 26bc
00000210: d0b8 8e3d 5836 8a3c 4fd5 cabd 11aa 61bd
00000220: ed82 a7bd 4c81 d1bd 8099 9b3c 9be8 123e
00000230: 0feb ddbb a14c 2dbd 9c5f 4b3d d23b 88bd
00000240: 442b c3bd eb05 8bbc 5f3c 963d 8829 0c3d
00000250: 0998 ba3d 8847 d63d fd7b ea3d de91 c43d
00000260: 7487 553d b8b7 0a3e 2e42 a33d de95 ac3d
00000270: 655c 1a3d 087d f33b 3883 2b3d d5e0 fb3c
00000280: cf02 e53d 4b09 033e ea66 b6bd fb35 7cbd
00000290: ce70 98b7 73d8 f93c caf8 373d d62e 2a3e
000002a0: 53e2 e43c 2f71 0dbe 749b e6bd 542e 433e
000002b0: 4e93 783d e23f 5d3d 8bee d33d 062d 393d
000002c0: f9f7 b6bd 4764 dcbd 9730 ef3d 8158 a73d
000002d0: 5ff9 c93d 53a4 dd3c 83e9 0dbc 1991 203d
000002e0: 6ee5 c4bd a489 3d3c 0af5 5d3b 4960 12bd
000002f0: 1c46 d83d 48cf bb3d 7951 d83c 0335 a03c
00000300: 47f1 9f3d e86f c83b 0e43 833b 565c 7d3e
00000310: eebc 933c 83ad 6e3d de4f 843d 78d8 f83d
00000320: d8cd 1d3e 5662 ce3d e0a3 cb3c e72f e43c
00000330: 8efc a43d be9a 423e 32af 103e d60f e03d
00000340: c65e 0bbe c507 b3bd f9cc 063d 482f b43d
00000350: ddca 1c3c 528a 633d d307 063c 5d14 ddbc
00000360: 041a d7bc 92df d63b 4d4c 243d cf44 c23d
00000370: 202d 693d 192a 42bd 83da 9ebd fc55 3b3d
00000380: c127 663d bb4b 893d 7510 213c c16e 3ebd
00000390: a4b9 5a3d 2433 5ebd 6a7f d3bd 1bb4 5c3d
000003a0: 8680 113e 6d04 6cbd e7c7 7c3d 1589 7dbd
000003b0: a161 34bb 199b 9cbd 34d1 a53d f1e1 0e3e
000003c0: 13bf f7bc 0d94 0a3e efdb d73d 35dd bfbd
000003d0: c080 ad3c cb28 01bd 4d8d 95bc afb9 c4bc
000003e0: f55c 03bd dd29 22bc 4440 54bd 0059 53bd
000003f0: f716 013c fe8b 843d e03a 5b3b 0183 babd

representation_encoder.7.bias f4 [16]
-0.05545492 0.13150734 0.20135927 0.200059 0.14977269 0.21292448 -0.08416387 0.14936659
0.15121143 0.1175875 0.19950944 0.11872241 0.15954289 0.16503675 0.14504015 0.087436914
00000000: b324 63bd dca9 063e 2031 4e3e 44dc 4c3e
00000010: 035e 193e e008 5a3e 1b5e acbd 8ef3 183e
00000020: 2bd7 1a3e b7d1 f03d 344c 4c3e bc24 f33d
00000030: 365f 233e 65ff 283e 6885 143e 2012 b33d

manipulable_encoder.0.weight f4 [16, 16]
-0.061790362 0.6481319 -0.7016889 -0.37417284 0.11250698 -0.75315285 -0.0110371215 -0.089025296
-0.35075194 -0.46788666 0.061346564 -0.14706936 -0.042897448 -0.42681578 0.77074236 0.36544567
0.5296047 -0.22590454 1.0122072 -0.5277822 -0.50841874 0.0086526135 -0.030217206 0.1818546
-0.34800443 -0.18624099 -0.46819228 -0.014184331 0.036696658 -0.20044002 0.12671696 0.91430926
-0.058893956 0.0077572693 -0.6353877 0.124098845 -0.3124373 0.39666587 0.316706 -0.098280445
0.01478966 -0.13423093 -0.14356504 -0.38470924 0.63177484 0.7116069 -0.47813052 -0.1715841
-0.18445168 0.50453883 -0.18919039 -0.78227675 -0.29706433 0.23714694 -0.22769271 -0.15277165
0.03639509 -0.55073667 0.18869622 -0.022210883 0.099154145 0.3562201 0.779595 -0.13730848
0.26093516 -0.3028304 1.0828189 -0.5849843 -0.5491078 -0.09449947 -0.192547 -0.11971933
-0.08333971 -0.2051851 -0.0083765555 -0.41512594 -0.23589353 0.20664576 0.3482074 -1.03402
-0.019380195 -0.22723886 0.07868676 0.3011105 0.030729968 -0.12973325 -0.051564664 0.12503272
0.5325171 -0.17611748 0.2802028 0.1003086 -0.18015923 0.5805656 -0.13696517 -0.48445323
0.031067818 -0.04082093 -0.33966076 0.5800822 0.6727624 -0.7037142 0.18643528 -0.429385
-0.014428279 -0.15174526 1.0474968 -0.09497925 -1.0132358 -0.14845577 -0.34611318 -0.6756675
-0.11871656 0.7847556 -0.3388215 -0.524783 0.36542007 -0.9325466 0.067336924 0.09186468
-0.23467839 0.3552428 0.16018675 0.029792277 -0.36910427 -0.68827575 0.47934464 -0.85540813
-0.040073805 -0.33358288 1.016113 -0.18568467 0.047917586 0.06610199 -0.19319633 -0.47497305
-0.5034721 0.07836252 -0.22305863 -0.21476384 -0.046577442 0.071467675 -0.03253226 0.9477716
-0.2748145 -0.17686854 -0.40096775 0.051310647 0.3481087 -0.06504688 -0.25763214 -0.9089734
0.36841992 0.1220139 0.21568504 0.3110543 -0.34755906 0.5830797 -0.28651962 -0.42632434
0.13921969 -0.5116117 -0.2709094 0.7007225 0.34883916 -0.2966932 0.12231281 -0.42450234
0.17012593 0.41336757 0.3612948 0.31976548 -0.8151955 0.032597933 -0.46258032 0.080768734
0.19630176 -0.40698546 0.5383189 -0.29490396 -0.24497181 -0.26599067 -0.33620065 1.1452566
0.038900264 -0.31661308 0.1784045 0.16251226 -0.23270124 -0.15583149 -0.13508959 0.48552683
0.059826273 0.63407624 -0.11144108 0.49277824 0.22645108 -0.4662011 -0.08074782 -0.29032475
-0.13564625 -0.34336442 0.29670605 -0.19025367 0.122260824 0.273858 -0.037306927 -0.44386277
0.07534491 -0.14969414 -0.963996 -0.045309015 -0.35533488 -0.008326237 0.17929272 -0.68514097
-0.29282326 -0.19193594 -0.2590619 0.0031791104 0.07206777 0.03861023 -0.17418897 1.1206363
0.11772459 -0.6509028 0.6221269 0.042264402 -0.04199912 0.43697783 0.31191227 0.35764536
0.33459157 -0.04483742 0.07277279 0.14487718 0.20354328 0.31337547 -0.43027464 -0.08148493
0.018053059 -0.10981693 -0.22476047 0.46167493 0.030068742 -0.737641 0.22318675 0.4467031
-0.112250544 0.023927338 -0.02999639 -0.1322826 0.41474035 0.10751653 -0.34674266 -0.28437564
00000000: e417 7dbd f9eb 253f e2a1 33bf 9593 bfbe
00000010: 0f6a e63d a0ce 40bf 0bd5 34bc e552 b6bd
00000020: c295 b3be d78e efbe 8946 7b3d 5a99 16be
00000030: 3cb5 2fbd 9987 dabe 5f4f 453f b21b bb3e
00000040: 2c94 073f 8553 67be 0190 813f bc1c 07bf
00000050: bb27 02bf b1c3 0d3c 138a f7bc 1838 3a3e
00000060: a32d b2be f5b5 3ebe e6b6 efbe 6565 68bc
00000070: 3c4f 163d 2640 4dbe 17c2 013e 2c10 6a3f
00000080: ca3a 71bd b130 fe3b c5a8 22bf 8927 fe3d
00000090: c8f7 9fbe ca17 cb3e 4a27 a23e 4247 c9bd
000000a0: 5550 723c d573 09be b702 13be 9cf8 c4be
000000b0: ffbb 213f df2b 363f 86cd f4be beb3 2fbe
000000c0: e7e0 3cbe 7529 013f 20bb 41be 4a43 48bf
000000d0: d118 98be a6d6 723e 4728 69be 2c70 1cbe
000000e0: 0513 153d 14fd 0cbf 9539 413e 99f3 b5bc
000000f0: 5411 cb3d 7b62 b63e 8a93 473f 989a 0cbe
00000100: 4b99 853e 960c 9bbe cf99 8a3f 88c1 15bf
00000110: 5492 0cbf f088 c1bd 0a2b 45be 682f f5bd
00000120: 03ae aabd 0b1c 52be d23d 09bc 638b d4be
00000130: 138e 71be f29a 533e 3e48 b23e c45a 84bf
00000140: 37c3 9ebc 4eb1 68be 8626 a13d 282b 9a3e
00000150: 6abd fb3c cbd8 04be 7835 53bd 9408 003e
00000160: 0a53 083f 2458 34be be76 8f3e 986e cd3d
00000170: a97b 38be f29f 143f 9940 0cbe 410a f8be
00000180: f081 fe3c d933 27bd 04e8 adbe 4480 143f
00000190: 283a 2c3f 9d26 34bf e4e8 3e3e 5ad8 dbbe
000001a0: 9764 6cbc 1c63 1bbe 6014 863f 7b84 c2bd
000001b0: b6b1 81bf ca04 18be bf35 b1be 8cf8 2cbf
000001c0: ab21 f3bd bee5 483f 037a adbe 2e58 06bf
000001d0: 5718 bb3e 60bb 6ebf f1e7 893d 8d23 bc3d
000001e0: 884f 70be 62e2 b53e ff07 243e ef0e f43c
000001f0: 3cfb bcbe d732 30bf a96c f53e 07fc 5abf
00000200: 6e24 24bd 60cb aabe fe0f 823f 1f24 3ebe
00000210: 3b45 443d 7b60 873d 42d5 45be ab2f f3be
00000220: 8ce3 00bf 877c a03d 7b69 64be 0deb 5bbe
00000230: fdc7 3ebd a55d 923d 8c40 05bd 29a1 723f
00000240: 7cb4 8cbe 071d 35be a54b cdbe 1d2b 523d
00000250: 4e3b b23e 4c37 85bd 5ce8 83be 7bb2 68bf
00000260: 89a1 bc3e 6ce2 f93d 8adc 5c3e 8242 9f3e
00000270: 43f3 b1be b644 153f b3b2 92be 2f47 dabe
00000280: 9b8f 0e3e fcf8 02bf a3b4 8abe 8d62 333f
00000290: 0c9b b23e 2ce8 97be 237f fa3d 5f58 d9be
000002a0: 7e35 2e3e eaa4 d33e a2fb b83e 4db8 a33e
000002b0: a7b0 50bf 6985 053d 54d7 ecbe 146a a53d
000002c0: 5403 493e 6660 d0be 44cf 093f a7fd 96be
000002d0: e4d9 7abe ee2f 88be 7e22 acbe c597 923f
000002e0: e255 1f3d 1c1b a2be abaf 363e 9d69 263e
000002f0: 3c49 6ebe 4a92 1fbe ed54 0abe f996 f83e
00000300: 650c 753d d252 223f 393b e4bd 6e4d fc3e
00000310: cbe2 673e e9b1 eebe 1d5f a5bd 72a5 94be
00000320: dae6 0abe 76cd afbe dbe9 973e dcd1 42be
00000330: e263 fa3d 1e37 8c3e 26cf 18bd fb41 e3be
00000340: 6f4e 9a3d 6c49 19be 71c8 76bf f295 39bd
00000350: 74ee b5be c56a 08bc 8398 373e 6665 2fbf
00000360: eeec 95be db8a 44be c3a3 84be 9f58 503b
00000370: 4498 933d c325 1e3d 985e 32be 0371 8f3f
00000380: 9719 f13d 91a1 26bf b543 1f3f 701d 2d3d
00000390: 4507 2cbd 8fbb df3e f7b2 9f3e 4b1d b73e
000003a0: 964f ab3e 71a7 37bd e709 953d af5a 143e
000003b0: a66d 503e c072 a03e f54c dcbe 92e1 a6bd
000003c0: 02e4 933c b3e7 e0bd 9c27 66be a860 ec3e
000003d0: b952 f63c 0ad6 3cbf 118b 643e 45b6 e43e
000003e0: 9de3 e5bd 4403 c43c fdba f5bc 1775 07be
000003f0: d958 d43e a031 dc3d 4188 b1be af99 91be

manipulable_encoder.0.bias f4 [16]
0.7085815 -0.20143275 -0.683647 0.20372634 0.17175251 0.00046602814 0.30042416 0.36252394
0.23961721 -0.31776518 -0.26149774 0.68746346 0.19536346 0.2876703 -0.15421952 0.074149705
00000000: 9965 353f 6344 4ebe 7d03 2fbf a39d 503e
00000010: e4df 2f3e 3d55 f439 32d1 993e bd9c b93e
00000020: 375e 753e 1eb2 a2be 08e3 85be 9bfd 2f3f
00000030: 5c0d 483e 8649 933e b9eb 1dbe cddb 973d

manipulable_encoder.2.weight f4 [8, 16]
-0.42527363 0.37326914 0.39979574 0.24441716 -0.14921625 -0.3015996 0.43662935 -0.74155694
-0.4421358 -0.22199316 0.34564388 -0.10718735 0.13331723 -0.1727716 -0.13169514 0.06859685
-0.08418616 -0.9550732 -1.0795599 0.5113255 -0.0020739322 -0.050182234 -0.19801219 -0.9736507
0.29424593 -1.0165025 -0.012538364 0.45812482 0.4075846 0.1935058 0.17819515 -0.6994928
-0.6662532 -0.026355607 -0.28601265 0.42518216 0.5864374 0.11656698 -0.05056929 -0.41025215
-0.041683502 0.27620664 -0.1868561 0.33736935 0.1768795 -1.0460547 -0.15459391 0.3103899
-0.52713114 -0.06041643 0.19532047 0.15560074 -0.7570874 0.28678444 -0.009181586 -0.88961506
-0.5351421 -0.003549406 -0.29272813 0.35914743 0.25557196 -0.61463076 -0.46715567 0.3602118
-0.052635152 0.45152676 -0.72924787 0.110325895 0.009715687 -0.41204283 0.9258663 -0.07064744
-0.8449016 -0.00366762 -1.0662119 0.09616041 0.3297374 0.10024136 -0.48201036 0.085525155
-1.1570066 -0.22262576 0.4422665 0.20955198 -1.0116189 0.056977417 -0.11119675 -1.1239345
-0.717809 0.06615888 -0.59600955 0.5227238 0.4673147 -0.46885642 -0.51823556 0.19914307
-0.8628229 0.22138612 0.17382635 0.31845126 -0.43749124 -0.23426162 0.1381457 -0.77942026
-0.34641513 -0.33444658 0.25550818 -0.12596907 0.34825957 -0.31202802 -0.22544688 0.03183141
0.1832327 0.17959477 0.22672886 0.41070053 0.17091873 0.1936092 1.3477429 0.26957697
-0.873423 0.2694989 0.7754344 -0.82106704 -0.24002837 -0.45778856 0.13936381 -0.62131226
00000000: 77bd d9be 221d bf3e 07b2 cc3e 7e48 7a3e
00000010: 25cc 18be 436b 9abe e28d df3e add6 3dbf
00000020: a05f e2be 2d52 63be 3cf8 b03e 0b85 dbbd
00000030: 5084 083e 0aeb 30be 17db 06be 817c 8c3d
00000040: cb69 acbd ad7f 74bf 052f 8abf 3ae6 023f
00000050: cfea 07bb e38b 4dbd b5c3 4abe 2c41 79bf
00000060: 67a7 963e c11c 82bf b66d 4dbc 568f ea3e
00000070: eeae d03e 6226 463e ca78 363e f611 33bf
00000080: 928f 2abf b7e7 d7bc 4070 92be 7ab1 d93e
00000090: c320 163f abba ee3d be21 4fbd 920c d2be
000000a0: 52bc 2abd f56a 8d3e 3557 3fbe adbb ac3e
000000b0: e61f 353e 1fe5 85bf de4d 1ebe 6deb 9e3e
000000c0: 11f2 06bf 3877 77bd 1702 483e cd55 1f3e
000000d0: 7bd0 41bf 69d5 923e 5d6e 16bc d0bd 63bf
000000e0: 13ff 08bf 279d 68bb 76e0 95be 2ce2 b73e
000000f0: 54da 823e 7158 1dbf 072f efbe ae6d b83e
00000100: f597 57bd 842e e73e fdaf 3abf 8bf2 e13d
00000110: 8b2e 1f3c 47f7 d2be 9305 6d3f 9baf 90bd
00000120: 794b 58bf 745c 70bb a279 88bf c0ef c43d
00000130: 57d3 a83e 584b cd3d 10ca f6be d027 af3d
00000140: cb18 94bf 02f8 63be c170 e23e cb94 563e
00000150: ba7c 81bf 2761 693d 1fbb e3bd 16dd 8fbf
00000160: 55c2 37bf 4f7e 873d 1594 18bf 3ad1 053f
00000170: df43 ef3e f30d f0be 16ab 04bf 29ec 4b3e
00000180: f6e1 5cbf 0bb3 623e 89ff 313e 0b0c a33e
00000190: dafe dfbe 47e2 6fbe 1176 0d3e 1688 47bf
000001a0: 535d b1be 953c abbe f8d1 823e 09fe 00be
000001b0: 144f b23e 23c2 9fbe 8cdb 66be a761 023d
000001c0: 5aa1 3b3e b1e7 373e 9c2b 683e 5747 d23e
000001d0: 5205 2f3e 7d41 463e d782 ac3f fe05 8a3e
000001e0: a698 5fbf c3fb 893e de82 463f 7331 52bf
000001f0: ffc9 75be 4363 eabe 63b5 0e3e 520e 1fbf

manipulable_encoder.2.bias f4 [8]
0.100976005 0.37098244 0.212313 0.23158263 0.10760932 0.27473804 0.048781637 0.24159153
00000000: 82cc ce3d 69f1 bd3e 9468 593e ff23 6d3e
00000010: 4662 dc3d 77aa 8c3e 41cf 473d c563 773e

manipulable_encoder.4.weight f4 [2, 8]
-0.40784535 0.28590345 0.39968932 0.27683833 -1.0258007 0.2964797 -0.14031786 -1.0250422
-0.39972574 0.7252784 -0.34633574 -0.39523223 0.37790743 -0.76496464 -0.44895333 -0.44457743
00000000: 1bd1 d0be f061 923e 14a4 cc3e c1bd 8d3e
00000010: 704d 83bf 30cc 973e 7caf 0fbe 9534 83bf
00000020: daa8 ccbe d8ab 393f eb52 b1be e15b cabe
00000030: 157d c13e b9d4 43bf 36dd e5be a79f e3be

manipulable_encoder.4.bias f4 [2]
0.27216914 0.2700164
00000000: c159 8b3e 973f 8a3e

manipulable_decoder.0.weight f4 [8, 2]
-0.72902143 -0.52626115 -0.045250583 0.18337284 0.29300374 -1.1704198 -0.9074387 -0.36416388
-0.6045034 -0.7593011 0.7948707 -0.5422493 0.7032251 0.82568765 -0.7604777 0.8793818
00000000: 26a1 3abf 0db9 06bf ad58 39bd 17c6 3b3e
00000010: 9604 963e 51d0 95bf e74d 68bf b073 babe
00000020: bcc0 1abf 8f61 42bf a57c 4b3f dad0 0abf
00000030: 8f06 343f 4460 533f abae 42bf 2a1f 613f

manipulable_decoder.0.bias f4 [8]
0.8856258 1.1308235 0.37348118 -0.8964488 1.2199748 0.31490153 -0.22934258 1.3655623
00000000: 5fb8 623f d3be 903f ed38 bf3e ab7d 65bf
00000010: 2228 9c3f c63a a13e c8d8 6abe bfca ae3f

manipulable_decoder.2.weight f4 [16, 8]
-0.2244387 -0.1711212 0.6050459 0.75056946 0.71585584 0.39051825 -0.7359302 -1.3672755
0.7071277 0.09101028 0.22928222 -0.1806295 0.6801522 -0.5194114 -0.5574068 0.47219947
-0.4221855 -0.14463244 0.06649109 -0.0008226197 -0.22057478 -0.2634048 -0.10901083 -0.21759225
0.11041544 -0.14296107 -0.0808263 0.03214658 -0.09776107 -0.019401664 -0.019265871 -0.04529242
-0.07013174 -0.34407026 0.2745291 -0.4593453 -1.5209775 0.30991235 -0.20232661 -0.84438884
-0.9154217 -0.27586114 0.13934706 -0.28912097 0.011191285 0.44175392 -0.94321734 -0.43747345
-0.3590873 0.30750242 0.1570983 -0.058495436 0.4344769 0.5429827 -0.4272741 0.006471536
0.4195897 0.026060462 -1.2491649 0.5094186 -0.59199077 -0.8323941 -0.8347188 1.2455395
-0.69867676 0.6663112 -0.029645119 0.0654126 0.033081703 0.05503468 -0.70237845 0.6830184
-0.3573381 -0.57720786 0.3671343 0.36983398 -0.30332214 -0.99831903 0.8643601 0.04728735
-0.18672398 0.035446744 -0.23899305 -0.31817177 -0.7209631 -0.61596274 -0.44226557 0.8163818
-0.47203335 0.4358431 -0.052455947 -0.11306059 0.021453727 0.026014619 -0.31581065 -0.27811337
-0.0671131 0.26778463 -1.768676 -0.25268403 -0.3802958 -0.10294539 0.57769823 -0.5810364
0.5689215 -0.14794543 -0.26659346 0.9678292 0.43342948 -1.2678862 -0.24159391 0.30950165
-0.94426954 0.7953308 -0.10859368 0.34151956 0.30764076 0.004812494 -0.8421024 -0.50929546
-0.78319424 -0.20760535 -0.5168464 -0.064941995 -0.36208677 0.17577855 0.5481562 -0.71583205
00000000: 42d3 65be 653a 2fbe 4ae4 1a3f 5225 403f
00000010: 5442 373f 02f2 c73e ec65 3cbf e202 afbf
00000020: 5206 353f 9963 ba3d f5c8 6a3e f1f6 38be
00000030: 741e 2e3f 25f8 04bf 36b2 0ebf 21c4 f13e
00000040: b328 d8be 871a 14be 7b2c 883d 13a5 57ba
00000050: 5bde 61be fedc 86be 1241 dfbd 81d0 5ebe
00000060: 7d21 e23d 6364 12be 4288 a5bd 22ac 033d
00000070: f536 c8bd 3df0 9ebc 76d3 9dbc 8b84 39bd
00000080: 3ba1 8fbd fa29 b0be 148f 8c3e 4f2f ebbe
00000090: 64af c2bf d5ac 9e3e b52e 4fbe de29 58bf
000000a0: 1459 6abf ac3d 8dbe ffb0 0e3e aa07 94be
000000b0: a75b 373c 922d e23e b176 71bf 85fc dfbe
000000c0: 4ada b7be f570 9d3e 60de 203e e998 6fbd
000000d0: c273 de3e ea00 0b3f acc3 dabe 2e0f d43b
000000e0: 76d4 d63e c07c d53c a3e4 9fbf 4269 023f
000000f0: b58c 17bf c817 55bf 22b0 55bf d76d 9f3f
00000100: 7bdc 32bf 5f93 2a3f 52da f2bc 0bf7 853d
00000110: ae80 073d 0b6c 613d 13cf 33bf 4bda 2e3f
00000120: 05f5 b6be e5c3 13bf 07f9 bb3e e15a bd3e
00000130: 0a4d 9bbe d691 7fbf b446 5d3f 61b0 413d
00000140: 9234 3fbe 9b30 113d 98ba 74be 69e7 a2be
00000150: 0a91 38bf bcaf 1dbf a270 e2be 66fe 503f
00000160: 5bae f1be d426 df3e 0cdc 56bd 508c e7bd
00000170: babf af3c 9c1c d53c efb1 a1be e064 8ebe
00000180: 9872 89bd 111b 893e fa63 e2bf cd5f 81be
00000190: 22b6 c2be 08d5 d2bd 08e4 133f cdbe 14bf
000001a0: d7a4 113f 027f 17be f07e 88be a8c3 773f
000001b0: 78ea dd3e 184a a2bf 6564 77be 0077 9e3e
000001c0: a6bb 71bf cd9a 4b3f 5d66 debd a7db ae3e
000001d0: 1783 9d3e 20b2 9d3b 0694 57bf 3061 02bf
000001e0: 6b7f 48bf 7f96 54be 0c50 04bf 4f00 85bd
000001f0: 7063 b9be 4bff 333e f753 0c3f c540 37bf

manipulable_decoder.2.bias f4 [16]
-0.451718 0.2667789 0.3447114 -0.059291296 -0.8771846 -0.28669035 0.42571965 -0.26953587
0.7486104 -0.9405282 -0.3875653 0.85357046 0.104421355 -0.4322332 0.58715767 -0.34134468
00000000: 9547 e7be 3e97 883e 037e b03e 6edb 72bd
00000010: 2c8f 60bf 14c9 92be edf7 d93e 9b00 8abe
00000020: eea4 3f3f 75c6 70bf f66e c6be 9883 5a3f
00000030: ddda d53d ac4d ddbe f74f 163f bbc4 aebe

manipulable_decoder.4.weight f4 [16, 16]
-0.010269794 0.0023037738 -0.13845512 0.065934524 0.028504346 0.018531298 -0.025746617 0.012176513
-0.048646305 0.04437063 0.022848042 -0.06918225 -0.038355555 -0.012696004 0.10058319 -0.03611365
0.75485086 -0.1452689 -0.16332333 0.038671114 -0.328857 -0.1724512 0.398092 1.2430009
0.09258973 -0.4986773 -0.52833295 0.099672414 0.5090749 -0.6549316 0.14782587 -0.15356664
0.46435544 0.25859696 0.67468566 0.05741196 -0.021511275 0.38302013 -0.80233586 0.34721237
-0.2454709 -1.1152225 -0.09718743 0.38301894 1.0502635 -0.16857168 0.17746696 0.53105927
0.3929114 -0.5490849 0.10109731 0.09861085 0.11276379 0.77261513 0.24160825 -0.97524977
0.7750764 -0.35179392 0.8225818 0.07703862 0.48756734 1.2254117 -0.26682094 -0.12879606
-0.3027976 0.3234347 -0.42371956 0.05986431 0.08936592 -0.18231173 0.41382545 0.14523579
0.10357693 0.07338255 -1.0606216 0.17379706 0.5984525 -0.13902126 -0.6239415 -0.6988224
-0.4487196 0.17058095 -0.597752 -0.140355 -1.3837638 -0.48906007 1.0971155 -0.53631496
0.74956596 0.41955867 -0.51526266 0.51989776 -0.54328156 -0.524812 0.47587577 0.68462574
0.022804061 -0.05442474 -0.2246286 -0.025989247 0.02076776 -0.07337213 0.0121805975 0.009070189
0.008383132 -0.04935197 -0.013084855 -0.035217922 0.024894034 0.008746279 0.008195893 -0.053049024
-0.1374372 -0.123379655 -0.27348557 -0.03859231 0.9162639 -0.66942334 0.35689524 -0.10729033
0.12935363 -0.098796375 0.053122357 0.45184195 -0.40099618 0.25311184 -0.46765348 0.3705297
-0.52356595 0.88061255 -0.3130616 0.00049924804 0.115489066 -0.46176547 0.3523753 -0.80911577
0.3217524 -0.54091036 0.20739932 0.3984778 -0.04289241 -0.4429285 -0.8832177 -0.18752149
-1.4116418 0.42314819 -0.030215323 -0.18707086 -0.51958364 0.9652718 0.41987783 -1.221317
0.92361003 -0.5836938 -0.38795695 0.25752354 0.43307194 0.16634141 0.05324258 -0.7191348
0.29087994 -0.08931686 8.5357045e-05 -0.30803436 0.17416361 -0.63580394 0.27976048 0.2848381
-0.1753653 0.11790667 -0.21515317 0.13288848 0.29824397 0.35784322 0.17536378 0.09617077
-0.8291348 0.64055413 -0.5007718 -0.08140886 0.09443409 -0.34587935 0.35355625 -0.696024
0.3520905 -0.37403 0.10337864 0.80203223 -0.04634798 -0.10013792 -0.23666951 0.05581327
0.4807757 -0.72023875 -0.17396018 -0.004703726 -0.28796288 0.8593384 0.40471417 0.1699291
0.78069097 0.07349732 -0.46510568 0.018569618 0.29121637 0.29624903 0.7438055 9.4223975e-07
0.87078136 0.80313075 -0.1942195 -0.20659299 0.46062985 -0.12905964 0.0040265303 0.65281284
-0.6885038 -1.0394635 -0.31825387 -0.2607453 1.1277343 -1.0596043 -1.2470552 -0.67394716
0.29744083 0.1619619 0.31841463 0.13738763 -0.2391471 -0.2955173 -0.12762956 0.42975745
-0.049148936 -0.15162331 0.6895847 0.39187038 -0.19242178 -0.43069407 0.273299 0.7656493
-0.14003025 -0.37914366 -0.19052105 0.035172515 0.03773219 -0.40326056 0.36932704 -0.34339908
0.58285075 1.3613553 -0.2844172 0.18294175 0.1472054 0.32623106 -0.3388587 -0.2905785
00000000: a342 28bc e9fa 163b 2ec7 0dbe ae08 873d
00000010: f281 e93c f3ce 973c 92ea d2bc ff7f 473c
00000020: 5941 47bd fabd 353d d12b bb3c 6caf 8dbd
00000030: b71a 1dbd e602 50bc 8ffe cd3d e8eb 13bd
00000040: e83d 413f 5fc1 14be 3b3e 27be 9a65 1e3d
00000050: f25f a8be 0c97 30be b7d2 cb3e a71a 9f3f
00000060: af9f bd3d a252 ffbe d440 07bf 0d21 cc3d
00000070: bc52 023f 99a9 27bf aa5f 173e 9340 1dbe
00000080: ffbf ed3e d266 843e 33b8 2c3f ce28 6b3d
00000090: 6a38 b0bc 371b c43e e265 4dbf d2c5 b13e
000000a0: b95c 7bbe 9cbf 8ebf 340a c7bd 0f1b c43e
000000b0: 096f 863f 0e9e 2cbe e6b9 353e 80f3 073f
000000c0: af2b c93e d490 0cbf 1b0c cf3d 7cf4 c93d
000000d0: b4f0 e63d 1bca 453f 2768 773e f8a9 79bf
000000e0: 686b 463f 551e b4be b994 523f 6dc6 9d3d
000000f0: 6da2 f93e 4ada 9c3f c19c 88be 1de3 03be
00000100: 4908 9bbe 3c99 a53e c5f1 d8be 4734 753d
00000110: 7b05 b73d edaf 3abe eee0 d33e b1b8 143e
00000120: 2420 d43d 9749 963d 73c2 87bf dbf7 313e
00000130: 2f34 193f 975b 0ebe a1ba 1fbf 06e6 32bf
00000140: 93be e5be c6ac 2e3e 4606 19bf 39b9 0fbe
00000150: 2c1f b1bf 1566 fabe 486e 8c3f f04b 09bf
00000160: 8ee3 3f3f 65d0 d63e 41e8 03bf 0518 053f
00000170: 8014 0bbf 145a 06bf fda5 f33e a243 2f3f
00000180: 95cf ba3c 7aec 5ebd 0a05 66be 67e7 d4bc
00000190: 2621 aa3c 2144 96bd 2191 473c 219b 143c
000001a0: 6759 093c 4b25 4abd dc61 56bc ab40 10bd
000001b0: 93ee cb3c 8e4c 0f3c 1148 063c ef49 59bd
000001c0: 56bc 0cbe 79ae fcbd 4d06 8cbe f812 1ebd
000001d0: 4590 6a3f 545f 2bbf f9ba b63e 08bb dbbd
000001e0: 4775 043e c155 cabd d496 593d d457 e73e
000001f0: 5f4f cdbe e097 813e 4770 efbe 12b6 bd3e
00000200: 6b08 06bf d36f 613f 9c49 a0be f8df 023a
00000210: 8885 ec3d 866c ecbe 896a b43e 3622 4fbf
00000220: bbbc a43e 1a79 0abf 7d60 543e 4805 cc3e
00000230: f4af 2fbd 86c7 e2be 8e1a 62bf a205 40be
00000240: aeb0 b4bf e1a6 d83e 2086 f7bc 818f 3fbe
00000250: 6f03 05bf 0d1c 773f 3afa d63e 1e54 9cbf
00000260: b571 6c3f f56c 15bf 4ba2 c6be 20da 833e
00000270: 9bbb dd3e 6755 2a3e e414 5a3d 3819 38bf
00000280: 37ee 943e c2eb b6bd b701 b338 aeb6 9dbe
00000290: f257 323e 0cc4 22bf c43c 8f3e 4dd6 913e
000002a0: f692 33be 0d79 f13d 1d51 5cbe eb13 083e
000002b0: 6fb3 983e 3a37 b73e 9092 333e 2ef5 c43d
000002c0: 2e42 54bf 5bfb 233f 9532 00bf b0b9 a6bd
000002d0: a966 c13d 1917 b1be 5305 b53e a12e 32bf
000002e0: 3545 b43e dc80 bfbe 2eb8 d33d fc51 4d3f
000002f0: 61d7 3dbd 1c15 cdbd 7e59 72be 759c 643d
00000300: 3c28 f63e 9161 38bf 9e22 32be b721 9abb
00000310: df6f 93be 9afd 5b3f b236 cf3e e501 2e3e
00000320: 5ddb 473f c385 963d 5522 eebe 501f 983c
00000330: 501a 953e f4ad 973e 0a6a 3e3f 39ee 7c35
00000340: 87eb 5e3f fa99 4d3f 7ae1 46be 1d8d 53be
00000350: add7 eb3e 3628 04be fcf0 833b be1e 273f
00000360: c941 30bf 240d 85bf 2cf2 a2be 6880 85be
00000370: 9959 903f 1da1 87bf 819f 9fbf cd87 2cbf
00000380: 2a4a 983e 57d9 253e 3e07 a33e 58af 0c3e
00000390: fae2 74be 0b4e 97be 53b1 02be 2b09 dc3e
000003a0: 6550 49bd 2443 1bbe 9f88 303f 3ca3 c83e
000003b0: 370a 45be ef83 dcbe d9ed 8b3e 9801 443f
000003c0: 1764 0fbe 1e1f c2be f317 43be 0e11 103d
000003d0: 128d 1a3d 2b78 cebe 6f18 bd3e 01d2 afbe
000003e0: b535 153f e440 ae3f 229f 91be 1555 3b3e
000003f0: 03bd 163e c207 a73e e37e adbe b5c6 94be

manipulable_decoder.4.bias f4 [16]
0.06596068 0.7361035 0.71588993 0.3311863 0.42255396 1.0162383 -0.04593423 0.47611025
0.43880963 0.93326116 0.418809 0.1654336 0.035782203 -0.29630926 0.79450667 0.53367203
00000000: 6516 873d 4771 3c3f 9044 373f 4091 a93e
00000010: fe58 d83e 1914 823f 8825 3cbd b9c4 f33e
00000020: a8ab e03e 34ea 6e3f 226e d63e 6d67 293e
00000030: 5c90 123d d9b5 97be ca64 4b3f bb9e 083f
