mnist_tripletnet_state_dict.pth (torch, 124752 bytes, 10 tensors)

representation_encoder.0.weight f4 [16, 1, 3, 3]
000000 42 f8 fb 3d 1d e0 e7 be 5d 2c 96 be 1e fc 27 be
       0.12303211 -0.45288172 -0.29330721 -0.16404769
000010 c6 7a a5 3e b6 fb c8 3e cb 7f 6b 3e 56 98 23 be
       0.3232023 0.3925454 0.22997968 -0.1597608
000020 92 be ee be bf a0 bd bc 04 d4 24 bd b1 85 66 3d
       -0.4662977 -0.023147939 -0.040241256 0.05627984
000030 1c a1 57 3e 73 c2 bf 3d cb 26 80 3e 8d ad f9 3c
       0.21057552 0.0936326 0.25029597 0.030478263
000040 e2 62 dc bd 75 2f bc be 1d ee 73 3e 2f ea 07 be
       -0.10761048 -0.36754957 0.23821302 -0.13272928
000050 e3 fb 37 bf a9 f8 95 be 1f 73 d5 be 57 87 b5 3d
       -0.71868724 -0.29291275 -0.41689393 0.08863705
000060 7d 2f 2c bf 83 c1 69 3e f6 45 89 3e be 65 bc 3e
       -0.6725996 0.22827725 0.26811188 0.36796373
000070 13 59 0e bc 62 0a 09 bf 4f f3 c9 3e 0e f8 f4 bd
       -0.008688229 -0.5353147 0.39443442 -0.11961375
000080 50 8d d5 be 05 ea a1 bd 17 34 f5 3c af 0f 8d be
       -0.41709375 -0.07905964 0.029932065 -0.27551028
000090 cd a2 21 3d ba fb b5 3e bf f9 96 3e d1 06 84 be
       0.0394619 0.35543615 0.29487416 -0.2578645
0000a0 5b aa c7 3d ec 6d 13 3d 24 6f 92 be df e7 0a bf
       0.097492896 0.0359935 -0.2860042 -0.5426006
0000b0 cb 1e e5 be ca eb a9 3e 2e 94 ae bd 8b 54 f7 be
       -0.44750056 0.33187705 -0.08524357 -0.4830669
0000c0 8f cb 3b 3e cc b9 2a bc 0f 3a 18 bd 8d f7 c9 bd
       0.1833937 -0.010420274 -0.037164744 -0.0986167
0000d0 09 12 9b 3e 37 71 91 3e 19 2a ca be c0 ed e6 be
       0.30287197 0.2840669 -0.39485243 -0.45103264
0000e0 c3 0b 3e be 3e 85 97 3e e3 9f 07 bd 90 b7 c8 be
       -0.18559174 0.29593843 -0.033111464 -0.39202547
0000f0 45 d2 69 3e a7 88 70 3e 97 53 0b be 43 d2 91 bd
       0.22834118 0.23489629 -0.13606106 -0.07120182
000100 75 ce b4 be c9 1a 85 be 32 99 35 be dc ca bd bc
       -0.35313764 -0.25996998 -0.1773422 -0.02316802
000110 26 bc 98 3e 3f b3 b5 bc e2 4a 6e 3e 49 8e 7c 3d
       0.29831046 -0.022180198 0.23270753 0.06165913
000120 d0 52 da 3d 8f 69 41 be e7 93 80 be db 79 8a 3e
       0.106603265 -0.18887924 -0.2511284 0.27046093
000130 1a 47 0e 3e a4 fb a3 3e a6 4c 93 be 48 4c 33 be
       0.1389431 0.32027924 -0.28769416 -0.17509568
000140 e0 6f df bc d8 64 ef bc f2 14 5f 3e f2 1f 93 be
       -0.027275026 -0.02922289 0.21785334 -0.2873531
000150 69 4b 01 be c0 0d 01 3f 71 0f 0d be 2f 8b b8 be
       -0.12626423 0.50411606 -0.13775422 -0.3604369
000160 a8 0a be 3b 32 f3 59 3e 45 3e a9 3e a4 52 53 3e
       0.00579961 0.21284178 0.3305532 0.20636994
000170 4a f0 87 be 2e e1 9b be c0 22 04 3b 62 85 9a be
       -0.26550514 -0.30445236 0.0020162314 -0.30179888
000180 c6 dc a1 be c0 e2 d2 be dc dc b0 be 83 33 bd be
       -0.3161375 -0.41188622 -0.34543502 -0.36953363
000190 d3 61 a9 3e b7 69 7d bd f3 ba 0f be 4a 95 be 3e
       0.33082446 -0.061868396 -0.14036159 0.37223274
0001a0 b1 3b 82 be c5 aa 12 3e 27 04 36 3d 20 f2 46 be
       -0.25436166 0.14322956 0.044437554 -0.19428301
0001b0 a2 06 91 3d fc 1f 94 3d 49 49 60 be be 64 fd bd
       0.07081343 0.07232663 -0.21902956 -0.12372731
0001c0 0c 73 a2 be bf f3 18 be 2b 70 97 3e 00 15 84 3d
       -0.317284 -0.14936732 0.29577765 0.06449318
0001d0 54 d1 7b 3e 16 96 62 3e e2 d0 32 3e 8b 87 aa 3c
       0.24591571 0.22127566 0.17462495 0.020816585
0001e0 92 1a f0 3b 9b fe 61 be fe 11 98 3d a6 27 8b 3e
       0.007327386 -0.2206978 0.07425307 0.27178687
0001f0 be ee 2e 3e eb 29 89 be 36 3d 76 be a3 32 9b be
       0.1708326 -0.26789793 -0.24046788 -0.3031207
000200 59 4c 45 3e c0 3a a2 bb e3 37 26 3e df af 74 3e
       0.19267406 -0.004950851 0.16232257 0.23895214
000210 5c 4c e5 3c e5 48 ae 3d 08 a1 60 be 2f c0 9e be
       0.027990513 0.08509997 -0.21936429 -0.31006
000220 3e 72 6b be cc 33 a8 3e 92 ee 98 be 91 a6 2b 3c
       -0.22992799 0.32852018 -0.29869515 0.010476724
000230 20 5f bc 3e df 95 a1 be c6 71 03 bf 10 60 c9 be
       0.36791325 -0.31559655 -0.5134548 -0.39331102

representation_encoder.0.bias f4 [16]
000000 23 5f 82 bd d9 64 84 3c 5a cc 3e be 81 58 60 be
       -0.06365802 0.01616137 -0.18632641 -0.21908762
000010 82 cb 34 be 25 d2 9d be 12 58 44 3d 5c ea 08 3c
       -0.17655757 -0.3082439 0.047935553 0.008356657
000020 06 93 37 be bf 70 41 bd 3b 93 e2 3d 1f 37 73 bd
       -0.17927179 -0.047226664 0.11063238 -0.05937874
000030 50 11 a4 bd 66 90 3e be 79 74 95 bd cf 0e 29 be
       -0.080111146 -0.18609771 -0.07297606 -0.16509555

representation_encoder.3.weight f4 [32, 16, 3, 3]
000000 ed 03 88 be 27 6d 86 3e 8d 70 9f 3e a7 82 18 bf
       -0.26565495 0.26255152 0.31140557 -0.5957436
000010 52 19 a6 be bf 80 ae 3d d7 d7 b4 bd 95 48 4f be
       -0.32441193 0.0852065 -0.08830231 -0.20242532
000020 eb 90 c0 3d 5a b4 a3 be a1 d6 fe bd eb 65 a7 bd
       0.09402641 -0.31973535 -0.12443281 -0.08173736
000030 ac 7e be be 3c b7 55 3c 8a be b5 bd 27 c9 3c bd
       -0.37206018 0.013044175 -0.08874233 -0.04609027
000040 58 49 40 be 21 77 af be 41 d8 7d 3e e6 ca b8 bc
       -0.18777978 -0.34270576 0.24789526 -0.022557687
000050 77 fd 43 3d 61 bc b4 bb 00 0e c2 bc 59 a9 f9 3e
       0.047849145 -0.0055156206 -0.023688316 0.48762015
000060 f1 02 8c 3e a2 3f 19 3d 61 c1 94 3e 5a 30 cc 3d
       0.27345994 0.0374142 0.29053786 0.0997016
000070 2b 4c 2e 3e 6f c9 d1 3e 70 80 9a be a1 54 de bc
       0.17021243 0.40973994 -0.30176115 -0.027139964
000080 ba a0 db 3e 6a f1 52 bd 91 30 30 be c4 fc 49 be
       0.42896062 -0.05149976 -0.17206027 -0.19725329
000090 0e 08 c7 bc 5f 84 28 bd 85 77 92 3c 8c ec d8 bd
       -0.024295833 -0.041141864 0.017879257 -0.10591993
0000a0 55 06 83 3e 41 6c e2 3a 2f 55 98 3d 41 a4 83 3e
       0.25590768 0.0017274694 0.074381225 0.25711253
0000b0 d6 13 3a be 4f d8 aa be 50 ba 0c bd ea de a3 bd
       -0.1817163 -0.33368155 -0.03435737 -0.08001502
0000c0 14 13 18 be 6d ed 0f 3d bd 32 dd bc 7e c2 05 bd
       -0.14851028 0.035138536 -0.027001733 -0.032656185
0000d0 78 a6 12 be 9f 3b 5f be e9 c7 8f 3d 8d f5 87 bd
       -0.14321315 -0.21800087 0.07020552 -0.06638632
0000e0 85 d2 d0 bd e1 74 99 3e e4 4b 80 bd 2c 51 06 be
       -0.101964034 0.29971984 -0.06264475 -0.13116902
0000f0 84 24 b1 3e 70 cf 45 3e 19 82 55 be ee 01 c0 bd
       0.34598172 0.19317412 -0.2085041 -0.09375368
000100 a7 c5 bb 3d 23 34 f1 be fa 98 a4 be 9f 82 c9 be
       0.091685586 -0.4711009 -0.32147962 -0.39357468
000110 fa 2c 52 be 3b 9f 53 3d 07 b6 64 bd 67 fd 77 3d
       -0.2052497 0.051665526 -0.055837657 0.060544398
000120 05 53 80 bd 0b 07 3b 3e 2d ea 0e 3e 13 47 26 be
       -0.06265835 0.18264405 0.13956518 -0.1623805
000130 a4 d1 7e 3d c0 c7 9a 3e 61 91 93 bd 20 82 37 bd
       0.062211648 0.30230522 -0.07205463 -0.04480183
000140 3a ea cc bd af a4 7a bd 3f ee 38 3e c1 22 c8 bc
       -0.10005613 -0.06119221 0.18059634 -0.024430634
000150 96 2b 49 3e 7b 56 93 3e 20 7f cf bd 1c bc 29 3e
       0.19645533 0.28776917 -0.10131669 0.16575664
000160 54 35 84 be 7e 86 db be 1d 29 5c 3e 81 6d db bd
       -0.25821936 -0.42876047 0.21500058 -0.107142456
000170 04 c9 1f 3c cf b7 cd be 77 e3 cd 3c 8a cf a5 3e
       0.009752516 -0.40179297 0.025132878 0.32384902
000180 31 c9 9f be 28 f8 9a 3e 85 9d f6 3e b4 be 6d 3d
       -0.31208184 0.30267453 0.48167053 0.058043197
000190 54 70 29 3e 9a ae 69 3d 6f e3 c8 bd 1e 36 6b 3d
       0.16546756 0.05705128 -0.098090045 0.057424657
0001a0 1b 0f f5 bc 22 71 fb bd d9 a1 aa be 5d 60 32 3d
       -0.02991443 -0.12277438 -0.33326605 0.04354893
0001b0 07 1c 10 bf 70 74 03 be 03 9f d8 bd a1 66 98 bb
       -0.56292766 -0.12837386 -0.10577204 -0.004650906
0001c0 fb 95 60 3d 8f 78 59 3e 41 b2 12 3e 20 df a8 bd
       0.054830533 0.21237396 0.14325811 -0.08245683
0001d0 d6 0d 69 3d a6 a8 26 be 11 ef c0 3d 0a 91 6d 3e
       0.05689796 -0.16275272 0.09420598 0.2319986
0001e0 32 34 c5 be b9 44 d3 bc 31 06 dc 3d e7 c7 86 be
       -0.38516384 -0.025789605 0.107433684 -0.26324388
0001f0 af 54 41 be 63 ec 0e be e0 1e 6d be e2 c6 2e 3d
       -0.1887996 -0.13957362 -0.23156309 0.04267014
000200 f7 ab d5 bb 92 8a 8e be 90 86 2e be 68 a9 06 bf
       -0.006520744 -0.27840096 -0.17043519 -0.52602243
000210 b8 e0 0f bd 89 06 65 be 3b 8d a6 bd e4 ea 51 3d
       -0.035126418 -0.22365774 -0.08132406 0.0512494
000220 9c 45 92 3c a8 41 de bd 51 5a c0 3e 0f 55 6e 3e
       0.017855458 -0.10852367 0.37568906 0.23274635
000230 4c 3f 57 be e8 5f 1e 3e f4 38 bd bd e0 08 fb be
       -0.2102024 0.15466273 -0.092393786 -0.4903021
000240 ab e6 79 be c1 f3 70 3e 48 91 dc 3c 48 05 69 bd
       -0.24404399 0.23530485 0.026924744 -0.056889802
000250 34 cb 82 3d 70 1c 60 bc 8c e3 07 bf a9 5e 04 bf
       0.06386414 -0.013678655 -0.53081584 -0.5170694
000260 73 f6 99 3d 4f 69 d0 be 45 7e 94 be 4d 1d e1 3d
       0.075177096 -0.40705344 -0.29002586 0.10991917
000270 5d e5 43 be bb 57 a8 bb 7a 80 32 be af 34 94 bd
       -0.19130464 -0.0051374114 -0.17431822 -0.07236611
000280 95 97 f2 bb cb 4b ff bb ae c6 8b bc c5 a8 3b 3d
       -0.007403324 -0.0077910176 -0.017062511 0.045815248
000290 41 02 83 3d 1b 01 83 3c de 94 22 3e 66 a4 9b be
       0.06396914 0.015991738 0.15877101 -0.30398864
0002a0 32 47 8a bd f7 bb 01 3e 66 98 90 be a4 2a b7 bd
       -0.06751861 0.12669359 -0.2824127 -0.0894368
0002b0 98 e5 22 3e da 69 a3 bd 05 e4 67 be 21 b3 df bd
       0.15907896 -0.07979174 -0.22645576 -0.10922838
0002c0 5b 1a af bd a0 31 e7 be 0d bb 6d bd d8 da 6f be
       -0.08549949 -0.45155048 -0.058039714 -0.23423326
0002d0 7e 1d 80 3d a8 4f 0e be c1 fe 9f be 07 bc 83 3e
       0.06255625 -0.13897574 -0.3124905 0.2572939
0002e0 98 d0 9f bd f6 ca 9e 3d 2d b4 a1 3e 1c b6 d5 bb
       -0.07803458 0.077535555 0.31582776 -0.0065219533
0002f0 2e 19 e9 3d 1e eb 86 3e bc f3 7b bd 86 de 7b bd
       0.11381756 0.26351255 -0.06151174 -0.06149151
000300 72 4d ce bd cb f4 46 3d e6 69 ad 3e 4a 33 87 be
       -0.10073365 0.048573297 0.33869857 -0.26406318
000310 78 83 35 be 5d 49 90 3e de 1c 87 3d b2 04 72 3d
       -0.17725933 0.28180972 0.06597303 0.05908651
000320 a6 4f 73 bd 24 33 85 3e a6 e6 c2 bc cc ab 44 3e
       -0.05940213 0.2601558 -0.023791622 0.1920616
000330 ea 07 9f be 7e 8a 05 3e 21 c3 c7 3d 97 73 b0 be
       -0.31060725 0.13041112 0.09754015 -0.34463188
000340 bc 0b 19 be d9 2e 81 bd 65 a7 9f bc 85 a8 15 be
       -0.14945883 -0.063077636 -0.019489 -0.14615066
000350 0f e1 8a be 78 2c 99 be 61 9c 19 be b0 f0 a3 be
       -0.2712483 -0.2991674 -0.1500106 -0.32019567
000360 3d 98 3d bd 61 89 94 3d 0a 50 e7 3d e8 b4 1b 3e
       -0.046287764 0.072527654 0.11294563 0.15205729
000370 70 6d a6 3d 0f 48 b9 3e f7 24 9e 3c 20 b5 9f be
       0.08126342 0.3618779 0.019304736 -0.31192875
000380 94 4b 07 3d 83 55 16 3e 08 c8 d7 bd f3 f2 20 bd
       0.03303106 0.14681058 -0.105362 -0.039294194
000390 c9 17 ca bd 86 cc f6 3c 6d 0c 8f 3e da 54 31 3e
       -0.09867818 0.030126821 0.27939168 0.17317525
0003a0 d8 bf 61 bd 7d f9 69 3e fc de 82 be 16 d8 44 be
       -0.055114597 0.22849078 -0.2556075 -0.19223055
0003b0 ad 00 80 be 63 12 d9 be 30 ba b4 bd 1d 1c 3d be
       -0.25000516 -0.4239684 -0.08824575 -0.18467756
0003c0 65 6a 6d bd 68 11 83 bc 81 e0 60 be fa 22 df bc
       -0.057962794 -0.01599951 -0.21960641 -0.027238358
0003d0 64 41 05 bd 56 73 42 3e 55 b7 89 be 56 59 19 be
       -0.032533064 0.1898931 -0.26897684 -0.14975485
0003e0 58 4e 06 bd 1f d9 b2 be 51 4f b5 be 0a e4 8b be
       -0.03278956 -0.34931275 -0.35412076 -0.27322417
0003f0 60 f4 1e 3c fa ab a3 bd 72 c0 99 3d 26 7a 64 3e
       0.009701818 -0.07991786 0.07507409 0.22312221

representation_encoder.3.bias f4 [32]
000000 36 c0 55 be 96 07 3e be 71 41 20 be 23 a8 b3 bc
       -0.20874104 -0.18557581 -0.15649964 -0.02193076
000010 bf b2 23 be 9d 2f 12 be 7f 02 93 bd 4d bf 2e be
       -0.15986155 -0.14275976 -0.071782105 -0.17065163
000020 e3 35 6b bd 22 82 6b be a0 bd 4d be 35 6e 5f be
       -0.057424437 -0.2299886 -0.20091867 -0.21819384
000030 ff 56 79 be 47 65 eb bd b8 5d 24 bd 34 1f 08 be
       -0.24349593 -0.114939265 -0.04012844 -0.13293153
000040 57 d8 28 be 7b ac 03 3d ae a4 07 bd c1 05 96 3b
       -0.16488777 0.032146912 -0.033116035 0.0045783226
000050 4e 00 4d be 83 56 91 bd fe 86 b8 bd f6 5f 91 bd
       -0.20019647 -0.07096579 -0.09010123 -0.07098381
000060 78 a0 1c be b3 01 97 bd 57 84 5c be 44 b9 d8 bd
       -0.15295589 -0.07373371 -0.21534859 -0.105822116
000070 12 47 1e be a4 94 20 bd b0 a8 c7 bd 41 6a 02 be
       -0.15456799 -0.039204255 -0.097489715 -0.12735845

representation_encoder.7.weight f4 [16, 1568]
000000 ec b1 48 3e b5 73 29 3e 68 4d 2a 3e 71 28 f0 3d
       0.19599122 0.16548045 0.1663109 0.117264636
000010 00 01 4e 3e d2 90 85 bc e0 8a 0d 3e 12 ba 82 3e
       0.20117569 -0.016304407 0.13822508 0.25532585
000020 a8 ac 53 3e c6 d8 ca 3d c0 64 51 be 19 6c af 3d
       0.20671332 0.099046275 -0.2044859 0.0856554
000030 98 a3 95 3c 53 2a a1 bd 3d 7d c1 3e 46 0b 70 be
       0.018266484 -0.07869401 0.37790862 -0.234418
000040 fc 5d ee be c3 c3 00 be 3f 59 ad 3e 06 7b c7 3e
       -0.4655608 -0.12574677 0.33857152 0.38961047
000050 3b ef 15 bd 69 22 3b 3e 77 a7 7c be 4a 11 70 bd
       -0.0366051 0.18274845 -0.24673258 -0.058610238
000060 33 87 0c be c5 7c 67 3e 0e 35 d7 3e 0a ec 61 bd
       -0.1372345 0.2260619 0.42032665 -0.055156745
000070 a5 db 53 3e 3c a6 95 be 0c a5 bb be 08 93 52 be
       0.20689256 -0.2922839 -0.36649358 -0.205639
000080 39 e5 c3 3d 46 40 c2 3d 4f 9d 99 bd 00 62 ff 3d
       0.09565205 0.094849154 -0.07500707 0.12469864
000090 4e a1 c4 be 72 cf 50 be 22 55 22 bd 91 d8 8d 3d
       -0.38404316 -0.20391634 -0.03963197 0.069260724
0000a0 65 3a 07 be 63 b6 bc bd 60 76 af 3e e1 70 e0 bc
       -0.1320587 -0.09214475 0.3427 -0.027397575
0000b0 09 12 19 3d 86 95 a5 3d e6 80 21 bd 2c 62 7e be
       0.037370715 0.0808516 -0.039429568 -0.24842137
0000c0 6f 7c 23 be 6f aa b5 bc b3 d3 47 bd f3 e9 28 be
       -0.15965436 -0.022175996 -0.048785876 -0.16495495
0000d0 c4 06 6d be 21 d0 3e 3d db 87 21 3e 5d e0 22 bd
       -0.23147112 0.046585206 0.15774481 -0.03976475
0000e0 38 48 15 be 8f c5 ca bd c3 d8 84 3e 3e 74 93 3d
       -0.1457833 -0.099009626 0.25946626 0.07199906
0000f0 4d 2c 92 bd fe 2b 2b 3d 55 b6 13 3e d5 1c 37 be
       -0.07137356 0.04179 0.14425023 -0.17882092
000100 ca f3 e2 bc 5d 1b 9a be c8 41 be be f3 4a 9a 3d
       -0.027704138 -0.30099002 -0.37159562 0.07533827
000110 81 0a 9e 3d ed 2e e5 3c d7 bb f2 bd d7 d8 bc 3d
       0.07716847 0.027976478 -0.11852234 0.092210464
000120 1b 35 95 be 03 3b c3 be d7 1f d5 3d bb b7 05 3e
       -0.2914208 -0.3813096 0.104064636 0.13058369
000130 cb 44 c3 3d f9 1e 7f bd 29 e5 1a 3d 24 ff c9 bd
       0.095346056 -0.062285397 0.0378162 -0.09863117
000140 f5 90 97 3a 33 ca 29 3e 31 12 01 bd b2 23 f5 3d
       0.0011563586 0.16581039 -0.03151149 0.11969699
000150 ea ee c3 bd b9 57 e2 bc f4 ea e5 3d 39 d3 c5 3e
       -0.095670536 -0.02762972 0.112264544 0.38637713
000160 f5 4d b6 3e 3a 10 3b be 8a 3c 97 bd 63 b4 85 bc
       0.35606351 -0.18267909 -0.07384594 -0.016321367
000170 71 d4 2c 3d 23 8f 45 3d 5f db e7 3b f8 f4 bf bd
       0.042194787 0.04823221 0.0070757116 -0.09372896
000180 f9 43 28 be 45 45 77 bd 6e 79 ed bd 49 cc 67 bd
       -0.1643218 -0.060368795 -0.115954265 -0.056591306
000190 97 a9 02 3d d9 2a aa 3c 38 01 16 3e d4 5e 7c 3d
       0.031900015 0.020772384 0.14648902 0.061613873
0001a0 7f ba 32 3d 7f 41 ab bd 56 d4 19 3c 56 62 0a bd
       0.043634888 -0.08362102 0.009389004 -0.033785187
0001b0 40 88 90 3d b0 f0 d0 3d 1b e8 5b be e9 a1 57 be
       0.070572376 0.102021575 -0.2147526 -0.21057858
0001c0 8a 15 76 bd 6e 33 82 3d 6d 86 98 bd b5 34 47 3d
       -0.060079135 0.06357466 -0.07447515 0.04863425
0001d0 d0 68 e0 3d a0 6e a8 bd 1b 65 94 bc f0 ca 59 be
       0.109574914 -0.08224225 -0.018114617 -0.21268821
0001e0 48 6c 92 3d 70 55 9b bb 02 6f cd 3d 03 6e 98 bd
       0.07149559 -0.0047404096 0.10030939 -0.07442858
0001f0 84 f8 c1 3c 48 07 a3 3c db aa 99 3c 9a 95 11 bd
       0.023678072 0.019900933 0.018758228 -0.03554306
000200 c5 b6 ae bd 17 45 3c 3d 4f 2d 46 bd 5d f4 e7 3d
       -0.08530954 0.045964327 -0.048383053 0.113259055
000210 4a 40 26 3d 35 f8 3b be 34 be 08 bd 8c 78 0e 3e
       0.040588655 -0.18356402 -0.033384517 0.13913172
000220 ea df 1f bc 06 d1 6e 3e 02 7c 8d 3d 47 40 8c bc
       -0.009757975 0.23321924 0.06908418 -0.017120494
000230 1c d1 0b be 61 26 a3 3d 88 1a ec 3d 9f 33 d8 bd
       -0.13653988 0.079663046 0.11528498 -0.10556721
000240 1e 57 ce be 31 2e ab be 44 5a 8e bb fa 58 85 bb
       -0.4030084 -0.3343368 -0.0043442566 -0.0040694447
000250 85 6d d4 bc 11 0b 4b 3e 9f 53 67 3d 37 3d db 3c
       -0.02593113 0.1982844 0.05647623 0.026762588
000260 05 7c 0d 3e b6 d0 2e 3d 21 f5 33 3d a0 30 f5 bc
       0.13816841 0.04267951 0.043934945 -0.029930413
000270 c9 a6 8c 3e 2b 80 11 be aa 93 48 be 42 8f a6 3d
       0.27470997 -0.14209048 -0.1958758 0.08132793
000280 66 d0 06 be 56 d1 1b bd ac e6 a2 3d aa ef 01 be
       -0.13165435 -0.038041435 0.079541534 -0.12689081
000290 20 7b 44 3e 51 75 84 3e 57 b9 52 3e 84 73 8a be
       0.19187593 0.25870755 0.20578514 -0.27041256
0002a0 0d 45 c3 bd 78 56 a1 bd 1e c3 da 3d 60 3d 62 3d
       -0.09534655 -0.07877821 0.10681747 0.055234313
0002b0 bd 5b 0e bd 6b d1 13 be 66 52 92 be 16 5b 3d bd
       -0.034755457 -0.14435355 -0.2857849 -0.046229444
0002c0 84 cf 49 bd 5c e4 b3 3d 9d c0 bf bd 43 18 0e ba
       -0.049270168 0.087837905 -0.0936291 -0.00054204854
0002d0 20 ce 8a 3c 4b 5d 1f be 7d 15 44 bd 5c 39 1e 3e
       0.016943991 -0.15562932 -0.047872055 0.15451568
0002e0 54 61 e1 3c 4f 5f 05 bd 47 d5 1e 3e 7b de 11 3e
       0.02751223 -0.032561596 0.15511046 0.14245026
0002f0 3d b4 75 be e4 e3 31 3d 2c 20 4c 3c 5e fd 66 be
       -0.23994537 0.043430224 0.012458842 -0.2255759
000300 3e a1 20 be 7f 7c f6 3a e9 e4 26 3d ec 58 91 3e
       -0.15686509 0.0018805413 0.04074565 0.28388155
000310 2d 19 f7 3e 37 bb 89 bc 54 b3 65 3c 04 91 23 3d
       0.48261395 -0.016812904 0.014019806 0.03993322
000320 80 86 a9 3d fe b0 5a 3e 36 2e 46 3e 7d 18 17 3e
       0.08277607 0.2135658 0.19353566 0.14755435
000330 a3 8b 2e bd fe 2d ed 3c 87 42 c4 bd 6b f0 ba bd
       -0.042613637 0.028952595 -0.095830016 -0.09127887
000340 e1 d5 4e be ad 8e 9b bd 37 10 a3 3c 8b 05 a2 bd
       -0.20198776 -0.075955726 0.019905193 -0.079112135
000350 a2 00 10 3d 35 22 e1 bd f7 b7 32 be c2 c0 58 3d
       0.035156853 -0.109928526 -0.1745299 0.052918203
000360 75 06 29 be 93 e4 ad bd 3d 12 3f be 69 cc 8d be
       -0.1650637 -0.08490863 -0.18659301 -0.27695015
000370 55 60 b4 3d 40 68 16 bd 50 11 60 3d 2b 08 3d be
       0.088074364 -0.036720514 0.05470401 -0.18460147
000380 2b b0 40 3c 9c 22 2c 3d c3 a5 c8 be 09 fb 92 be
       0.011760752 0.042025194 -0.39188966 -0.2870715
000390 d6 79 88 be 4b 50 84 be 8c ea 33 be 19 36 70 3d
       -0.26655453 -0.2584251 -0.17569941 0.05864534
0003a0 9d a9 76 3d e3 28 2e be 77 cb fb bd ce d5 03 3e
       0.06022035 -0.17007785 -0.12294667 0.12874529
0003b0 69 f1 62 3d a8 3e 40 3d 69 06 f0 3d a7 b8 01 be
       0.055406008 0.046934754 0.11719973 -0.12668096
0003c0 92 73 ec bd 2e 1f 19 3d 34 9f 56 3d d3 66 6c bd
       -0.11545481 0.03738325 0.05239792 -0.05771525
0003d0 3b 64 57 be 13 f7 04 be cb 48 0f be fb 31 1a 3d
       -0.21034329 -0.12984876 -0.13992612 0.03764532
0003e0 8c 6b c7 bb 51 ef 68 3e e3 b8 88 3d e5 73 05 bd
       -0.0060858186 0.22747542 0.06675889 -0.03258123
0003f0 b6 5b ed bd 1f 19 14 be 39 93 86 bd 9c a7 05 3e
       -0.11589758 -0.14462708 -0.06571049 0.13052219

representation_encoder.7.bias f4 [16]
000000 ee 99 3b 3e 3c f2 a0 bd 79 2f 9c bd 9d 95 c9 3d
       0.18320438 -0.078587025 -0.07626242 0.098429896
000010 eb 00 23 bd 63 51 66 bc 88 49 15 be bb 41 7b be
       -0.039795797 -0.01405749 -0.14578831 -0.24536793
000020 0d 3d 94 bd 09 d0 8e be f4 97 db bd f9 42 9e bd
       -0.07238207 -0.27893093 -0.10722342 -0.07727618
000030 99 83 42 3e 9c f0 55 be ef 73 1e 3e e0 0c fb bd
       0.18995513 -0.20892566 0.15473913 -0.12258315

manipulable_encoder.0.weight f4 [2, 16]
000000 e2 46 e8 bd a0 fc b2 be 1f a9 8b bf 53 23 01 bf
       -0.11341645 -0.34958363 -1.0910987 -0.50444525
000010 fd c5 24 3f 58 64 24 bf 24 12 69 3f b3 7c 7d be
       0.64364606 -0.6421561 0.91043305 -0.247546
000020 e6 9e ac bd a6 2a 2d bf 5d e2 4a 3e 43 3f e4 be
       -0.08428745 -0.676432 0.19812913 -0.44579515
000030 74 05 07 3f ad e6 c5 bf db 47 3c 3f 99 40 68 be
       0.52742696 -1.5461022 0.7354714 -0.22680892
000040 db f6 c7 be 60 66 31 be 4f aa bd be bb c9 c5 be
       -0.39055523 -0.17324209 -0.37043998 -0.3863047
000050 f0 86 89 3e 7f 6a 3f bf 3d 95 a1 bf e9 7b 8f bf
       0.26860762 -0.74771875 -1.2623669 -1.1209689
000060 eb 96 53 be 6c 13 6c c0 2f b8 1f 3f cb 00 30 3f
       -0.2066304 -3.6886854 0.62390417 0.6875121
000070 69 34 e0 be 43 45 e9 bf 71 05 da 3e 3d 2f 2c bf
       -0.43789986 -1.8224262 0.42582276 -0.6725958

manipulable_encoder.0.bias f4 [2]
000000 42 c6 c6 be be a5 9e bd
       -0.38823134 -0.077464566

manipulable_decoder.0.weight f4 [16, 2]
000000 19 24 22 be 17 52 bb bf 32 d1 6e 3c 5e 8a df bc
       -0.15834083 -1.4634427 0.014576243 -0.027287658
000010 01 d3 12 bc 93 e5 6e bc d5 72 b0 bf 70 ca 29 bf
       -0.00896144 -0.014581102 -1.3785044 -0.6632452
000020 48 de 17 3d f6 3e a9 bd 03 15 2e bb 6e ea 9c 3a
       0.03707722 -0.08263962 -0.0026562817 0.0011971721
000030 1a 01 60 3d b4 7f 46 bd d5 bd 7a 3b ab 21 1f 3b
       0.05468855 -0.04846163 0.0038260121 0.0024281542
000040 fc 04 34 bc 7e a4 ef 3b 68 66 c8 bc 85 b6 96 bd
       -0.0109875165 0.00731331 -0.024462894 -0.073590316
000050 a6 c1 a0 3e df c8 45 3f cd 9c 4a bf 4f df 52 3f
       0.31397742 0.7725963 -0.7914551 0.8237199
000060 fd 7a 49 3f 51 ba 54 bf 8d 06 02 3c c5 58 21 3b
       0.7870329 -0.83096796 0.007936132 0.002461956
000070 fa e1 4b 3f dd 92 e0 3e 11 b3 11 3e a2 59 b6 39
       0.7964169 0.43862048 0.14228465 0.00034780527

manipulable_decoder.0.bias f4 [16]
000000 1a 91 b2 be bb 7f 0e bf 4b fa d6 be ed 90 b7 be
       -0.3487633 -0.5566365 -0.41987833 -0.35852757
000010 15 73 42 bf ed 90 05 bf ce 63 9f be b5 20 2f bc
       -0.7595685 -0.52174264 -0.31130832 -0.01068895
000020 bc 32 73 bf c5 2f d0 bd 6c ad 11 c0 df ba 28 bf
       -0.9499929 -0.10165361 -2.2762098 -0.6591014
000030 23 48 dc 3e 97 3c 7f bd b5 e1 50 bd 4b 68 2f bf
       0.43023786 -0.062313642 -0.0509965 -0.68518513
