tripletnet_state_dict.pth (torch, 123304 bytes, 8 tensors)

main.0.weight f4 [16, 1, 3, 3]
-0.47303373 -0.006287511 0.4391759 -0.063781284 0.3212501 -0.18955222 0.2645282 -0.28462312
-0.51343447 -0.73743504 -0.42314643 0.09127664 -0.21997766 -0.055024214 0.24778053 -0.3944946
-0.21105263 0.25658977 -0.15345524 0.07058427 0.5661189 -0.39485386 -0.062064394 0.31471044
-0.5569058 -0.739956 -0.43712077 0.3230981 0.12505771 -0.108981885 0.22954434 -0.33264497
-0.04623843 0.31003404 0.06422865 -0.3023381 -0.1651138 -0.5244832 -0.34033927 -0.058389366
-0.05445282 0.090611525 0.5005372 0.21267417 0.24793279 0.30718973 0.1131775 0.050460804
-0.08009932 -0.029791335 0.07515729 0.13385177 -0.26701313 -0.0059392354 0.09311899 -0.05624731
-0.04188962 -0.4698952 -0.23300341 -0.11409294 -0.28371555 0.31488502 -0.1229097 -0.22447245
0.2593635 -0.15335006 -0.16280296 0.53774035 -0.39350367 -0.048036937 0.33272275 -0.47682798
-0.31166822 0.13875763 0.19860162 0.09839624 0.2781232 0.0024458852 -0.038005654 0.10423867
-0.12563108 0.38906798 0.3804738 0.0900203 -0.037441954 0.20259954 -0.28085053 -0.40327358
-0.5516747 -0.32180962 0.24329369 -0.37857795 -0.55766577 0.50631624 0.014017623 -0.27200946
0.069068514 0.38549942 0.107151076 -0.19281648 -0.5507736 -0.7878442 -0.27515253 -0.13817404
0.40557617 -0.5862534 0.097399235 0.33530974 0.27805555 0.4269202 0.11543539 -0.28152552
-0.21579188 0.2003513 -0.48239988 -0.027817069 0.49193168 -0.35989675 -0.1406167 0.02564566
-0.3560989 -0.01707395 0.35921004 0.025814151 0.14870729 -0.10161084 0.019887885 0.35478935
0.1958369 -0.6843431 -0.5861946 -0.57436085 0.35427836 0.16506743 -0.007151333 -0.0013904816
-0.109675854 -0.48117748 -0.06433603 0.41485125 0.17516711 -0.644472 0.040146023 0.004197208
00000000: 7a31 f2be 7707 cebb aadb e03e c39f 82bd
00000010: e57a a43e fa19 42be 3d70 873e 1fba 91be
00000020: 7170 03bf 8bc8 3cbf a6a6 d8be 3fef ba3d
00000030: d341 61be 1261 61bd 2eba 7d3e 32fb c9be
00000040: 2e1e 58be bc5f 833e 5f23 1dbe 7c8e 903d
00000050: 2bed 103f 492a cabe 3c37 7ebd ba21 a13e
00000060: 6191 0ebf c26d 3dbf 4bce dfbe 1d6d a53e
00000070: 210f 003e e531 dfbd ac0d 6b3e 7150 aabe
00000080: 8264 3dbd c8bc 9e3e 4f8a 833d 0fcc 9abe
00000090: 9813 29be 8844 06bf f340 aebe b029 6fbd
000000a0: ec09 5fbd 8992 b93d 3523 003f 42c7 593e
000000b0: 18e2 7d3e f947 9d3e 9bc9 e73d fdaf 4e3d
000000c0: 1d0b a4bd f50c f4bc 11ec 993d 7010 093e
000000d0: f2b5 88be eb9d c2bb 2bb5 be3d 9463 66bd
000000e0: 7394 2bbd 1b96 f0be 7298 6ebe 8fa9 e9bd
000000f0: 2a43 91be 9c38 a13e 15b8 fbbd 1bdc 65be
00000100: 4bcb 843e cc07 1dbe d2b5 26be 5aa9 093f
00000110: 5079 c9be 61c2 44bd a35a aa3e cc22 f4be
00000120: fa92 9fbe 7b16 0e3e 395e 4b3e f883 c93d
00000130: 2a66 8e3e 254b 203b d1ab 1bbd 157b d53d
00000140: 6fa5 00be eb33 c73e 76cd c23e 905c b83d
00000150: bc5c 19bd 4176 4f3e a4cb 8fbe e079 cebe
00000160: 8e3a 0dbf 3bc4 a4be fb21 793e f8d4 c1be
00000170: 2fc3 0ebf f19d 013f 2caa 653c d344 8bbe
00000180: cb73 8d3d 2e60 c53e 0672 db3d af71 45be
00000190: 80ff 0cbf 28b0 49bf cbe0 8cbe 7f7d 0dbe
000001a0: aea7 cf3e b414 16bf 4079 c73d b8ad ab3e
000001b0: 4c5d 8e3e 4995 da3e 6469 ec3d 1d24 90be
000001c0: 8cf8 5cbe e428 4d3e 1efd f6be 9fe0 e3bc
000001d0: 78de fb3e 6344 b8be d3fd 0fbe d916 d23c
000001e0: 9852 b6be abde 8bbc 61ea b73e 3378 d33c
000001f0: b946 183e 5819 d0bd ebeb a23c f3a6 b53e
00000200: 7889 483e 1c31 2fbf d910 16bf 5009 13bf
00000210: f963 b53e 7007 293e bb55 eabb d240 b6ba
00000220: bc9d e0bd e55c f6be 9cc2 83bd 6267 d43e
00000230: 025f 333e 1efc 24bf 2870 243d bc88 893b

main.0.bias f4 [16]
-0.119996786 -0.027248802 -0.07659322 -0.15674628 -0.186879 -0.3499045 0.13144581 -0.16985375
-0.01948473 -0.12439016 -0.030368108 -0.06996462 -0.49242437 -0.154171 -0.211462 -0.05169047
00000000: e0c0 f5bd e138 dfbc e8dc 9cbd 1982 20be
00000010: 355d 3fbe af26 b3be bb99 063e 24ee 2dbe
00000020: 719e 9fbc 45c0 febd 8ac6 f8bc 9c49 8fbd
00000030: 0c1f fcbe 01df 1dbe 7f89 58be 63b9 53bd

main.3.weight f4 [32, 16, 3, 3]
0.09924953 0.025593856 0.46617335 -0.060262468 -0.18549153 0.092902064 0.048215944 0.2731205
0.16406107 0.013233724 -0.41538855 -0.38511646 -0.1477002 -0.15586753 -0.16686107 0.04234482
0.03764101 -0.10693622 0.031251363 -0.063037 -0.09022296 0.12067317 0.15106791 0.038025223
-0.11821796 -0.010819418 -0.034845807 0.12114335 0.1320782 -0.09950889 -0.013398142 -0.31896332
-0.12351947 -0.1756206 -0.17096949 -0.1640018 -0.11416306 0.06140705 0.2856143 -0.20139372
-0.20898847 0.0939367 0.05533831 -0.18473369 -0.11854281 -0.02074222 0.090452224 -0.03726666
0.08279515 -0.14097269 -0.117276356 -0.13157123 -0.1991784 -0.056676853 -0.14254726 -0.32195857
-0.2151071 -0.30247107 -0.07510999 -0.029899908 0.52041906 0.3966643 0.2580092 0.011394749
-0.114192516 -0.29459527 -0.3821248 -0.46352166 -0.25157046 0.13646142 0.07113321 0.15246488
0.04309566 -0.09585636 -0.00021067137 -0.028798888 -0.16724336 0.020416066 -0.14137518 -0.07332947
-0.095632404 -0.20669492 -0.002036715 0.29375872 0.100576974 -0.07919708 -0.14933279 0.26989642
-0.08024619 -0.052735247 -0.015888408 0.25805178 0.08022068 -0.11942323 0.14133579 0.049878914
-0.45803362 -0.35639384 -0.025121205 -0.11737072 -0.2982287 -0.034527197 -0.12583123 -0.5106544
-0.2724928 0.695986 0.088153176 -0.0916645 -0.19306679 -0.039414916 -0.032513738 0.124226324
0.20477019 0.18364 0.04457242 0.067288086 0.007020886 0.11759284 -0.26240557 0.14918211
-0.14651135 -0.099115916 -0.025411995 0.2160695 0.097590044 0.1546233 -0.04403855 0.22400278
0.3998413 -0.28249767 0.07821179 0.2613895 0.0789494 -0.051523015 -0.08880186 -0.32111368
0.19871913 -0.012795392 -0.014699462 0.4668586 0.19441569 0.038116045 0.13142121 0.3704736
-0.022491492 0.10935629 -0.16328064 0.20302199 0.09038251 0.21128882 0.16486281 0.2108476
0.21985236 -0.17756818 -0.14546904 -0.22594833 -0.15147415 -0.11033387 -0.18270804 0.09360575
0.25033894 0.42455328 0.15433332 0.015352135 -0.21444294 0.18571663 -0.12251209 -0.30215728
-0.32268804 -0.19430129 -0.0784493 -0.13193206 -0.24564521 -0.19267963 -0.2911619 0.011058298
0.06068461 -0.089925036 0.010374059 0.1852989 0.33863017 0.23043732 -0.048234724 0.21064755
0.13373047 -0.58078855 0.044084646 -0.019750033 -0.3371748 -0.053339016 0.019939605 -0.09932289
0.2033243 -0.09299025 -0.01343153 0.020246739 -0.24595986 -0.24510878 0.06875403 0.051689696
-0.20787746 0.056177124 0.11254632 -0.16188319 0.25514746 0.124832325 0.05508133 -0.08739097
-0.10777772 -0.14301962 -0.25883904 -0.09054397 0.105477065 0.1288885 0.30016273 0.4030361
-0.06968145 -0.036565196 0.110969186 0.101926714 -0.04498104 -0.01836727 -0.08816264 0.055966586
0.10997681 0.035126872 -0.05052531 -0.45621982 0.33185503 0.0659896 -0.07452793 0.09370547
-0.181919 -0.15057397 0.2726156 -0.10023027 -0.15005577 0.0322031 -0.23979044 -0.27961516
-0.5258334 -0.23775625 -0.0623724 0.06424282 -0.21694809 -0.1565218 0.057578012 0.1279123
-0.19877245 0.337502 -0.21291745 0.12229039 -0.20227078 -0.041668437 0.16040687 0.17237855
00000000: 5643 cb3d 35aa d13c 46ae ee3e c7d5 76bd
00000010: 7ef1 3dbe 7043 be3d 157e 453d 73d6 8b3e
00000020: a0ff 273e 43d2 583c cfad d4be fc2d c5be
00000030: b93e 17be bd9b 1fbe a1dd 2abe c371 2d3d
00000040: 762d 1a3d 6001 dbbd 6e01 003d 8b19 81bd
00000050: d1c6 b8bd 7f23 f73d 8cb1 1a3e 56c0 1b3d
00000060: 421c f2bd ee43 31bc 7aba 0ebd 011a f83d
00000070: 823f 073e 51cb cbbd e183 5bbc 294f a3be
00000080: c7f7 fcbd e3d5 33be a012 2fbe 16f0 27be
00000090: 53ce e9bd f585 7b3d 0a3c 923e 283a 4ebe
000000a0: 1301 56be e261 c03d 6caa 623d d42a 3dbe
000000b0: 93c6 f2bd 97eb a9bc 043f b93d eda4 18bd
000000c0: 8190 a93d 255b 10be 962e f0bd 9cba 06be
000000d0: 6cf5 4bbe fd25 68bd e9f7 11be c1d7 a4be
000000e0: 0945 5cbe 7ddd 9abe 44d3 99bd a7f0 f4bc
000000f0: 2f3a 053f 9517 cb3e c819 843e 0bb1 3a3c
00000100: c4dd e9bd 31d5 96be dda5 c3be b652 edbe
00000110: d8cd 80be 8bbc 0b3e 4aae 913d c11f 1c3e
00000120: 1385 303d 5750 c4bd aae7 5cb9 a5eb ebbc
00000130: d841 2bbe 983f a73c a8c4 10be c32d 96bd
00000140: ecda c3bd d5a7 53be 687a 05bb 8b67 963e
00000150: 4dfb cd3d 1432 a2bd b2ea 18be dd2f 8a3e
00000160: 1d58 a4bd ea00 58bd 6828 82bc 5d1f 843e
00000170: bd4a a43d 2b94 f4bd 54ba 103e d54d 4c3d
00000180: 6283 eabe 4179 b6be fcca cdbc 0f60 f0bd
00000190: 6fb1 98be 646c 0dbd e7d9 00be 3fba 02bf
000001a0: 2d84 8bbe 232c 323f a789 b43d 99ba bbbd
000001b0: 4db3 45be 8971 21bd 202d 05bd 5f6a fe3d
000001c0: 47af 513e 200c 3c3e 9291 363d 56ce 893d
000001d0: 760f e63b 84d4 f03d 065a 86be 32c3 183e
000001e0: 1207 16be 49fd cabd d12c d0bc 5341 5d3e
000001f0: 4add c73d 9255 1e3e c461 34bd fc60 653e
00000200: 00b8 cc3e 89a3 90be 812d a03d d8d4 853e
00000210: 39b0 a13d cc09 53bd c0dd b5bd 0369 a4be
00000220: 077d 4b3e c4a3 51bc 03d6 70bc 1708 ef3e
00000230: e814 473e 921f 1c3d 4893 063e b7ae bd3e
00000240: 1440 b8bc 31f6 df3d 0a33 27be ffe4 4f3e
00000250: 771a b93d 195c 583e ccd1 283e 6fe8 573e
00000260: fa20 613e 6fd4 35be d6f5 14be 005f 67be
00000270: 0a1c 1bbe b9f6 e1bd d117 3bbe 5fb4 bf3d
00000280: 6d2c 803e 0c5f d93e 8e09 1e3e 8587 7b3c
00000290: ee96 5bbe 802c 3e3e 9ee7 fabd 5cb4 9abe
000002a0: 5e37 a5be ebf6 46be 07aa a0bd 3319 07be
000002b0: 6b8a 7bbe cf4d 45be 2c13 95be dd2d 353c
000002c0: 6d90 783d 9e2a b8bd f5f7 293c ffbe 3d3e
000002d0: ef60 ad3e c3f7 6b3e c691 45bd feb3 573e
000002e0: a4f0 083e 8fae 14bf 1a92 343d d2ca a1bc
000002f0: 2da2 acbe 037a 5abd 6258 a33c cd69 cbbd
00000300: 3f34 503e ac71 bebd ec0f 5cbc 7ddc a53c
00000310: e7dc 7bbe ccfd 7abe eace 8c3d 93b8 533d
00000320: d4dd 54be fc19 663d af7e e63d b5c4 25be
00000330: b0a2 823e 17a8 ff3d f69c 613d 09fa b2bd
00000340: 91ba dcbd bc73 12be 8d86 84be 1e6f b9bd
00000350: 5c04 d83d 59fb 033e eeae 993e bf5a ce3e
00000360: 26b5 8ebd 63c5 15bd d043 e33d f4be d03d
00000370: 0a3e 38bd f576 96bc 9d8e b4bd 383d 653d
00000380: 863b e13d 32e1 0f3d a1f3 4ebd a595 e9be
00000390: e7e8 a93e 8e25 873d 19a2 98bd a7e8 bf3d
000003a0: f948 3abe 1030 1abe 4694 8b3e 8745 cdbd
000003b0: 38a8 19be 66e7 033d a08b 75be b829 8fbe
000003c0: 059d 06bf 6076 73be 347a 7fbd bd91 833d
000003d0: a427 5ebe 4047 20be ecd6 6b3d 71fb 023e
000003e0: 018b 4bbe 10cd ac3e 0807 5abe 6273 fa3d
000003f0: 1220 4fbe 86ac 2abd b341 243e 0184 303e

main.3.bias f4 [32]
-0.20783669 -0.12744191 -0.23413673 -0.23929757 -0.24027163 -0.21285908 -0.24324243 -0.15765685
-0.16698688 -0.20745699 -0.29595634 -0.20047933 -0.242799 -0.21670763 -0.15928455 -0.18231969
-0.07015625 -0.024501543 -0.09879543 -0.16688178 -0.29269388 -0.22670838 -0.42806658 -0.046095766
-0.3832033 -0.23169345 -0.16197053 -0.3018366 -0.08025475 -0.06297956 -0.20932865 -0.12116067
00000000: 24d3 54be 2280 02be 8ac1 6fbe 6c0a 75be
00000010: c409 76be bbf7 59be 8b14 79be cc70 21be
00000020: 9cfe 2abe 9b6f 54be 9787 97be 744a 4dbe
00000030: 4da0 78be 9be8 5dbe 7d1b 23be 03b2 3abe
00000040: 14ae 8fbd 76b7 c8bc 4255 cabd 0fe3 2abe
00000050: f9db 95be 3e26 68be 8b2b dbbe eace 3cbd
00000060: 3933 c4be 0c41 6dbe 9adb 25be 548a 9abe
00000070: 9a5c a4bd 6dfb 80bd 405a 56be 1623 f8bd

main.7.weight f4 [16, 1568]
-0.019566031 0.013238602 -0.12193426 0.11554463 0.20071891 0.24229643 0.20818548 0.004657541
0.15823424 0.2368931 0.021560678 -0.096081965 -0.04461376 -0.015343075 -0.0038480246 0.035723183
-0.023440763 -0.04752403 0.011003915 0.023171293 0.0166678 -0.2543599 -0.39994144 -0.58783275
-0.2723884 0.13940671 -0.028013952 0.0925435 -0.12606953 0.19151343 -0.23068984 -0.07559658
0.19327235 0.043914333 0.10364414 -0.009330995 0.13272889 -0.106036685 0.17842834 0.24474145
0.2608169 -0.011805975 0.01791932 -0.0760011 -0.08995152 0.041549005 -0.034265306 0.2386974
-0.02101717 0.072635025 -0.14462516 -0.18525799 -0.14159578 -0.16959807 -0.26391062 -0.16015047
0.046995718 0.019687558 0.31542894 0.12984943 0.019551307 0.033377297 0.062221434 -0.038944114
0.06737643 0.20370282 0.17676224 0.0856962 0.083417356 0.10956979 -0.1062309 -0.1414894
0.09146112 0.030950459 -0.04672075 0.04939663 -0.034859113 -0.0032101218 -0.067219846 -0.16950575
-0.2410266 -0.08141092 -0.3560932 -0.010719647 0.049014356 0.15332347 -0.30235782 -0.49662864
-0.11934058 -0.0035681566 -0.028198196 0.0072500133 -0.17606232 -0.12780868 -0.0840539 0.05056931
0.15842271 0.15927942 -0.0645135 -0.10516574 -0.09461847 -0.048989527 0.07150696 -0.0538743
-0.00014338443 -0.049005643 0.02870224 0.14015952 0.093482226 -0.07146106 -0.054602783 -0.39179835
-0.012698624 0.11293952 0.13820226 0.056733776 -0.10922109 -0.080941185 -0.4444406 -0.19124565
-0.12412856 -0.037085686 -0.11560034 -0.13326311 0.04011246 0.105805926 -0.11132711 0.113249525
-0.013901048 -0.30199355 0.014319609 0.03875314 0.12114165 0.060474023 0.2508913 -0.02413096
-0.070095174 -0.046056725 0.016733717 -0.096066974 0.109061696 0.20209922 -0.009269957 -0.008169186
0.086307615 0.15634853 0.23123918 -0.1349677 -0.09926969 -0.031856336 -0.09682451 -0.106691755
-0.1261109 -0.23248881 -0.07355066 -0.1134539 -0.1451322 0.017820226 -0.0405877 0.019887352
-0.24379309 -0.2032487 -0.027788812 0.071556285 -0.085116416 -0.07476156 -0.035873458 -0.34895462
-0.13427772 0.3460039 0.41544837 0.24289107 -0.103152074 0.27264845 0.12565862 0.07087462
0.14177945 0.0559118 -0.056544054 0.18070793 0.12608053 0.086040765 0.0636299 0.04013751
-0.054483064 0.18896812 0.35973567 0.063332304 0.03736841 -0.044388294 -0.02906715 -0.072699
0.15395403 0.057302106 -0.07892961 -0.067618385 0.08418684 0.08059747 0.093012 -0.026954204
0.22662106 0.14464286 0.15759693 0.0010551303 -0.31414288 -0.17875782 -0.14712827 0.09160326
0.10685858 0.2253136 0.13965319 -0.03879389 -0.3756558 -0.3155379 0.25314245 0.3237661
0.32878584 -0.03614362 -0.18441914 -0.15198584 -0.0026633258 0.08686837 0.21789214 0.2118093
0.022680758 -0.18443546 8.336938e-06 -0.04413113 -0.22884133 0.18525559 -0.021828135 0.060857892
-0.2844073 0.110124394 -0.31930074 -0.39619908 0.035805967 -0.05972978 0.19076529 -0.02942225
-0.024749475 -0.56216043 -0.45139235 -0.39221534 -0.2089022 0.14339499 0.15141638 -0.029465768
0.026441682 -0.42383075 -0.2707662 -0.014937353 -0.0024601556 -0.009418378 0.009055393 -0.02842516
00000000: f148 a0bc b9e6 583c abb8 f9bd aaa2 ec3d
00000010: 4289 4d3e 8e1c 783e 932e 553e 499e 983b
00000020: 2808 223e 1b94 723e 05a0 b03c 9fc6 c4bd
00000030: ebbc 36bd 8561 7bbc 242f 7cbb 7952 123d
00000040: d806 c0bc 8fa8 42bd c449 343c b9d1 bd3c
00000050: e98a 883c 763b 82be 20c5 ccbe 357c 16bf
00000060: 7e76 8bbe a2c0 0e3e 847d e5bc 7287 bd3d
00000070: 5f18 01be 191c 443e f539 6cbe 61d2 9abd
00000080: 30e9 453e 84df 333d 6143 d43d 08e1 18bc
00000090: 15ea 073e c329 d9bd ebb5 363e 819d 7a3e
000000a0: cb89 853e d96d 41bc 8acb 923c 77a6 9bbd
000000b0: 8138 b8bd 4a2f 2a3d c759 0cbd 176d 743e
000000c0: 332c acbc acc1 943d 9e18 14be 45b4 3dbe
000000d0: 7cfe 10be 1eab 2dbe 4b1f 87be 7cfe 23be
000000e0: 957e 403d cd47 a13c e77f a13e 40f7 043e
000000f0: 102a a03c a2b6 083d e7db 7e3d dd83 1fbd
00000100: a7fc 893d 7997 503e 2901 353e 7d81 af3d
00000110: b8d6 aa3d 2066 e03d 968f d9bd 99e2 10be
00000120: f84f bb3d d18b fd3c 425e 3fbd 1f54 4a3d
00000130: 6ec8 0ebd e860 52bb 8faa 89bd ea92 2dbe
00000140: adcf 76be c5ba a6bd d951 b6be 75a1 2fbc
00000150: 47c3 483d d400 1d3e a5ce 9abe 1c46 febe
00000160: d668 f4bd bcd7 69bb e7ff e6bc 8591 ed3b
00000170: ae49 34be 47e0 02be 7324 acbd c421 4f3d
00000180: 9039 223e 251a 233e a71f 84bd 2361 d7bd
00000190: 54c7 c1bd 3ea9 48bd 3e72 923d 4cab 5cbd
000001a0: 7759 16b9 24ba 48bd f620 eb3c fa85 0f3e
000001b0: 9c73 bf3d 2d5a 92bd 2ba7 5fbd cb99 c8be
000001c0: e40d 50bc d64c e73d e584 0d3e ad61 683d
000001d0: 4faf dfbd 7ec4 a5bd b88d e3be e6d5 43be
000001e0: 1d37 febd 29e7 17bd dfbf ecbd 2076 08be
000001f0: f64c 243d c7b0 d83d 78ff e3bd 5eef e73d
00000200: 39c1 63bc e69e 9abe cb9c 6a3c 9dbb 1e3d
00000210: 1d19 f83d 9cb3 773d d374 803e 4bae c5bc
00000220: 0f8e 8fbd faa5 3cbd 2615 893c c3be c4bd
00000230: bd5b df3d 19f3 4e3e 05e1 17bc 0dd8 05bc
00000240: 0cc2 b03d d419 203e f7c9 6c3e f934 0abe
00000250: e84d cbbd ca7b 02bd ee4b c6bd 3581 dabd
00000260: 3723 01be 8c11 6ebe baa1 96bd 855a e8bd
00000270: 899d 14be b9fb 913c 4a3f 26bd cdea a23c
00000280: e5a4 79be 6d20 50be 5da5 e3bc 1a8c 923d
00000290: 8451 aebd 971c 99bd 0cf0 12bd 2eaa b2be
000002a0: 1980 09be 6c27 b13e a6b5 d43e 70b8 783e
000002b0: 6541 d3bd 9498 8b3e a7ac 003e b626 913d
000002c0: a22e 113e c603 653d bd9a 67bd 800b 393e
000002d0: 411b 013e 2436 b03d 6550 823d 3b67 243d
000002e0: a229 5fbd dc80 413e 462f b83e 5eb4 813d
000002f0: 9e0f 193d 80d0 35bd 3b1e eebc 37e3 94bd
00000300: 20a6 1d3e 9db5 6a3d d9a5 a1bd 827b 8abd
00000310: 266a ac3d 4910 a53d 137d be3d 10cf dcbc
00000320: 5a0f 683e 421d 143e 1761 213e 4c4c 8a3a
00000330: 56d7 a0be 4a0c 37be cba8 16be 7d9a bb3d
00000340: acd8 da3d 9cb8 663e 3f01 0f3e 58e6 1ebd
00000350: f555 c0be 2f8e a1be e39b 813e acc4 a53e
00000360: 9e56 a83e 550b 14bd 5fd8 3cbe 2da2 1bbe
00000370: 318b 2ebb 0be8 b13d 1e1f 5f3e 8ae4 583e
00000380: ffcc b93c a6dc 3cbe e0de 0b37 d8c2 34bd
00000390: 6255 6abe a4b3 3d3e ebd0 b2bc 2046 793d
000003a0: d59d 91be e688 e13d 637b a3be 9bda cabe
000003b0: 47a9 123d 37a7 74bd fa57 433e ee06 f1bc
000003c0: 69bf cabc bfe9 0fbf e61c e7be 73d0 c8be
000003d0: 75ea 55be 23d6 123e e50c 1b3e 3262 f1bc
000003e0: 3a9c d83c 5800 d9be dea1 8abe cdbb 74bc
000003f0: 903a 21bb 8a4f 1abc 125d 143c e2db e8bc

main.7.bias f4 [16]
0.15515916 0.08839525 0.1875088 -0.17858592 0.039469715 0.12890363 0.17333996 0.10843823
0.041080743 0.079111554 0.035655227 0.0897176 0.07238566 0.12701628 0.15080293 0.10963464
00000000: 0be2 1e3e 9208 b53d 4f02 403e 3adf 36be
00000010: ffaa 213d 50ff 033e 0880 313e dd14 de3d
00000020: 4844 283d 3d05 a23d 370b 123d dcbd b73d
00000030: ef3e 943d 8e10 023e 156c 1a3e 2088 e03d

main.9.weight f4 [2, 16]
-0.026022948 0.45514318 -0.07435877 0.0763278 -0.18304424 -0.21632022 0.12110327 0.15730017
0.0023328366 -0.24178417 -0.12883411 0.5231706 -0.0382629 0.39168382 0.1434529 0.13965972
-0.1665737 -0.22989546 0.04997971 -0.0699582 0.17201547 -0.029655198 0.08620985 -0.1568993
-0.100763686 -0.049938675 -0.19554001 0.3294056 0.19529937 0.10327387 -0.26533815 0.33964306
00000000: 142e d5bc 8708 e93e 6949 98bd c051 9c3d
00000010: f36f 3bbe 0c83 5dbe fe04 f83d 4c13 213e
00000020: 81e2 183b 4596 77be 17ed 03be 82ee 053f
00000030: 8fb9 1cbd c88a c83e 51e5 123e f502 0f3e
00000040: 4c92 2abe b769 6bbe 86b7 4c3d 3f46 8fbd
00000050: d324 303e 75ef f2bc ca8e b03d 36aa 20be
00000060: 315d cebd 7f8c 4cbd a43b 48be daa7 a83e
00000070: 8ffc 473e 4081 d33d 67da 87be b2e5 ad3e

main.9.bias f4 [2]
-0.19370674 -0.2410849
00000000: 0f5b 46be f6de 76be
