results/wgan-gp/mnist_tripletnet_state_dict.pth (torch, 123024 bytes, 6 tensors)

representation_encoder.0.weight f4 [16, 1, 3, 3]
000000 d2 aa f7 be e2 c6 ed bd be a3 6e 3e 71 e2 c6 bd
       -0.48372513 -0.116101995 0.2330465 -0.09711159
000010 43 02 14 bf c3 e8 d7 be 4f 50 0e 3c 85 9d d9 3c
       -0.5781595 -0.4216977 0.008686139 0.026564369
000020 a2 e7 c0 bd 67 88 9f 3b 97 05 80 be 1b a7 09 3e
       -0.094191805 0.0048685553 -0.25004265 0.13442652
000030 42 94 d4 be 3b a4 81 3d 9d e4 43 3e e9 a6 0c 3d
       -0.41519362 0.063301526 0.19130178 0.034338865
000040 0b 32 8e 3d 34 91 11 bd ff c2 92 be 22 45 90 bf
       0.06943139 -0.035538867 -0.28664395 -1.1271098
000050 41 d7 37 3e fd 9a a2 3d d8 be 36 bd aa 16 96 bf
       0.17953207 0.07939718 -0.044615597 -1.1725667
000060 2e ec d8 3e 7f bd 20 bd 51 d0 fd be f0 91 28 3e
       0.4236769 -0.039243218 -0.49572995 0.1646192
000070 51 04 34 3e fa cc 58 3e 9d 21 50 bd 15 ef 61 be
       0.17579772 0.21171942 -0.050813306 -0.22063859
000080 3a c1 7f 3e e9 c3 db be e8 90 b2 bd 3f 6f 95 3e
       0.24976054 -0.42922905 -0.08719045 0.29186437
000090 3d 2b 4f be 3f 92 da bb 54 19 8a 3d 28 6d 3b 3e
       -0.20231338 -0.006670266 0.06743112 0.18303359
0000a0 cd 3e 2b 3e 11 6d af bd e8 53 7a be d1 07 a0 be
       0.16723175 -0.08565725 -0.2444607 -0.31255963
0000b0 e0 de be bd d9 e2 32 39 24 7e d3 3e ea 99 7d 3e
       -0.09319854 0.0001705991 0.41307175 0.24765745
0000c0 c0 32 9d be 7e 3c 5e 3e eb b0 3a 3d 3e 72 3f bf
       -0.30702782 0.21702763 0.04557888 -0.74783695
0000d0 f0 dc 04 bf d2 f4 0b bf 29 bc b4 bc b9 a9 17 be
       -0.51899624 -0.5467044 -0.022062378 -0.14810838
0000e0 67 e7 c4 be 6a 94 ff 3d 9a d9 cc 3e 36 26 55 be
       -0.38457796 0.124794796 0.40009767 -0.20815358
0000f0 09 77 54 be 86 b1 84 3e e5 c1 22 bd 46 17 0a bd
       -0.20748533 0.2591669 -0.039735693 -0.0337136
000100 ff 25 43 bf f5 f6 17 bf a3 a1 a6 bf d7 12 05 3e
       -0.7622985 -0.593612 -1.3018078 0.12995468
000110 78 f5 6d 3d f1 f6 18 bf 13 89 6c 3b 14 97 dc 3e
       0.058095425 -0.597518 0.0036092445 0.43084013
000120 11 ef 2d 3e 3a 3d f5 bc d6 bd 36 be 81 ff 27 be
       0.16985728 -0.029936422 -0.17845854 -0.16406061
000130 5a 6f 90 be d5 e8 81 3e 14 f2 00 bd 6a 90 4f be
       -0.28209955 0.2537295 -0.031480864 -0.20269933
000140 09 25 80 3d d9 54 d5 3d 49 e0 53 be 1d 81 e6 be
       0.06257064 0.10416574 -0.20691027 -0.4502038
000150 cf 5d 46 be 84 ca 13 3f 6c 29 8f bd e3 f8 f0 be
       -0.19371723 0.5773089 -0.069903225 -0.47064885
000160 23 f3 3a bd 38 72 17 bc b9 33 66 3e 8e 23 48 3e
       -0.04564203 -0.0092435405 0.22480668 0.19544813
000170 53 c1 c3 be 41 51 10 b8 a7 55 28 be 2d f9 01 bf
       -0.38233432 -3.440795e-05 -0.16438924 -0.5077084
000180 c2 a6 f9 be bf 6d 0b bf 24 f7 a7 3d 8d 53 34 bf
       -0.4876004 -0.54464334 0.08201435 -0.7043999
000190 f3 3e 8d be 65 8c 32 3e 5d cb 66 bf 52 b0 9a 3d
       -0.2758709 0.17436369 -0.9015406 0.07553162
0001a0 b4 6c a1 3e 02 1a f7 be 14 4e 7d be fa 8d cb bc
       0.31528246 -0.4826203 -0.24736816 -0.024847973
0001b0 ab 9a c8 be 08 b3 4d be df d8 e8 3d 2b 50 f3 bd
       -0.39180502 -0.20087826 0.1136949 -0.11880525
0001c0 e6 a9 58 3f a8 74 49 be 90 32 07 3e b9 f8 10 be
       0.84634244 -0.19673407 0.13202882 -0.1415738
0001d0 08 dc b3 be 3b 83 00 3e a2 7e 8c bd 9a 99 8f be
       -0.35128808 0.1255006 -0.06860091 -0.28046876
0001e0 41 82 d2 3e d7 d2 57 bd f8 b9 ff be 47 d3 09 be
       0.41115 -0.052691307 -0.4994657 -0.13459502
0001f0 8d 5b 88 bd 50 fb 19 be bd b6 b3 3e 9e 51 b6 be
       -0.06658087 -0.15037274 0.35100356 -0.35609144
000200 a6 f9 a0 be f1 77 41 3b ac 5e 8e be df 0a 8c 3d
       -0.31440467 0.0029520954 -0.27806604 0.06838011
000210 d4 9c 93 3e 14 3e a0 3e 10 51 61 3e 4e 23 7b bd
       0.28830588 0.31297362 0.22003579 -0.061312966
000220 60 73 c0 3d 74 7c ed 3c 3c bf c0 bd 9c d6 51 bd
       0.09397006 0.028990008 -0.09411475 -0.051230058
000230 53 49 39 be 00 cf a9 bd 7d d6 5f 3e bc 45 17 be
       -0.18094377 -0.08291435 0.21859165 -0.14772695

representation_encoder.0.bias f4 [16]
000000 65 f8 9d bd 7c 96 1d 3b 8d 71 0a bd d2 6a 96 be
       -0.07713393 0.0024045995 -0.033799697 -0.29378372
000010 52 dc 57 bc f8 66 f5 bd 6b 90 7c bd 83 f1 bb bd
       -0.013175087 -0.1198253 -0.061661165 -0.09176924
000020 90 e3 1a 3c 32 0c 80 bd dc 87 81 bd 84 0e 2f bd
       0.009453669 -0.06252326 -0.06324741 -0.042738453
000030 32 cc eb bd de 3b 7d bd 90 f8 ae be 54 ff 9d 3b
       -0.115135565 -0.061824672 -0.34174013 0.0048216973

representation_encoder.3.weight f4 [32, 16, 3, 3]
000000 f0 1b cd be 9f 2d 1d bf 83 0a 05 bf ec 6a 6c 3e
       -0.40060377 -0.6139774 -0.51969165 0.23087662
000010 e1 5e 94 be c2 b1 81 be 4a da 98 be 47 7b 5e be
       -0.28978637 -0.2533093 -0.2985404 -0.21726714
000020 02 12 c7 3d 77 f1 f7 bd b4 85 b2 3e 21 2a 85 3e
       0.097202316 -0.12106603 0.34867632 0.26008704
000030 03 2f a7 bf f7 78 2e 3f 5d 93 a4 3d 34 cb 45 3d
       -1.3061222 0.6815333 0.0803592 0.048289493
000040 b5 9c ed be c3 32 0f bf 23 77 9e bb ce 2e f6 be
       -0.4640862 -0.5593683 -0.0048359795 -0.48082584
000050 7d d0 17 3e 9a cc 93 3e c7 5e d4 be a7 8b 53 3d
       0.14825626 0.28867036 -0.4147856 0.051646855
000060 04 ce aa be 74 df 55 bf 23 51 8f 3e 0b de 6f be
       -0.33360302 -0.8354409 0.2799159 -0.23424546
000070 41 59 fc bd b9 7b fd be 55 9c 2d be 9a 9d dc be
       -0.12321711 -0.49508455 -0.16954167 -0.4308899
000080 17 99 47 bf 7f 46 91 3e a9 7c 54 3e 96 0a cc 3e
       -0.7796797 0.28374097 0.20750679 0.39851826
000090 69 f0 8c bb ad 86 5b 3d a5 db 3c be 90 28 64 bd
       -0.00430112 0.053595234 -0.18443163 -0.055702746
0000a0 44 5b a8 be 32 b6 19 bf 07 da d0 bd 8f 9d e5 bc
       -0.3288213 -0.60043633 -0.101978354 -0.028029231
0000b0 e3 75 ce 3e fb ff 31 bf 20 27 89 bf 9c 55 2f be
       0.40324315 -0.6953122 -1.0715065 -0.17122501
0000c0 23 0c 53 3e a0 2c 87 3c 7f 08 0b bf b9 0f 61 3e
       0.20610099 0.016500771 -0.5430984 0.21978654
0000d0 b0 64 0f bf b0 2e 29 bf d5 69 6e 3e cb ab 26 bf
       -0.5601301 -0.66086864 0.23282559 -0.65105885
0000e0 d8 84 97 3e ba 50 0e 3f d3 9c 65 bd 00 2e 1b 3e
       0.2959354 0.5559193 -0.056057762 0.15154266
0000f0 51 75 6b be d6 24 de be b8 c9 59 bf 95 70 72 bf
       -0.22993971 -0.4338748 -0.85073423 -0.94703037
000100 9b d8 6d 3d 5f 71 8e 3f 4e 7d 1f c0 5c d1 1e bf
       0.0580679 1.1128348 -2.492023 -0.6203821
000110 2c 1f 3a 3f e2 77 26 3f d4 c8 2a bf 58 d2 95 3d
       0.72703815 0.65026677 -0.6671269 0.073155105
000120 6e c3 0f 3b cb a0 4f 3f 09 61 17 3f 9a 05 5c bd
       0.0021936554 0.81104726 0.5913244 -0.05371628
000130 e3 47 99 bf 94 f7 1c 3f bd cf d7 3b ac 73 38 bf
       -1.1975063 0.61315274 0.0065860436 -0.720515
000140 9e a6 6e bf 92 65 ed be 9e 40 0d 3e d6 db 22 be
       -0.9322299 -0.46366554 0.13794181 -0.15904173
000150 7a 25 50 3f f7 a7 ce 3e a9 cb d6 be a8 1b 32 3e
       0.81307185 0.40362522 -0.41952255 0.17393363
000160 0d ca cc 3e c0 01 01 3e be 73 72 bc 54 31 ca 3e
       0.39997903 0.12598324 -0.014798103 0.3949076
000170 b0 b3 db bc b4 82 07 3e 78 4c 0a bf e0 3b 1d 3f
       -0.02681908 0.13233453 -0.5402293 0.61419487
000180 aa 1d 56 be 2c f8 9c 3e 49 81 86 3d 14 06 01 bf
       -0.20909753 0.3065809 0.06567628 -0.503999
000190 3c 4a 42 be 69 dc e8 3e d9 31 a4 be 46 44 4a bf
       -0.1897363 0.4548066 -0.3206928 -0.79010427
0001a0 12 e9 4f bf 54 63 3f 3f 63 c6 da bd b8 6c eb 3e
       -0.8121501 0.7476094 -0.106823705 0.45981383
0001b0 a0 c8 01 3e 0e ae 63 3f 94 f3 27 bd 65 d7 8c bf
       0.12674189 0.8893746 -0.04100378 -1.1003233
0001c0 11 36 41 3d 93 a2 b5 3e 26 da f4 bd 97 81 e7 bb
       0.047170702 0.35475597 -0.11955671 -0.007065009
0001d0 08 39 ed be c1 a7 3c 3e 98 47 b7 be 7a f2 fe 3e
       -0.46332574 0.18423368 -0.3579681 0.4979437
0001e0 da 44 67 be 65 a8 a7 bf 36 1a 38 3f 98 b3 88 be
       -0.22584859 -1.3098265 0.71914995 -0.2669952
0001f0 20 e9 e0 be 22 60 82 be b9 86 a1 bd 3b 9f 2c 3f
       -0.4392786 -0.2546397 -0.078870244 0.67430466
000200 89 95 2a be 93 1f 5e 3f f0 18 85 3e c4 6a 41 bc
       -0.16658606 0.8676693 0.25995588 -0.01180524
000210 e1 2a 71 bf 50 88 74 bf cd b0 8a bf 3b a8 9d 3e
       -0.94206053 -0.95520496 -1.0835205 0.30792412
000220 38 de f5 be 4f 2b c9 3e ed 08 f1 bb b2 fe aa be
       -0.48021102 0.39290854 -0.0073558004 -0.33397442
000230 f4 01 89 3e d3 c5 a6 3e 84 fb 0f bf a1 57 20 be
       0.26759303 0.32572803 -0.5624316 -0.15658428
000240 b0 73 d1 3e f7 1f fb bd b9 88 2c bf d3 4d 93 3f
       0.40908575 -0.12261956 -0.6739612 1.1508125
000250 71 39 e8 3f 4a a5 1b bf 08 97 f9 3e c6 09 8a be
       1.814253 -0.60799086 0.4874804 -0.26960582
000260 a1 06 c2 be 86 60 b3 be 3d 4e 1b 3f 0c 74 70 bf
       -0.37895682 -0.3503458 0.6066626 -0.93927073
000270 6f df 16 bf d4 b5 b6 be 6b 71 b4 be 82 f4 53 bd
       -0.5893468 -0.356856 -0.3524278 -0.051746853
000280 11 46 a2 be fc 42 51 3f fc 87 6c bc 3c b6 49 be
       -0.3169408 0.81742835 -0.014436718 -0.19698423
000290 54 81 28 bf 04 93 2e 3f 02 a8 4d 3f 2c b2 5f bf
       -0.6582234 0.6819308 0.80334485 -0.87381244
0002a0 2d 97 83 3e 7c 02 9e bf 5e c3 3f 3e 9a 9f 66 3e
       0.25701275 -1.2344508 0.1872687 0.2252182
0002b0 06 e0 40 3f 34 ae 1f 3d b4 90 54 be 38 0b 43 bf
       0.7534183 0.038984492 -0.20758325 -0.76188993
0002c0 f6 54 ed bf f5 01 56 bf b4 3b 30 bf 53 d5 36 bf
       -1.8541553 -0.83596736 -0.688411 -0.71419257
0002d0 1b 83 5e be 3f 9d 44 3e ed ab 13 3f e3 85 ec be
       -0.217297 0.1920061 0.5768421 -0.46195897
0002e0 b4 36 07 3f f7 1e 0d 3e 97 cd 33 bd 99 1a 52 3f
       0.52817845 0.13781343 -0.043897238 0.82071835
0002f0 32 1c 93 be 59 df 87 be c8 b1 dc 3e b0 41 20 3f
       -0.2873245 -0.26537588 0.43104386 0.6260023
000300 6d ac b6 3e d0 be 28 3f 93 54 26 bf 8c a6 27 3f
       0.35678425 0.65916157 -0.649728 0.65488505
000310 60 6c ae 3f 62 be 6a bf 7b 92 3b 3f fb e8 b8 be
       1.3626823 -0.9169675 0.73270386 -0.3611525
000320 70 3c 69 bf 61 7c e9 be 50 9e 26 3e dd ad 94 bf
       -0.91107845 -0.45602706 0.16271329 -1.1615559
000330 ab ab 25 bf 86 3e a6 be 9e f8 e9 3e c9 e7 4e bf
       -0.6471507 -0.32469577 0.45697492 -0.80822426
000340 d1 a9 ea bd d8 72 a3 be d5 a9 08 bf 72 11 8c 3d
       -0.11458171 -0.31923556 -0.53384143 0.06839265
000350 1c bf 30 3f 20 2e 82 3f 8d 04 8c 3f d6 a4 b1 bd
       0.6904161 1.0170326 1.0938889 -0.08674018
000360 bd de ac be 35 e0 f8 be 35 67 e8 3e fe 1f 3f be
       -0.33763686 -0.48608556 0.4539124 -0.18664548
000370 4e f4 e4 3b 15 a2 6b 3f 0b a5 3c 3e 9c b4 29 3e
       0.006987131 0.9204419 0.18422334 0.16572803
000380 e9 02 26 3e 61 06 db 3e 7c 70 9a be 93 21 9a be
       0.16212048 0.42778304 -0.30163944 -0.3010374
000390 c5 15 f3 bd 4e a4 07 3e b1 8e 84 bf 6a c9 21 bf
       -0.118693866 0.13246271 -1.0356046 -0.6319796
0003a0 31 b9 7c be fd 2c 47 bf e9 d8 71 bf 49 a1 ab be
       -0.2468002 -0.7780302 -0.94471604 -0.33521488
0003b0 2d 7d 57 3f bd 44 5a bf 38 6a 38 3f 1a 59 37 3f
       0.8417538 -0.85261136 0.72037077 0.71620333
0003c0 1e d5 b0 bf de a5 b0 3f 01 d7 8f 3d 8c 54 62 3f
       -1.3815038 1.3800619 0.070234306 0.8841026
0003d0 a4 05 58 3f 60 ea 07 bf 18 cb 88 3e 13 91 82 be
       0.84383607 -0.53092 0.26717448 -0.25501308
0003e0 f2 28 14 bf c7 10 30 bf 71 c7 f8 bd 7a ff e7 bc
       -0.5787498 -0.687756 -0.121474154 -0.028320063
0003f0 d1 71 9c bf 20 24 fc 3e c0 ac 35 3f 17 03 4b be
       -1.2222234 0.4924631 0.7096672 -0.19825397

representation_encoder.3.bias f4 [32]
000000 b4 9b 5b bf e8 76 2a bf 8a 02 62 bf f0 43 67 bf
       -0.8578446 -0.66587687 -0.88285124 -0.9033804
000010 4f 9d 5d bf b9 f8 27 bf 3c 03 37 bf c5 0c 67 bf
       -0.8656816 -0.65613896 -0.7148931 -0.9025386
000020 5b 60 3f bf 6f 1c 57 bf 11 56 26 bf 3e 7b 1e bf
       -0.747564 -0.8402776 -0.64975077 -0.619068
000030 df 8f 7e bf a5 62 3e bf f1 88 37 bf 43 44 60 bf
       -0.9943828 -0.7436927 -0.7169333 -0.8760416
000040 03 4a c8 bf aa 57 4d bf fd 48 4e bf 96 ec 98 bf
       -1.5647587 -0.8021189 -0.8058012 -1.19472
000050 60 78 86 bf e6 c9 68 bf 48 18 40 bf fc ad 01 bf
       -1.0505486 -0.9093307 -0.7503705 -0.50656104
000060 b1 a0 33 bf 4e f0 6a bf 67 42 36 bf 72 d9 2f bf
       -0.7016707 -0.91772926 -0.7119507 -0.6869117
000070 89 fa 52 bf 1b 26 99 bf 8d a7 1c bf 66 84 77 bf
       -0.82413536 -1.1964754 -0.6119316 -0.966864

representation_encoder.7.weight f4 [16, 1568]
000000 8c fe 83 3e 8a d6 7a 3e d0 40 1e 3f 92 32 5c be
       0.2578014 0.24495903 0.61817646 -0.21503666
000010 8a 9b f9 be 00 6d 01 3e 17 08 36 3e 27 9c 19 3e
       -0.4875148 0.12639236 0.17776524 0.15000974
000020 fc c8 4e bf dd be 0a bf 05 a6 0c bf a2 1b a0 3e
       -0.8077543 -0.54197484 -0.54940826 0.31271082
000030 f1 bf 71 3e 55 b1 2a 3f f3 fe a0 3e b8 3c 76 bf
       0.23608376 0.6667684 0.3144451 -0.961864
000040 57 cc 3a 3f ff a0 07 3f 5f 1c 30 3f d4 96 98 3e
       0.7296805 0.52980036 0.6879329 0.29802573
000050 f9 e4 fe bd c5 fb 8a 3f ff b2 dd 3e 46 d8 a5 3f
       -0.12446017 1.0858084 0.43300626 1.2956626
000060 58 2c 20 be e8 6d 45 bf ef fc 1d 3e f8 83 fa be
       -0.15641916 -0.7712083 0.15428518 -0.4892881
000070 39 ca d7 3e e5 58 90 bd 1a 87 d9 be 33 a9 dd 3e
       0.4214647 -0.07048205 -0.42485887 0.4329315
000080 f6 fd 00 3e 0c 51 a7 be 0d 74 a6 be 8d 84 ad bd
       0.12596878 -0.3267902 -0.32510415 -0.08472548
000090 e2 e3 14 bf af 27 9d 3e 87 a1 e7 be 2e a7 a7 3e
       -0.5816022 0.3069434 -0.45240423 0.32744735
0000a0 77 72 5a bf 38 2c 29 bf 01 29 59 3f bc 5e f6 3e
       -0.8533091 -0.660831 0.8482819 0.48119152
0000b0 cf f4 4c 3f 4c 48 fe 3d 94 51 35 3e 8b 93 88 be
       0.8006105 0.12416133 0.17706901 -0.26675066
0000c0 2a b5 b5 bd af 9f be 3f 74 9d 3d 3f 1b b0 15 3f
       -0.08872445 1.4892482 0.7406838 0.5847184
0000d0 fb 94 80 3f a2 63 27 3e 03 eb ab 39 d4 1a 96 3f
       1.0045465 0.163466 0.0003279076 1.1726937
0000e0 01 97 40 3f 82 02 64 3f fc 67 47 3f 45 cf f7 3f
       0.75230414 0.89066327 0.7789304 1.9360129
0000f0 06 60 21 3f 65 89 2b 3f 39 ee 81 3f e1 5c 24 3e
       0.63037145 0.6700652 1.0150825 0.16051055
000100 6f 82 3e bf ec 5a ee bf b4 30 72 bf 26 27 23 bf
       -0.74417776 -1.8621497 -0.94605565 -0.6373161
000110 6b 20 8c bf e4 54 ce bd 1e da 9b be b9 68 63 be
       -1.0947393 -0.10074785 -0.30439848 -0.22207917
000120 69 2b ff bf 77 73 cb bf c5 0e 53 bf a4 4a 34 3f
       -1.9935123 -1.5894612 -0.8244441 0.7042639
000130 10 39 3c bf 49 3c 25 bf 08 f5 d1 bd 64 42 a1 bf
       -0.7352457 -0.6454511 -0.10251814 -1.2598386
000140 9a b6 a3 bf f6 a6 f7 3e 57 1e ad bd 5c 19 49 3f
       -1.27901 0.4836957 -0.084530525 0.7855432
000150 f3 d8 8f be dd 34 a2 bf 33 10 1c c0 50 40 d1 bf
       -0.28095207 -1.2672383 -2.4384887 -1.6347752
000160 d0 70 87 bf 0f b3 91 bf e7 53 6b 3e f6 db ac bd
       -1.0581303 -1.1382769 0.22981225 -0.08440392
000170 2e 70 9f be 0e 03 3b be 79 ed 14 3e 29 72 5f 3e
       -0.31140274 -0.18262884 0.14543714 0.21820892
000180 44 e6 55 bd 48 3b 84 be 2f 35 92 3d 52 8c 1e bd
       -0.05222155 -0.25826478 0.0713905 -0.03870804
000190 dd 2c 31 bc d8 9b a0 3e 7d e8 c1 3e bf 7e b2 be
       -0.010813919 0.313689 0.37872687 -0.34862325
0001a0 17 73 0c bd e9 3a 82 bc d7 5a 17 bc 5c e7 96 be
       -0.034289446 -0.015897231 -0.0092379665 -0.29473388
0001b0 fe 33 5a be 67 c6 50 bd e9 9c 2d 3f a7 1f 12 3e
       -0.21308896 -0.05097046 0.6781755 0.14269887
0001c0 08 fd eb be 4d 0d 92 bf 7c ce 02 bf b5 0e ad 3e
       -0.46091485 -1.1410309 -0.5109632 0.33800283
0001d0 d6 4f 22 3e ce ff a0 be d9 b8 e3 be 8a 2d 3d be
       0.15850767 -0.31445163 -0.44476965 -0.18474403
0001e0 41 4f be bf 6a 3d 5d be 5f f9 dd 3e 23 3a a3 be
       -1.4867936 -0.21605459 0.43354318 -0.31880292
0001f0 ed 60 22 bf cd ac 94 3e 73 c0 7d be cd 31 b4 be
       -0.63429147 0.29038087 -0.24780445 -0.35194245
000200 46 4e 80 bf 84 ee 31 3f 3e 2a c2 be f0 42 55 be
       -1.0023887 0.6950457 -0.37922853 -0.20826316
000210 8c d1 67 3f 21 5e 5c 3d 73 c1 59 be 74 18 ca 3e
       0.9055412 0.053800706 -0.21265201 0.3947178
000220 c7 f4 47 3e 1b 5a 58 bf af 5a 7a bd 78 21 e1 be
       0.19526969 -0.8451249 -0.06112164 -0.43970847
000230 8f 33 4b 3e d1 fd 4a 3f fa 6a 12 3f da af 97 3f
       0.19843887 0.79293543 0.57194483 1.1850541
000240 75 d5 4b bf c3 ef 89 3c d9 76 a9 3e 93 9e a4 3d
       -0.79622585 0.01683796 0.33098486 0.08038058
000250 0f d6 89 3d 64 67 44 3e c0 39 98 3e 4b c0 7d 3f
       0.067302816 0.19180065 0.2973156 0.9912154
000260 3e e2 0b 3e bb c3 de bd d6 30 4c bd 65 e7 25 bf
       0.13660523 -0.108771764 -0.04985126 -0.64806205
000270 4b 41 dc 3b e3 f6 b0 3e b4 60 88 be e1 7d 1e 3e
       0.0067216507 0.3456336 -0.2663628 0.15477706
000280 8a cd c2 3b 0b fd 80 3d 1f 63 54 bf e3 56 21 bf
       0.0059449123 0.06298264 -0.82963747 -0.63023204
000290 53 66 b7 be e6 12 a6 be da e7 fa be 81 c3 52 bf
       -0.35820255 -0.32436293 -0.49005014 -0.82329565
0002a0 6f fb 04 be 03 d7 31 bf 4d f6 8b 3e bf bf 87 be
       -0.1298654 -0.69468707 0.2733635 -0.26513478
0002b0 90 92 32 3e 07 fc 80 be 47 fe 13 bc b0 a5 98 3e
       0.17438722 -0.25192282 -0.009032792 0.2981391
0002c0 83 68 d5 3d 50 e7 c5 be 01 01 2c 3f 02 fc ab 3f
       0.10420325 -0.3865304 0.6718903 1.3436282
0002d0 40 67 92 3f 69 91 4d 3f 91 f6 f8 be df cb 94 bf
       1.1437759 0.80300003 -0.48625615 -1.1624717
0002e0 ae d1 75 be 5e 03 a1 3e c4 a8 f1 3e a6 4d 3d bf
       -0.24005768 0.3144788 0.4719907 -0.7394661
0002f0 1a 18 15 bf 8c 5c 3d 3d 91 50 2b 3f de 45 5a 3e
       -0.582399 0.046230838 0.6691981 0.21315715
000300 c6 55 aa 3e a3 02 88 3e 7f a3 c6 3e 9d 8e 63 3f
       0.33268565 0.26564512 0.38796613 0.88889486
000310 d5 84 77 3f 35 9b ea be 40 a8 ad bf b9 c7 fb be
       0.9668706 -0.4582154 -1.3566971 -0.49175814
000320 13 ea 4a bf a9 a9 2a be 46 2f 0f 3f 85 ce b3 3e
       -0.7926342 -0.16666283 0.5593151 0.351185
000330 9a bb 43 bf 82 2f 85 be 68 01 c9 be b0 92 f1 be
       -0.7645813 -0.26012808 -0.39258885 -0.47182226
000340 18 f3 3c 3d 9e 83 19 bf df 13 a3 be c2 39 51 bc
       0.04613027 -0.59966457 -0.31851098 -0.012770118
000350 f9 da 6e 3e 80 be 56 3e 4f 78 88 3e 29 d1 28 3f
       0.23325719 0.20971107 0.26654288 0.65944153
000360 df d0 5f 3e 61 be 07 bf be d4 16 bf e2 da 87 3f
       0.21857022 -0.5302487 -0.5891837 1.0613673
000370 34 eb 3a bf 4b b8 66 bf a2 96 03 3f 3f 64 ed 3e
       -0.7301514 -0.9012496 0.5140172 0.46365544
000380 36 2d 84 bf 72 37 89 bf 74 de 51 bf f7 a3 63 bf
       -1.0326297 -1.0720046 -0.8198006 -0.88922065
000390 9d 76 3a 3f c6 f1 f1 3e cb 0a f1 3e 65 68 63 bf
       0.7283724 0.4725477 0.47078547 -0.8883117
0003a0 d1 0e 89 bf 5c a0 97 bf 3e b6 e8 bf ef 0d 64 3e
       -1.0707647 -1.1845813 -1.8180616 0.2227094
0003b0 ae 28 1d 3e b6 5a 1d 3e 22 7b 4a 3e 58 e7 c7 be
       0.1534755 0.15366635 0.19773534 -0.3904369
0003c0 4f e6 18 3f c6 ed 16 bf f5 9c 45 3f 6a 10 a4 3e
       0.59726423 -0.58956563 0.7719262 0.32043773
0003d0 19 ff 79 3f 5c 06 d5 3d b8 3a 5c bd 3e 44 42 3d
       0.97654873 0.104016036 -0.053766936 0.047428362
0003e0 f3 b6 19 3f ee b8 29 3e bd 1d 05 3f d0 11 22 3d
       0.60044783 0.16574451 0.519985 0.03956777
0003f0 49 ad a6 3d 3f a9 12 3e 89 3f 9c 3f 8f 1b b0 3f
       0.0813852 0.14322375 1.2206889 1.375841

representation_encoder.7.bias f4 [16]
000000 db 2d f0 3d b1 df c9 be 52 1b 24 3f 43 63 31 3f
       0.11727496 -0.39428475 0.6410419 0.69292086
000010 e3 db 55 3e ef 8f a8 3f 3e 4a 46 3f 58 37 4c 3f
       0.20884661 1.3168925 0.77457035 0.7977195
000020 78 80 5c 3e e5 be 8e 3f 9a b9 7a 3f 4f 22 02 3f
       0.21533382 1.1152006 0.97939456 0.508336
000030 c3 ef e3 3d c3 52 6b 3f 72 4a ae be dd 1c 64 3d
       0.11129715 0.9192316 -0.34041172 0.05569159
