results/wgan-gp/mnist_disc_state_dict.pth (torch, 58792 bytes, 7 tensors)

main.0.weight f4 [8, 1, 3, 3]
000000 59 52 cd bb 3c 13 a8 bd 99 58 a9 bd 2d 56 a2 3d
       -0.00626592 -0.08206794 -0.08268852 0.07926593
000010 07 b6 39 3d cc 34 92 bd 5d 6f 30 3d fe 2c e8 3d
       0.04533961 -0.071389765 0.043074954 0.113367066
000020 3e 00 b9 3c 9a 61 04 3e 6c c1 9c 3e a5 25 4c 3e
       0.022583123 0.12927857 0.3061632 0.19936235
000030 5a ed 90 3e d3 42 db 3e b0 ac ac 3e 2d fe 80 3e
       0.28306085 0.4282442 0.337255 0.2519392
000040 8f 04 98 3e b5 f8 1f 3e 80 b0 93 3d f3 f1 b2 3e
       0.29690978 0.15622218 0.07211399 0.34950218
000050 21 4e 8d 3e 9c 35 9e 3d 6b 6e 0d 3f b9 aa c7 3e
       0.2759867 0.07725069 0.5524661 0.3899744
000060 89 78 70 3b 04 0d 2a 3e d3 05 b7 3d 48 b8 92 3b
       0.0036692938 0.16606528 0.08936658 0.0044775344
000070 79 e6 e3 3d 35 ba 8a 3d a4 20 1b bd a2 91 97 3d
       0.111279435 0.067737974 -0.037872925 0.07400824
000080 38 7e ba 3d 28 6d 81 bd d7 81 0a 3d 5f a4 a4 3d
       0.091061056 -0.06319648 0.03381523 0.08039164
000090 a8 47 b9 be 70 2e c9 be e9 b9 22 be 7b a7 b7 be
       -0.36187482 -0.39293242 -0.15891232 -0.35869965
0000a0 c6 a0 ba be f1 8d a6 bd 30 d1 33 be fb a4 0d be
       -0.36450785 -0.08132542 -0.17560267 -0.13832466
0000b0 49 d7 2e 3c 9b a7 5c bd 8d f0 9e bd cb 23 67 bd
       0.010671445 -0.05387078 -0.07760725 -0.05643062
0000c0 94 cc 91 bd 95 dc 07 bd 10 a8 40 3d 17 e1 5a 3d
       -0.07119098 -0.033169348 0.047035277 0.05343732
0000d0 84 07 bc 3d 64 53 af 3d 52 0f 2d 3d 39 ba f1 3c
       0.09181121 0.085608274 0.04225094 0.029507743
0000e0 3f 2f 3d bd 90 65 7c 3b 44 f6 18 bd db df 40 bd
       -0.046187636 0.0038512684 -0.037344232 -0.047088485
0000f0 d1 4a 85 bc 07 69 70 bd 92 9e 2c bc 9b f7 58 3c
       -0.016271027 -0.058693912 -0.010535853 0.0132426275
000100 70 14 ae 3d 7e cc a9 bd 0a 44 8f 3d 1f 3d 26 bb
       0.08499992 -0.08290957 0.06995399 -0.002536602
000110 66 33 0a be 19 00 3b 3e be 8a 89 bd 7f 33 b1 bd
       -0.1349617 0.18261756 -0.06715916 -0.086524

main.0.bias f4 [8]
000000 75 ea 5f bb 37 e7 46 3c 63 dc f2 bf 71 29 14 3e
       -0.0034166847 0.012140087 -1.8973507 0.14468934
000010 b1 6a 2f bf 16 f6 bc 3c 30 73 23 3f e6 e4 e7 be
       -0.68522173 0.023066562 0.6384764 -0.45291823

main.3.weight f4 [16, 8, 3, 3]
000000 c6 41 43 bf b4 e0 78 3e 61 28 1c 3e f9 11 1c bf
       -0.7627224 0.24304467 0.15249778 -0.60964924
000010 1c 4b 83 3f 91 cc 2b 3f 35 a2 30 3e 13 20 d6 3e
       1.0257297 0.6710902 0.17249377 0.41821346
000020 3d bd 86 3e 68 e0 43 be 72 53 1b bc 2c 6a 0f bf
       0.26316252 -0.19128573 -0.009480344 -0.5602138
000030 0c 67 ef 3c 62 cb 5c 3e af 7f a6 bd 43 29 c7 3e
       0.029223941 0.2156196 -0.081298225 0.38898668
000040 14 ca 60 3d e3 4f b2 be 97 77 c8 bf 4a fa a2 bf
       0.054880217 -0.34826574 -1.5661496 -1.2732632
000050 a3 e4 8e bf 59 3d f1 3d e5 59 98 bc 62 42 ca bf
       -1.1163524 0.11779279 -0.018597553 -1.5801508
000060 b4 ff 2f bf 07 3e cb be aa 91 6e bf dc 45 99 be
       -0.68749547 -0.3969576 -0.93191016 -0.2993611
000070 65 a9 36 bf 6d 5b 82 bf 60 6d 23 bf f8 8a d5 be
       -0.71352226 -1.0184151 -0.6383877 -0.41707587
000080 23 09 c1 be 17 78 33 3e 59 10 df be 23 91 45 bf
       -0.37702283 0.1752628 -0.4356716 -0.77174586
000090 0d 56 bb bf 0c a9 10 c0 81 58 81 bf 89 cc 97 be
       -1.4635636 -2.2603178 -1.0105134 -0.29648235
0000a0 3f 7e 8a 3f 96 95 c0 bf 7a 77 26 3f e5 02 4b be
       1.0819777 -1.504565 0.65026057 -0.19825323
0000b0 20 95 a3 bf 7a 77 f4 3e 57 ab 05 3f 9e 4b 11 3e
       -1.2779884 0.47747403 0.5221457 0.14189002
0000c0 3e ed a3 3f 73 e1 3a 3f 26 7f a3 3d c7 8f 1e bf
       1.2806776 0.7300026 0.07983236 -0.61938137
0000d0 dc 4e 58 3e c3 ad 99 bf 07 ba 6f 3e 56 a0 be 3e
       0.21123832 -1.2006153 0.23410808 0.37231702
0000e0 86 31 b8 be 0d 76 0b bf b6 10 ae bf 79 fe cc 3e
       -0.35975283 -0.54477006 -1.359885 0.40037897
0000f0 cb ee b3 bf fc fa 68 3d c4 ca e9 bc e4 20 b7 be
       -1.4057249 0.056879982 -0.028539069 -0.3576728
000100 94 64 08 bf 09 e1 b1 3e 4d 73 08 bf 1d bb a5 bc
       -0.5327847 0.34742 -0.53300935 -0.020230824
000110 df 00 a4 3f 2d 91 6d 3d cb 02 84 3e 5c 86 f0 3f
       1.2812766 0.05799978 0.2578338 1.8791003
000120 71 2b e9 be af f4 fb bd 53 d4 16 3d bf 6a 26 bf
       -0.45540956 -0.12302529 0.036823582 -0.6500663
000130 ee e8 61 bf 56 39 c7 3e 93 ce 11 be d1 34 ea be
       -0.8824605 0.3891093 -0.14238958 -0.4574342
000140 07 18 92 be 06 62 01 bd 8d 03 2e bc c3 a9 d0 3c
       -0.28533956 -0.031587623 -0.010620964 0.025471574
000150 a3 26 13 3e 5e 8e 31 3e f8 60 be 3d e5 63 5c 3e
       0.14370207 0.17339465 0.09295839 0.21522482
000160 38 ed df 3e 23 1b 0d 3e 01 09 83 bf 5f d5 9f bf
       0.4373567 0.13779883 -1.0237123 -1.2486991
000170 d0 87 e5 be c7 ea ad bf fa 76 05 c0 3e d9 b9 bf
       -0.4483018 -1.3587273 -2.0853868 -1.4519422
000180 ec c7 95 bf 3e fc fd bf 0f e5 09 c0 e8 59 42 be
       -1.1701636 -1.9842603 -2.1546056 -0.18979609
000190 c7 a8 cf be 5a 8f 3e be a5 d1 dd be cf 28 49 bf
       -0.40558454 -0.18609372 -0.4332401 -0.78577894
0001a0 1e 6e d3 3c 73 26 85 be 1b b4 1c bf b5 eb d6 3e
       0.025809344 -0.26005897 -0.6121232 0.41976705
0001b0 c5 4d a6 3e 41 5a 3f be 65 3a a9 3d e8 e1 e1 3c
       0.32481208 -0.18686773 0.08263091 0.02757354
0001c0 46 d4 ad bd 07 48 93 3e 58 f0 7c 3e a6 21 0f 3f
       -0.084877536 0.2876589 0.24701059 0.5591072
0001d0 fb e2 16 bd 67 94 8d be 05 d3 1b bf 6b 16 13 bf
       -0.03683756 -0.27652285 -0.60868865 -0.5745608
0001e0 ec 81 4a bf 69 5b e7 bf bb 6b 88 bf 4a 89 73 bf
       -0.79104495 -1.8074771 -1.0657877 -0.9513136
0001f0 73 78 90 bf 8a 17 4d bf e0 43 44 bf 4c 79 a7 3e
       -1.1286758 -0.8011404 -0.7666607 0.3270973
000200 7a 03 43 bf 50 1b d5 be ec 87 43 bf f7 26 2e bf
       -0.7617718 -0.416224 -0.76379275 -0.68028206
000210 af f3 1a bf d2 41 4e be ba f9 0c bf b2 d7 a5 3d
       -0.6052808 -0.20142296 -0.5506855 0.08097781
000220 93 d8 7a 3e a1 59 1f bf 39 10 1c be 7c 94 cb bf
       0.24496679 -0.6224614 -0.15240563 -1.5904689
000230 16 db fe bd de da 82 3e 3a a6 2f bd fb d9 d4 bd
       -0.12444131 0.25557607 -0.042883135 -0.10393139
000240 5e c3 aa 3e 09 73 d7 be 8c e0 1b be 98 4e b3 3e
       0.33352178 -0.42079952 -0.15222377 0.350209
000250 cb 11 20 3e d5 b7 5d be 7a 33 3e 3e 34 28 d2 3e
       0.15631787 -0.21652158 0.18574324 0.41046298
000260 8c 80 e0 3d 72 3e 89 3e 8f 71 a2 3e 3b 6b e1 3e
       0.10962018 0.26805454 0.31727263 0.44027123
000270 2b 4f bd bb 31 ae 20 3f 9a ef e9 bd b0 d7 bf be
       -0.00577726 0.62765795 -0.114226535 -0.37469244
000280 c5 d9 14 3f 77 9f d4 bd a5 5f 03 be 04 e8 86 be
       0.5814479 -0.10381978 -0.12829454 -0.2634889
000290 f6 f9 e6 bd 29 9c 79 be 89 2b 30 bf 39 66 ab be
       -0.11278145 -0.24375977 -0.6881643 -0.33476427
0002a0 f6 1c 9d be d5 2b 58 bf 8b f1 a9 be f0 1a 2f be
       -0.30686158 -0.8444188 -0.33192095 -0.1710012
0002b0 16 90 83 bd 4b 01 96 3c ca 26 16 3f b6 9b 51 bd
       -0.064239666 0.018311163 0.5865294 -0.05117389
0002c0 f7 6c 5d be f8 f4 39 3e 2e 8b 13 bf 02 b7 8c 3f
       -0.21623598 0.18159854 -0.57634246 1.099335
0002d0 10 e7 b5 bd 28 11 a0 3f ed 5c 72 3f 45 95 b2 3e
       -0.08881962 1.2505236 0.94673043 0.3487951
0002e0 88 4a ac be 71 45 71 bf 94 68 b9 3e 80 6c 40 bf
       -0.33650613 -0.94246584 0.362126 -0.7516556
0002f0 09 97 98 3f 7f 1f 55 bc 76 29 a6 bd be 1e 88 bf
       1.1921092 -0.013007998 -0.08113377 -1.0634382
000300 b5 98 06 3e 2a f5 9f bf ac f4 43 3e 53 20 7c 3d
       0.1314419 -1.2496693 0.19136304 0.061554264
000310 bf 7a de be be c6 8e 3f 52 45 96 bc 44 37 c8 3d
       -0.43453023 1.1154401 -0.018343601 0.09776166
000320 9f ff 54 3d 1a 16 1b bf 65 b5 8e be 3b dd 84 be
       0.05200159 -0.605806 -0.27872768 -0.25950035
000330 c1 16 2a 3e 69 6f 8b be 49 0b a7 be 48 06 25 c0
       0.16610242 -0.27233437 -0.32625797 -2.5785084
000340 a0 74 2c bf 38 16 5e bf c0 7f 0d 3d 25 7b df 3d
       -0.67365456 -0.86752653 0.03454566 0.1091216
000350 6e b5 eb 3e e3 cc 49 3e 6f 7b ba be f5 74 87 3e
       0.46036857 0.19707064 -0.36422297 0.2645642
000360 14 7f bd 3d 4e 95 5c bd e9 61 82 3e ec 3d c5 be
       0.09252754 -0.053853326 0.25465325 -0.38523805
000370 70 15 b0 be 13 2d 03 bf fa 7c 99 3e 2a ba fa bd
       -0.34391356 -0.5124065 0.29978162 -0.12242539
000380 f2 45 20 bf 74 44 23 3e 3b b5 36 3e 30 2b c7 3e
       -0.6260673 0.15944082 0.17842571 0.38900137
000390 bd 75 90 3e 50 91 ea bc b3 bb 0f 3e 59 b9 53 3e
       0.28214827 -0.028633744 0.14036445 0.20676173
0003a0 e3 7f 24 3f dc 02 1c 3f 5d 6e 33 be c1 d7 10 3d
       0.6425764 0.60941863 -0.17522569 0.03536201
0003b0 b6 70 f2 be 7d 75 1f 3d 56 8c 1c 3d 06 93 0f bf
       -0.47351617 0.038930405 0.038219772 -0.56083715
0003c0 54 8c de bd 4f 97 30 bf 1f 78 80 bf e1 68 a4 3a
       -0.10866609 -0.6898088 -1.0036658 0.0012543463
0003d0 a5 5f 82 3f 24 f2 61 3d d6 20 fd 3e 26 0f b0 3e
       1.0185438 0.055162564 0.49439114 0.34386557
0003e0 4e 45 35 3f 15 0d 3e 3c 5e 83 5e 3f db c8 1d 3f
       0.70808876 0.011599799 0.869192 0.61634606
0003f0 95 ad 67 be b9 74 02 3e 2a 9a a5 3e b9 d7 8d bd
       -0.2262481 0.12739839 0.3234418 -0.069259115

main.3.bias f4 [16]
000000 cb 27 25 c0 ce b3 2d c0 c5 c3 98 40 b6 4a 8d bf
       -2.5805538 -2.7140994 4.7738976 -1.1038425
000010 90 21 32 bf 7b 2e 5a c0 d6 39 43 c0 bb 93 77 c0
       -0.6958246 -3.409087 -3.050405 -3.8683918
000020 29 32 30 c0 f5 1b 07 c0 cc 1e 2c c0 3a 6d 82 c0
       -2.7530615 -2.1110814 -2.6893797 -4.0758333
000030 fe 46 19 c0 e2 5e 03 c0 54 7d 24 40 bb 53 e0 3e
       -2.394958 -2.0526662 2.5701494 0.4381388

main.7.weight f4 [16, 784]
000000 4d 2a 49 bc 0c e6 8f bd 8e e3 ff bc 6f ef 09 bd
       -0.012278152 -0.070263 -0.031236436 -0.033675607
000010 33 90 7b bc 91 89 0c bd 4d 5f 03 3d 8e d2 72 bd
       -0.015354204 -0.03431088 0.032073308 -0.05928283
000020 15 03 36 bd 68 ab 64 bd b8 e9 c7 bc f1 31 92 bc
       -0.044436533 -0.05582753 -0.024403438 -0.01784608
000030 83 9c 86 3b da c8 3b 3c c7 d4 dd 3b 11 67 09 3c
       0.004108013 0.011461461 0.00676975 0.008386389
000040 ff d1 ca bb a3 c4 82 bd eb 4a f1 bc 52 87 99 bc
       -0.0061895843 -0.06385162 -0.029454669 -0.018741284
000050 61 83 b5 bc 09 5c 78 3c 8e 87 c3 3c 47 51 15 3d
       -0.022157373 0.015158662 0.023868348 0.036454465
000060 08 46 a3 bc 2d cc 39 3c b7 15 c1 bc 59 d3 03 bd
       -0.019930854 0.011340183 -0.023569925 -0.03218398
000070 09 d5 00 bd 62 6d 88 3c 28 bb 7e 3c 28 32 5e 3d
       -0.031453166 0.01665372 0.015547551 0.05424705
000080 fd b0 5f bb af 36 16 3d b2 68 ad 3b 01 87 91 3c
       -0.0034132593 0.036673244 0.0052920217 0.01776457
000090 af 3e 12 bb 8f 69 1a bc 68 83 92 ba b9 33 31 3d
       -0.0022315194 -0.009424581 -0.0011178078 0.043262217
0000a0 cb 42 12 3d c4 a7 00 bb 4c 41 4c bd e1 03 3a 3c
       0.03570823 -0.0019631246 -0.04986696 0.011353464
0000b0 18 9b 81 bc f9 5a 41 3d bb cf 55 bc 2b 1e 8f bc
       -0.015821025 0.0472059 -0.013050015 -0.01747044
0000c0 84 a8 60 bb 51 6b f1 bc 4e 34 98 bc 93 cb 99 3c
       -0.003428013 -0.029470118 -0.018579628 0.01877383
0000d0 05 5e 14 bc f0 c1 9b bb 9a 6f 24 3c dc 7f 5f 3c
       -0.009055619 -0.0047533438 0.0100363735 0.013641324
0000e0 40 b8 95 3c 41 ad d6 3c 11 fe d4 3b 49 99 65 bd
       0.018276334 0.02620566 0.0065000136 -0.056054387
0000f0 29 f4 36 bd 86 99 73 bd a0 fc 25 bd c0 cd 14 3c
       -0.044666443 -0.059472583 -0.040524125 0.009082258
000100 55 db 62 bc af b6 a4 ba 96 d2 73 bd 50 45 f8 bc
       -0.013846238 -0.0012566651 -0.059527002 -0.030306488
000110 fe 19 96 bc 65 cf 9e bc 49 a6 90 3c e7 2c 5f 3c
       -0.01832294 -0.019386003 0.017657416 0.013621545
000120 3e 0b 0f bd fc c7 6a 3b 3f 91 b9 3b 9e ee 47 bc
       -0.03492283 0.0035824766 0.0056630666 -0.012202887
000130 7b f3 c6 bb 27 6b ad bc b4 39 2b bc b3 11 50 bd
       -0.0060715056 -0.021169258 -0.010450769 -0.05079813
000140 06 27 3a bd df e5 33 3c 1f 4f 95 3c b4 76 ab bc
       -0.045447372 0.0109800985 0.018226204 -0.020930625
000150 48 90 27 3c 1c a1 e9 3a b9 bf c6 bd ea b1 5d bd
       0.01022727 0.0017824504 -0.09704537 -0.05412475
000160 c6 0b 29 bd 15 8d 0f bd c2 15 26 bc bf c6 36 bd
       -0.041270994 -0.035046656 -0.010137023 -0.044623133
000170 2e 9b a2 bc fc 47 86 bd ff dd 84 bc 3a e2 52 3c
       -0.019849386 -0.06556699 -0.016219137 0.012871319
000180 59 f1 86 3c 27 a8 f7 bc 16 1c 16 bd 2c e4 8c bc
       0.016472505 -0.030231548 -0.03664788 -0.017198645
000190 4d 14 a5 bd ef 98 60 bd 80 b6 65 bd f6 44 98 bd
       -0.08060513 -0.05483335 -0.05608225 -0.07435028
0001a0 90 f8 19 bd 19 27 54 bc 70 a1 87 3c dd 70 98 3a
       -0.037590563 -0.012948775 0.016556472 0.0011630316
0001b0 ae 4e 94 bc c1 51 66 bc 99 c9 22 bc 44 c7 13 3d
       -0.018103924 -0.014057578 -0.00993576 0.036078706
0001c0 78 59 07 3d b5 52 06 3d 95 9b 2d bd 60 84 3b bc
       0.03304431 0.03279372 -0.042384703 -0.011445135
0001d0 49 2f 8d bc b4 7b a4 3b 2a d2 5d bc 2f 11 29 bd
       -0.017234461 0.0050196294 -0.013538877 -0.041276153
0001e0 55 03 60 bd ed ee 45 3c 43 ec 4d bd 78 4c 82 bd
       -0.054690678 0.01208089 -0.050274145 -0.063622415
0001f0 67 2a eb 3c 94 bf 21 bb c4 53 cd 3c 72 49 a0 bb
       0.028706742 -0.002468084 0.025064357 -0.004891568
000200 1d 33 dd bc 7f a8 2f bd 75 6a 26 bd 50 fa bd bc
       -0.027001912 -0.0428853 -0.04062887 -0.023190647
000210 f2 67 3b bc 8b 8d 83 3d 49 fc bc 3b af 5e 9e bc
       -0.011438357 0.064234816 0.0057673794 -0.019332258
000220 d4 9f b1 bc f5 32 65 bd b1 91 6e 3b 80 36 dd 3c
       -0.021682657 -0.0559568 0.0036402757 0.027003527
000230 5e 18 c0 3c 05 69 89 3c 4f 64 00 bd de 33 de bc
       0.02344912 0.01677371 -0.03134566 -0.027124342
000240 4b f0 18 bd 76 b8 3f bd f8 ae 33 bd b5 58 3f bc
       -0.037338536 -0.046806775 -0.043868035 -0.011678864
000250 d5 a9 fd bc 00 30 56 bd 43 49 1e bd 40 36 b8 bd
       -0.030964771 -0.05229187 -0.038644087 -0.08994722
000260 93 99 95 bd ea ad c3 bc 86 56 0a 3d 5c 4b 57 bc
       -0.073046826 -0.02388664 0.03377392 -0.013140526
000270 d4 92 9a bd 87 c2 0d bd 02 70 10 bc dd e2 59 bd
       -0.075475365 -0.034609344 -0.008815767 -0.05319487
000280 51 ef 7e bc 26 5d b7 bc 87 49 79 3c aa 89 0a 3d
       -0.015559987 -0.022383284 0.015215284 0.033822693
000290 d9 cc eb 3c 6c ca a0 bc 7c 99 7a bd 42 4a 74 bd
       0.028784202 -0.019627772 -0.06118153 -0.05964113
0002a0 eb 55 a0 bc 60 5f 5b 3c e8 09 33 ba 6b 16 56 3c
       -0.019572219 0.013389438 -0.0006829784 0.013066868
0002b0 12 e4 42 3d 3e 37 5d 3a ef 83 49 bd 46 06 14 bd
       0.047580786 0.00084387127 -0.049198087 -0.036138795
0002c0 36 e5 78 bd 44 f5 22 bd 4e 3d 6d 3d ec de c4 3c
       -0.060765468 -0.039784685 0.057919793 0.024032079
0002d0 68 5e 53 3c b4 dc 0b 3d e2 5b 97 bc 30 9d f0 bc
       0.012900926 0.034146026 -0.01847643 -0.029371828
0002e0 65 da e4 bb f2 f8 9c bb 40 d8 e7 3c 41 74 5b 3d
       -0.0069840425 -0.004790419 0.028301358 0.053577665
0002f0 e9 99 f4 3c ae 59 b2 bc 49 35 06 bd ce 81 a0 bd
       0.029858546 -0.021771278 -0.03276566 -0.07837258
000300 c8 5e 51 3d 1a 48 c3 3c db be 5a 3d db 20 91 bb
       0.05111578 0.023838092 0.05340467 -0.0044289655
000310 91 f5 f7 bd 42 dd a8 bd d4 d7 93 bd c7 8d 4d bd
       -0.12107385 -0.082453266 -0.072189 -0.050184038
000320 8f 34 dd bd ae 7d ee bd 12 02 ff bc 5b 42 dd bd
       -0.108010404 -0.11645065 -0.031128917 -0.10803672
000330 e4 f1 2f bd 1f 3e 9b bd e3 8b 8a bd 29 33 9d bd
       -0.042955294 -0.07580208 -0.067649625 -0.07675774
000340 2f a3 ab bd 77 9d 9a bd 5a 4b df bd 24 40 92 bd
       -0.08380734 -0.07549565 -0.10903044 -0.0714114
000350 64 a3 09 bd 10 ac bd bd b3 8d 47 bd a7 52 ea bd
       -0.033603087 -0.09261334 -0.04871912 -0.11441546
000360 fc 01 19 be 91 0d b7 bd a7 ca 93 bd ec 0c fe 3b
       -0.14942163 -0.089381345 -0.07216387 0.0077530053
000370 10 62 01 bd 90 c3 cd bb 24 62 97 bd 99 c8 38 bd
       -0.03158766 -0.0062794164 -0.07391766 -0.04511318
000380 6d aa e1 bd 44 b0 47 bd eb b5 a7 3c a3 1a 8d bc
       -0.11018834 -0.048752084 0.020472487 -0.017224615
000390 31 13 93 bc 45 3c 5c bd 7b 76 87 bd 0e ae 7d bd
       -0.017953487 -0.053768415 -0.06614395 -0.06193357
0003a0 c3 3a da bc c1 54 80 bd 5c e0 14 3b 7c 55 41 ba
       -0.026639348 -0.062661655 0.0022716736 -0.0007375104
0003b0 11 f5 17 3c ce e6 d1 bc eb f7 d6 bd c2 79 2d bd
       0.009274737 -0.025622752 -0.10496505 -0.042352445
0003c0 94 41 84 bd d2 bb a0 bd f0 71 56 bd 11 71 77 bd
       -0.064578205 -0.07848324 -0.052354753 -0.060410563
0003d0 60 aa 3f bd 57 de 40 bd 6d d9 97 bd eb 00 db bd
       -0.04679334 -0.04708704 -0.074145176 -0.106935345
0003e0 90 ab 3c bd a4 b4 5d bc e0 c0 f9 bc d7 82 cf bd
       -0.046062052 -0.013531838 -0.030487478 -0.101323776
0003f0 7c 54 07 bd e0 32 b0 bb 4f aa 39 bd 76 0a 90 3c
       -0.033039555 -0.0053771585 -0.045328435 0.017583113

main.7.bias f4 [16]
000000 f1 4a 09 3d 5f 9e 46 3d fa 4a 39 bc 11 a3 de 3c
       0.033518735 0.04849088 -0.01130938 0.027177365
000010 86 9b 69 40 b8 f1 0e 3c 32 67 ac 40 eb cc 04 3e
       3.6501174 0.008724622 5.387597 0.12968795
000020 47 5d 70 40 f8 ca f4 3c 66 a5 a6 3c ab d9 1f 40
       3.7556932 0.02988194 0.02034254 2.4976604
000030 c4 ce 0f 3e 4a 56 04 bd 12 82 3a 3d d7 19 8f 3d
       0.14043719 -0.032308854 0.0455342 0.069873504

main.9.weight f4 [1, 16]
000000 9e e5 19 be 17 8a 12 bd 39 33 17 3e 5d a3 26 be
       -0.15028998 -0.035776224 0.14765634 -0.16273256
000010 32 68 a8 3c ca 2c 89 3d 84 ad a6 bc 9f bd 98 3d
       0.020557497 0.06697996 -0.02034641 0.07458042
000020 78 00 c4 3d 6a 4c 30 3d b5 39 85 be fa 43 8d bd
       0.09570402 0.043041624 -0.2602059 -0.06897731
000030 7d b1 5d 3d a1 e3 00 be 76 76 70 3d 1c fa e0 3c
       0.054124344 -0.12586834 0.058706723 0.027463011
