results/wgan-gp/mnist_manipulable_ae_state_dict.pth (torch, 8754 bytes, 12 tensors)

manipulable_encoder.0.weight f4 [16, 16]
00000000: 81a6 6b3f 17e3 363f e58a c6be 0b23 7f3e
00000010: bf07 48bf 7d29 963d f6fb 703d eed6 17bd
00000020: 69ac 5dbe a771 12bf 6e81 873e ae44 2e3f
00000030: 8e11 03be d260 25bf a91a d6be 6570 efbe
00000040: 09a6 71be 77a7 92bf 91dc aabe adcc cfbe
00000050: 3b6b 57bf a74a 363e 9222 23be 1bdd afbe
00000060: 6be5 1a3d 2f39 3bbf 2c69 b4be e21e 9abe
00000070: 6a55 c03f 7083 3bbf f548 173f 89e5 8a3d
00000080: 0185 d0be 5e89 93bf aeb4 5ebf 7ccf 31be
00000090: c5c2 7cbe 97fe 83be b9d0 e4bd 9066 443c
000000a0: 0b34 bc3f 119d 96be cb09 103e 06cd 5d3e
000000b0: 0b36 993d 5a3d 01bf 9f69 003f 9ace 823e
000000c0: 3277 703f d074 4b3f 84c5 efbe 9147 5f3f
000000d0: d7bc 273f 3103 713d 825c adbd 788c 253e
000000e0: 2ce1 35bf d5ea 88be b37d 4abf 9e73 a73e
000000f0: ac20 29bf d32e 89be 07ce 153e 7e62 1cbf
00000100: b53a efbe 056b 5cbf 0fe9 a0bf 0157 c7be
00000110: 9158 3dbf 94ed f5bc 9166 9ebe b52c 523e
00000120: 4f16 7c3f 5bb8 89bd 8306 b63f b4df cebe
00000130: 6d33 213f 825b 43bf e691 d13f 24f8 2abf
00000140: d0a6 1ebf 59a9 cd3f de86 33bf 7974 b6bd
00000150: 1cdb a3bd a7f6 19bf 9fa6 143e 699d d7bd
00000160: 317f d63e e286 fcbe f973 673d ca34 b13c
00000170: e182 693e 5bd5 793e 2b06 75bf cb48 763f
00000180: b298 7bbe e79b 36bf d156 1e3e 2a3a 05bf
00000190: 1684 4bbf af10 333e 6cdc 70be aa70 a9be
000001a0: c84f 133f 6ad6 b23f 0da6 8abc a4e3 e3be
000001b0: fcfa 783f c568 31bf 4093 653f 4078 e3bd
000001c0: 7069 a2be 2cb7 05bf 5800 723f 17ce 923c
000001d0: 53de b2be 5f16 8cbe 4feb 75bd c67c dbbd
000001e0: 2993 3ebf ff07 06bf a7d3 143d 706b 6ebe
000001f0: 7503 bb3e 290c 9dbd 4dcc 80bd 4992 873e
00000200: e6e7 403f 2143 7fbe c1b8 40bf 68bb 093f
00000210: 06e8 ddbe fa9f a5be 6e85 a13c 4e46 12bc
00000220: 8bb7 42bf 8381 8fbf 0099 02bf b268 303f
00000230: ebcb dcbe 19c6 55be bf15 9fbe 239f 66be
00000240: 5343 26bf 75dd 6cbf d011 93be fb06 8e3f
00000250: a408 96be 3960 50bf 72ba 8cbe e8d4 363f
00000260: ea50 55be 0757 1ebe 60be eb3e 36be 32be
00000270: 7a64 c1bd ae43 5bbe a511 37be 37f7 0cbf
00000280: 6488 ca3e 49ef 16bf c645 24bf cee9 ff3e
00000290: 4914 81be e6bb 8bbd 93c3 a93d 4702 9d3e
000002a0: d6c1 24bf b06a fabe 8da5 5c3f 76f1 61bd
000002b0: 380e 34bf 1283 16be 2c47 8c3f 2ce3 32be
000002c0: 850f a53e 5ca9 3ebf 3c71 123d 241e 94be
000002d0: 8eed 273f 1369 3c3d 0cf8 d73d 61f7 2dbe
000002e0: 41f1 9dbe 2ca4 45bf b253 33bf 178b 113e
000002f0: 22bf edbc 8880 b43d 8c6f 15be 4c54 213f
00000300: 1370 aa3e 0eb8 c33f 9e50 b73d 166d a0bd
00000310: 9d19 31be 4612 013e 25dc c43e 08c9 46be
00000320: 4008 d9be 234e 3cbf fcf8 10bf cf41 213d
00000330: af9c dcbe 29fe 4b3f a179 4fbe 97c1 04be
00000340: fb48 2a3f 02dc 67bf 1b1d 193f 92e2 b33e
00000350: fe18 303f 516e 8fbd 3ba4 183e 663e 383d
00000360: 62b8 72bf 41fc c8be a70c 4abf e23b cd3e
00000370: 2584 80bf 3388 0c3f 2251 0a3f f78c b63e
00000380: 133e f33d d4db c23f e754 12bf f0c4 b5bd
00000390: 41ef 9bbd 0103 0cbf f76e a33e 9165 2ebe
000003a0: ba65 07bf 057b fdbe 4909 29bf e731 8f3e
000003b0: 61c3 5abd e49e 783e 3710 ffbe 4450 863f
000003c0: ec83 513e edf1 433e 3485 8ebe 7632 813c
000003d0: 21f5 11be d939 e03b e12d 263e 4a64 c6bc
000003e0: 4189 cf3e 0d32 d3be 3807 b73d bfc3 953e
000003f0: 2ff5 8a3d 8435 da3e 0ff4 a2be e831 2fbe
0.9205094 0.7144026 -0.38777843 0.24915712 -0.7813682 0.07332132 0.05883404 -0.037070207
-0.216478 -0.5720467 0.26465935 0.68073547 -0.12799665 -0.6460086 -0.41817215 -0.46765438
-0.23598494 -1.1457356 -0.33371404 -0.40585843 -0.84147996 0.17801915 -0.15931156 -0.34348378
0.037816446 -0.7313413 -0.3523649 -0.30101687 1.5026066 -0.7324743 0.590957 0.067820616
-0.40726474 -1.1526296 -0.86994445 -0.17364305 -0.24683674 -0.25780174 -0.11172623 0.011987343
1.4703382 -0.29416707 0.14066236 0.21660241 0.07481011 -0.5048424 0.50161165 0.2554825
0.9393188 0.79475117 -0.4683038 0.87218577 0.6552252 0.058840934 -0.0846491 0.16166866
-0.7104671 -0.26741663 -0.7909805 0.32705396 -0.6606548 -0.26793537 0.14629374 -0.6108779
-0.46724477 -0.861008 -1.2571124 -0.38933566 -0.73963267 -0.030020513 -0.30937627 0.20524867
0.9847154 -0.06724616 1.4220737 -0.40405047 0.62969095 -0.76311505 1.637265 -0.6678488
-0.61973286 1.6067306 -0.70127666 -0.08908934 -0.08000776 -0.60141987 0.14516686 -0.105280705
0.41893914 -0.49321657 0.056507085 0.021631617 0.22803833 0.24397795 -0.95712537 0.96204823
-0.24569967 -0.7133164 0.15462805 -0.52041876 -0.7949842 0.17486833 -0.23521584 -0.33093768
0.5754361 1.3971684 -0.016924882 -0.44509614 0.9725797 -0.6930049 0.8967781 -0.1110692
-0.31721067 -0.52232623 0.94531775 0.017920537 -0.34935245 -0.27360818 -0.06003886 -0.10717158
-0.744433 -0.5235595 0.03633466 -0.23283172 0.36526075 -0.07668335 -0.06288967 0.26478794
0.7535385 -0.24927951 -0.7528191 0.53801584 -0.43341082 -0.32348615 0.019716945 -0.008927895
-0.76061314 -1.1211399 -0.5101471 0.6890975 -0.43124327 -0.2087635 -0.31071278 -0.22521643
-0.6494648 -0.92525417 -0.28724527 1.109588 -0.29303467 -0.81396824 -0.27485996 0.7141862
-0.20831648 -0.15462886 0.46043682 -0.17455372 -0.094429925 -0.21412537 -0.17877825 -0.5506472
0.39557183 -0.5895887 -0.64168966 0.49983066 -0.2521079 -0.06822948 0.08289256 0.306658
-0.6435827 -0.4890952 0.8619011 -0.055161916 -0.70334196 -0.14698437 1.095922 -0.17469472
0.32238403 -0.7447717 0.03575252 -0.28929245 0.65596855 0.045998644 0.10545358 -0.16988899
-0.30848125 -0.7720363 -0.70049584 0.14213215 -0.029021803 0.08813578 -0.14593333 0.6301925
0.3328863 1.5290544 0.089509234 -0.078333065 -0.17294927 0.12604627 0.38449207 -0.19412625
-0.42389107 -0.7355673 -0.5662992 0.0393694 -0.4308829 0.7968469 -0.20261241 -0.12964474
0.6651761 -0.9057008 0.59810036 0.35133797 0.68788135 -0.07003463 0.14906399 0.044981383
-0.94812596 -0.39254954 -0.78925556 0.4008475 -1.0040327 0.54895324 0.5403005 0.35654423
0.11877074 1.5223336 -0.571608 -0.088754535 -0.076139934 -0.54692084 0.31920597 -0.17030932
-0.528896 -0.4950792 -0.66029793 0.2796776 -0.053408984 0.24279362 -0.49817058 1.0493245
0.2046048 0.19135256 -0.27836 0.015771132 -0.14253666 0.0068428335 0.16228439 -0.024217743
0.40534404 -0.41249123 0.08936924 0.29250905 0.06785046 0.42618954 -0.31826827 -0.17108881

manipulable_encoder.0.bias f4 [16]
00000000: df4d ae3f 2e4e 7bc0 20b1 acc0 7a5c 27bf
00000010: e1f2 1ec0 2e84 9740 e43a 59c0 f5ea 1d40
00000020: 5fa4 5a40 b337 a1bf fcb6 88c0 9f1d 7740
00000030: 8163 1e3f e476 7bc0 4f77 1440 6e52 2fc0
1.3617514 -3.9266467 -5.3966217 -0.65375483 -2.4835742 4.734885 -3.3942194 2.4674656
3.4162824 -1.2595123 -4.272337 3.861183 0.6187058 -3.9291315 2.319782 -2.739406

manipulable_encoder.2.weight f4 [8, 16]
00000000: 74ff 073e dc5f 8ebf 55dd 8ebf 6472 863e
00000010: e3b8 92bf 0efc 2f3f eed9 66bf 4fbd d7be
00000020: ccfc 383f da5d 813f b95c 5cbf 0d2a ba3e
00000030: b706 823e fe54 49bf 2628 863d a96e 3ebe
00000040: fe95 95be 7665 ffbe ea65 fdbd d858 e1bf
00000050: 4363 2f3f a00d bd3b c0c1 31bf 53e0 b2be
00000060: 0c84 95be 5327 43bf f96f 3b3d aa41 77be
00000070: daba bb3e b764 7a3d bd5e 243f cf71 73bf
00000080: 7933 02bf 2730 323f d71f 4c3f 77d8 9ebe
00000090: e2d5 3c3e acd7 65bf 7268 9a3e aef5 813c
000000a0: 02a3 00bf e260 9f3e 69cf 1e3f c016 bdbe
000000b0: df92 49bf 1564 2c3f 1b48 99be 1c01 513e
000000c0: 7af8 fcbc 3fb1 31bf 007b 24bf c145 61bf
000000d0: 2a6f 10bf 3ef5 153f 3783 b1bf ea54 61be
000000e0: df4a a5be 7125 55bf 0464 7ebe 2c4e f9be
000000f0: d3d3 053f e1f0 ecbe 60ea 483f 9e22 43be
00000100: 91db d8bd b30d cf3f 513e a03f dfd8 b9be
00000110: 57bb cebe a6c2 26bf 24d8 77be 2407 973f
00000120: 49d2 27bf a192 d53d 10c9 ac3e 3a7c abbe
00000130: e4e1 003e 3419 003f c6e9 a9bf 2f35 903e
00000140: 861b 61bd e63c 393f 9b93 593f 17b1 25bf
00000150: 49df 7cbe a8bc 28bf ea8b cfbe d472 2bbf
00000160: de92 c1bf c4cc 223e 5ee7 7b3f 2667 03bf
00000170: 04ce 14bf c558 fd3e 6b82 f9bb 9cc1 dd3e
00000180: ee00 743e 772a 2fbf 4540 0cbf f008 8c3e
00000190: 183e 00be 1f44 b43d 571f 3fbf 4c54 7d3e
000001a0: d3d6 dcbe 3464 ee3e 026f 17be 3117 233f
000001b0: f5a4 ac3e b34e fdbe b712 babe 3643 efbd
000001c0: ea4c 763f 7923 fdbd e685 48be 85e6 c53d
000001d0: 31f7 eabf 9b70 083f 1f6d 43bf e519 04bd
000001e0: 3b21 d23e aeaf 103f 7ae1 26bf 7dd7 bbbe
000001f0: 95cb 8ebd 7f0e e8be d673 c53e 8447 823e
0.13281041 -1.1123004 -1.1161295 0.26259148 -1.1462673 0.6874398 -0.90176284 -0.42136618
0.7226074 1.0106766 -0.86078984 0.36360207 0.25395748 -0.7864531 0.065506265 -0.18596901
-0.29215997 -0.49882096 -0.12372954 -1.7605238 0.68510836 0.0057694465 -0.69436264 -0.3493677
-0.29202306 -0.7623188 0.045761082 -0.24146143 0.36665994 0.061131205 0.6420706 -0.95095533
-0.5085979 0.69604725 0.79736084 -0.31024525 0.18440965 -0.89782214 0.3015781 0.01586422
-0.5024873 0.31128603 0.6203523 -0.3693142 -0.7873973 0.67340213 -0.29937825 0.2041058
-0.030880202 -0.6941108 -0.64250183 -0.8799706 -0.5641962 0.58577335 -1.3868169 -0.22005048
-0.32283685 -0.83260256 -0.2484284 -0.48692453 0.52276343 -0.46277526 0.7848263 -0.19056174
-0.10588754 1.6176056 1.2519017 -0.36298272 -0.40377304 -0.6514076 -0.24203545 1.1799054
-0.65555245 0.10428358 0.3374715 -0.33493215 0.1258617 0.50038457 -1.3274467 0.28165576
-0.05495789 0.7235855 0.84990853 -0.6472334 -0.24694552 -0.65912867 -0.40536433 -0.6697209
-1.5122945 0.15898424 0.98399913 -0.5132927 -0.58126855 0.49481788 -0.007614424 0.43311775
0.2382848 -0.6842417 -0.5478557 0.2735057 -0.12523687 0.088020556 -0.74657196 0.24739188
-0.43132648 0.46560824 -0.1478844 0.6370726 0.33719602 -0.49474105 -0.36342403 -0.11682741
0.9621111 -0.123602815 -0.19582328 0.09663109 -1.8356687 0.5329682 -0.7633838 -0.032251257
0.41040978 0.56518066 -0.651878 -0.36687842 -0.06972424 -0.4532356 0.38564938 0.25445187

manipulable_encoder.2.bias f4 [8]
00000000: 0317 05c0 e20a 153f 6fde d3bf 50bf 4fbc
00000010: 9210 19c0 c999 75c0 f572 9140 e269 2d40
-2.0795295 0.5821973 -1.6552256 -0.01267989 -2.3916364 -3.8375113 4.545283 2.7095876

manipulable_encoder.4.weight f4 [2, 8]
00000000: 96ec 9dbe 2cb5 183e 0b2a 073e c696 c2bd
00000010: de4b 0ebf 677d 1bbe aaca b23e b58e e83e
00000020: 721c c4be 357a ddbe 3c20 9e3e f5df 753f
00000030: 4d83 53bd e421 83bf 7942 593e cefe 573d
-0.30844563 0.14912862 0.13199632 -0.09501414 -0.55584514 -0.15184556 0.34920245 0.45421377
-0.38302952 -0.432573 0.30883968 0.96044856 -0.05163889 -1.0244718 0.21216764 0.052733235

manipulable_encoder.4.bias f4 [2]
00000000: 889c 9cbf 5eeb 45bf
-1.223527 -0.77312267

manipulable_decoder.0.weight f4 [8, 2]
00000000: 1c41 c73e b8b7 183f 3435 063f 26c0 3cbe
00000010: f711 3bbf 0db6 ab3e 6e5e 913e b73b 683e
00000020: 38d9 1d3e c04b 51bf ddca 5b3f cc46 37bf
00000030: 52ce a43e b683 4abf 72ac c7be 43c3 ddbe
0.38916862 0.5965533 0.5242493 -0.18432674 -0.7307429 0.3353733 0.28392357 0.2267903
0.15414894 -0.8175621 0.8585642 -0.715924 0.3218866 -0.79107225 -0.38998753 -0.43313035

manipulable_decoder.0.bias f4 [8]
00000000: 53cf bdbf b20b 5dc0 c5a0 893f 45f0 a03e
00000010: e19d c13e 2162 5ebf 7f35 2c3f 8a57 0240
-1.4828895 -3.4538388 1.0752188 0.3143331 0.37815765 -0.8686848 0.6726913 2.036593

manipulable_decoder.2.weight f4 [16, 8]
00000000: 75d1 2ebe 4b73 e8bf 86d2 6a3d 6eaa cabd
00000010: bbe2 9c3f c26f 4b3f 0281 e7bf e6c2 26bf
00000020: d836 e5bf a6f7 2bbf 96a3 213f 89f7 293f
00000030: eeb9 edbf dc76 bfbf 12cf ee3c 10c3 a9bf
00000040: 31a2 ebbe 797d 23bf fe08 babf 4a37 f2bf
00000050: b383 413f 9e87 3b3c d60d b93f 6dc7 57bf
00000060: 0e93 3fbe 09ec 863e e3a6 0ac0 89a3 9d3e
00000070: 2fcf 73bf 17b4 0cbf 0e96 0a3f 6a6d 4b3f
00000080: c34f b4be eef9 1a3f fb53 5a3e 59f7 b5be
00000090: 0bde 71bf 6a9c 283f 9be4 e9bf 518b 1f40
000000a0: 2115 87be 90ce 35bf 74e0 a4bf e34a dabf
000000b0: ac2f 6a3f aace 32c0 ca5e a33c 2b48 c83f
000000c0: 7699 a8bf 2c54 3fc0 d285 08c0 005d 7a3f
000000d0: ef4f 93bf 1605 fd3d 4daf aebf bab3 7b3e
000000e0: 8ae4 333f c1c1 223f 6d58 e5bf 960b cf3e
000000f0: 7cf9 91bf cb69 03bf add8 573f 8e6d 89bd
00000100: 2732 d8bf 56a7 61c0 4584 49be 0590 aabf
00000110: 4d97 85be d3a4 af3f c16a aabe fe7c a43c
00000120: 237c f1bf 1d45 f83d f46f e1bf 9514 243f
00000130: c5eb 0bbf d265 093f 68a8 433f 7a47 09c0
00000140: 16e3 a9bf ae87 afbe 595a 40c0 883c c5bd
00000150: 61fe 82bd f8ea d7bf 3e65 a43d 11a9 a83e
00000160: 0922 3cbf 51b5 063d dff3 02c0 bfc3 023f
00000170: 2786 2d3f 1cdc 59bf 25f5 84bf 8d2b 14c0
00000180: 615e 4fbf 9fc4 8bc0 74a4 1cbf 7553 773d
00000190: 8d77 15c0 e874 e93f 5e88 1bbf feba 07c0
000001a0: 9cf2 1f3d f672 083f b1cc 83be c4db 683e
000001b0: 0e41 47bf 54d1 88bf 5ece 71bf ae43 28c0
000001c0: 3951 43c0 0024 b63d fb49 32bf 38de 3a40
000001d0: bbf6 2a3e 7dda c9bf 4ba0 a0be 8a80 303f
000001e0: 8034 debd 6f66 1c3f 36da 7abf 481c aebf
000001f0: a63c 27be fb69 e93d 2bfe 2cbf f68a 933e
-0.17072089 -1.8160185 0.057329677 -0.09895788 1.2256693 0.79467404 -1.8086245 -0.6514114
-1.7907362 -0.67174757 0.6314024 0.66393334 -1.8572366 -1.4958148 0.029151473 -1.3262653
-0.4602218 -0.6386333 -1.4533994 -1.8923123 0.7559158 0.011445908 1.4457347 -0.84288675
-0.1870844 0.26351956 -2.166436 0.3078883 -0.9523801 -0.54962295 0.54135215 0.7946383
-0.35217103 0.6053761 0.21321099 -0.35540274 -0.94479436 0.6586367 -1.827289 2.4928782
-0.26383308 -0.71018314 -1.2880998 -1.7054104 0.9147899 -2.7938638 0.01994266 1.5647024
-1.3171833 -2.9895124 -2.1331677 0.97798157 -1.1508769 0.12354486 -1.3647248 0.24580279
0.702706 0.63576895 -1.791761 0.40438527 -1.1404262 -0.513333 0.84314996 -0.06710349
-1.6890305 -3.5258384 -0.19679363 -1.3325201 -0.26091996 1.3722175 -0.33284572 0.020079132
-1.8866009 0.12122557 -1.761229 0.64093906 -0.5465663 0.5367099 0.7642884 -2.1449876
-1.3272426 -0.34283203 -3.0055144 -0.09630686 -0.06396175 -1.6868582 0.08027123 0.32941487
-0.73489434 0.03288776 -2.0461347 0.51079935 0.67782825 -0.85101485 -1.0387312 -2.3151581
-0.81003386 -4.3677516 -0.61188436 0.060382325 -2.3354218 1.8238802 -0.60754955 -2.120788
0.03904973 0.53300416 -0.25742105 0.22740084 -0.7783364 -1.0688882 -0.94455516 -2.6291308
-3.0518324 0.08893585 -0.69644135 2.9198132 0.16695683 -1.5769802 -0.31372294 0.68946135
-0.10849857 0.610938 -0.97989213 -1.3602381 -0.1633173 0.11397167 -0.6757533 0.28816956

manipulable_decoder.2.bias f4 [16]
00000000: f86d 0640 9306 323f 2089 3fc0 8da8 0e40
00000010: 1fbd b0be 1dcc df3e ebb6 0040 cac1 91bf
00000020: da75 aabe 6ad7 ff3f 4f3d d33f ce4f 1b40
00000030: 2979 e53d b17e 8bbe c419 1d3e 9f67 2740
2.100462 0.6954128 -2.9927444 2.2290375 -0.34519288 0.43710414 2.0111644 -1.1387265
-0.3329304 1.9987614 1.6503085 2.426746 0.1120475 -0.27245095 0.1534186 2.6156995

manipulable_decoder.4.weight f4 [16, 16]
00000000: a456 0e40 b3f6 a4bf e846 d5bf c861 7f3f
00000010: 18d2 73bf 6ee7 01c0 5bb3 cabf 96c5 d93e
00000020: 7cc0 1abd 03f5 0fc0 9528 583f df07 fdbe
00000030: ba24 62bf 8c73 f4bf ea39 b13f 9cdf 9c3f
00000040: 8abe 5639 a100 2fb9 6113 ffb9 b57d 56ba
00000050: 92d6 c9b9 b8f4 0238 3b1c 0738 d1a3 5039
00000060: 680d 093a 05fc 7336 9af3 8d38 b14f 96b9
00000070: 8ab5 d4b6 d01e 4b36 1025 9db6 b9e8 ad3a
00000080: 428f b23f 06f4 8d40 2713 4c3f 12ba 53be
00000090: a4cb cebf fe8a 09bf 333e 1940 cc97 963f
000000a0: 3c70 5bbe 62c7 c23e eca1 61c0 962a 62bf
000000b0: 88f6 16c0 59f1 43bf 6a37 f93f bf3b 313e
000000c0: 6da7 bc3f b4ed 803e 5479 203f 5a09 44bd
000000d0: 1701 833f 87c5 f43e 2559 bdbf ec1a 3ebf
000000e0: 5324 9abf 1165 1d40 a09c 0940 eda6 903f
000000f0: 932d debf 2996 bc3f 5af5 a6be 1006 9bbe
00000100: 19c4 0540 af06 a7bf b1d7 683f f76c 2fbe
00000110: b0df 9fbe 04d8 ce3f 1721 0cc0 87d4 243f
00000120: 44b2 a73d 2cb9 383e 1a35 e6bf 6692 8bbc
00000130: c276 0441 8d10 fcbe 86b7 133f 6b73 e13e
00000140: 6eba 9140 f8a7 16c0 2a35 62bf 625e 4c3f
00000150: c759 003e 1339 5fbf 8beb f53e 0466 13bf
00000160: 0980 8f3d f3d5 02c0 b4cd 37bf 1c99 c3bf
00000170: a980 823e d305 ccbf db53 1ebd a85e 0fbe
00000180: 9e5e a5be 0abf 81bf 644a 61bf ead6 d43e
00000190: 8d7f a2bf 3481 81bf 84c3 31be 2a63 17b9
000001a0: cb64 8d3f 8a3a 93bf 7f98 033f a9d9 90bf
000001b0: c455 87bf c4a7 893d 6876 6c3f 5337 49bf
000001c0: 462e cd3f 5e95 17bd b623 9a3f 02cc f53f
000001d0: efed 903c cb55 343f 6753 8cbf 025e 5abe
000001e0: 8568 85be 8eab a43f 26fa 093f 03bc adbf
000001f0: 541a 323f be20 5a3f 7e5f 7cbd 0260 aabf
00000200: d64d a5be 46d1 883d 83cf 2dbf 7c94 933f
00000210: 5db6 14c0 3ec5 2340 dcca fd3e 7dd5 253e
00000220: d83b 90bf c639 823e cef1 99bf c647 fdbf
00000230: f06e 55bf 3aed 48bf dad4 663e 7621 6bbe
00000240: 3ef0 973f 4984 ecbb e0f1 dd3e 405d ec3f
00000250: 527f 3dbf ae37 70c0 aa02 7a40 4359 e7be
00000260: 0f31 1cc0 d68a 2abe 4687 2240 292b cec0
00000270: 37cb 70c0 a632 a63f 38d2 cf40 3c9d 96be
00000280: 05fa 8f3f e12b c3bc 49a4 3f3f cc5a cf3f
00000290: 412b b4bf 6588 64bf 70ef cb3d f426 ab3e
000002a0: 9c13 3c40 ee15 82bf 9619 3d3d 7508 f7bf
000002b0: f8da b1bf 7203 143f d3c5 8dbe 7b57 003f
000002c0: 3fc9 773f 0270 c53b 8458 91bf 3b7d f83f
000002d0: 6206 5abf d1d6 d63e e115 1fc0 4d23 143f
000002e0: 4e5c 503f 8933 433f 4fbc 6bbe 3e44 8e3f
000002f0: 1af4 c4bf 46fc 293d f429 753f e0da f4be
00000300: 0a95 dd3d 71af 9cbf 1cff 283d 2b98 04bf
00000310: 2fe4 3540 d841 32bf 4e8a d13f 7192 a3be
00000320: e15d 093f 94c4 653e 5a0b 5dbf 4f60 803f
00000330: 259d 3ebf 5edd 303f 121d 473f a51e 313f
00000340: 0e38 21be 8613 b5bf 975e 4bbf f4dc 1140
00000350: 2011 25bf db1c 8fbf 469e 80bf 0988 27c0
00000360: 1ebb cebd dcb0 adbf 3010 68bf f9d6 a3bd
00000370: 4f01 99bf 84eb 653f 90ba 8f3e 8ff0 483f
00000380: 87a3 9a39 decc e3b9 30f4 1dba 6d6c 02bb
00000390: 6ef7 abb9 58b6 5c39 9bcf e53a 9207 8639
000003a0: 26b0 3b39 c9fc e237 aa0a 233a ca65 3bba
000003b0: 359e 09ba bccb 09ba d2eb aeba 77d4 c039
000003c0: 85be c0bb da33 7b3f 91f3 a8bd 56d5 8fbf
000003d0: 4a57 c5be 527a 033f 8abc d9bd a2af f63f
000003e0: d96a db3f dac1 943f b9e5 a63f faee 35bd
000003f0: 400c f3be a4b0 b53f 164f 253e 25bc 29be
2.2240381 -1.2887787 -1.6662264 0.9975858 -0.9524245 -2.0297503 -1.5835985 0.4253356
-0.037781224 -2.2493293 0.84436923 -0.49420068 -0.8833729 -1.9097762 1.3845799 1.225574
0.00020479612 -0.00016689535 -0.0004865183 -0.0008182184 -0.00038497575 3.1222327e-05 3.22128e-05 0.00019897452
0.0005228133 3.6356516e-06 6.768778e-05 -0.00028669604 -6.3392263e-06 3.0267292e-06 -4.6832793e-06 0.0013268209
1.3949969 4.436038 0.79716724 -0.20676449 -1.6155896 -0.5372771 2.3944213 1.1765075
-0.21429533 0.38042742 -3.525508 -0.8834623 -2.358797 -0.7654014 1.9470036 0.17307948
1.4738594 0.25181353 0.6268513 -0.04786048 1.0234708 0.4780695 -1.479283 -0.7425983
-1.2042335 2.4592936 2.1501846 1.1300942 -1.7357658 1.4733325 -0.32609063 -0.30278063
2.0900939 -1.3048915 0.9095412 -0.1713141 -0.31225348 1.6159673 -2.1895196 0.6438679
0.08188298 0.18039387 -1.7984955 -0.017037582 8.278994 -0.49231377 0.5770191 0.4403337
4.5540075 -2.354002 -0.8836237 0.79831517 0.12534247 -0.87196463 0.48031268 -0.5757754
0.07006843 -2.0443084 -0.71798253 -1.52811 0.25488785 -1.5939277 -0.03865419 -0.14000952
-0.3229875 -1.0136425 -0.88004136 0.41570216 -1.2695175 -1.0117555 -0.1735974 -0.00014437424
1.1046385 -1.150224 0.51404566 -1.1316425 -1.0573049 0.06721452 0.92368174 -0.78600043
1.6029747 -0.037007682 1.2042148 1.9202883 0.01769158 0.7044341 -1.0962952 -0.21324924
-0.26056305 1.2864854 0.5389732 -1.3573002 0.69571424 0.8520621 -0.061614506 -1.3310549
-0.32285947 0.06680541 -0.6789476 1.1529689 -2.3236306 2.5589137 0.49568832 0.1619472
-1.1268263 0.25434703 -1.2026918 -1.9787529 -0.833724 -0.7848698 0.22542134 -0.22961983
1.1870191 -0.007217918 0.43348598 1.8465958 -0.740224 -3.7533984 3.9064126 -0.4518529
-2.4404943 -0.16654524 2.5395064 -6.4427686 -3.7624032 1.2984207 6.4944115 -0.29416835
1.1248175 -0.023824634 0.74860054 1.6199584 -1.40757 -0.8927062 0.099577785 0.33428156
2.9386969 -1.0162942 0.04616698 -1.9299456 -1.3894949 0.5781776 -0.2768999 0.50133485
0.9679145 0.0060253153 -1.1355138 1.9413217 -0.8516599 0.41960767 -2.4857104 0.57866365
0.81390846 0.7625051 -0.23021053 1.1114576 -1.5386994 0.041500352 0.9576714 -0.47823238
0.108194426 -1.224104 0.041258916 -0.5179469 2.8420522 -0.6963172 1.6370332 -0.31947663
0.5365887 0.2243827 -0.86345446 1.0029391 -0.74458534 0.6908778 0.7777873 0.69187385
-0.1574404 -1.4146583 -0.7944121 2.279111 -0.64479256 -1.1180681 -1.0048301 -2.617678
-0.100942835 -1.3569598 -0.906497 -0.07999987 -1.1953524 0.89812493 0.28072023 0.78492063
0.00029495006 -0.00043449452 -0.00060254615 -0.0019901053 -0.0003280001 0.00021048763 0.0017533185 0.00025564112
0.0001789933 2.7059012e-05 0.00062195456 -0.00071486516 -0.000524971 -0.0005256494 -0.0013345426 0.00036779392
-0.0058820867 0.98125994 -0.082495816 -1.123698 -0.3854316 0.5135852 -0.10631664 1.9272349
1.7141982 1.1621659 1.3038856 -0.04441736 -0.47470284 1.4194531 0.1614345 -0.16575678

manipulable_decoder.4.bias f4 [16]
00000000: f5b7 283f 526c b338 6c73 6d40 37ff 7340
00000010: 707a b140 b399 2f41 2a35 7440 ca36 7140
00000020: 3f0f dc3f de1c 893f 7905 9b40 e809 0b40
00000030: 19cd 063f 27af 4340 0d59 513a dfad 3940
0.65905696 8.555561e-05 3.7101698 3.812452 5.546196 10.975024 3.8157449 3.768969
1.7192153 1.0711935 4.844418 2.1724796 0.52656704 3.0575655 0.0007985987 2.9012372
