mnist_results/2d_original_perceptual_wgan-gp/mnist_tripletnet_state_dict.pth (torch, 170319 bytes, 22 tensors)

representation_encoder.0.weight f4 [16, 1, 3, 3]
000000 c6 75 18 3f 2a 54 89 3f 3e fa 3c 3f 15 98 01 3f
       0.5955471 1.072881 0.7381934 0.50622684
000010 1e f8 3f 3f 2b 01 22 3f 93 d5 e5 3e 22 01 cc 3f
       0.7498797 0.6328303 0.44889507 1.5937846
000020 07 12 07 3f 71 f7 1d bf be d6 76 bf 89 52 d2 3e
       0.5276188 -0.6170569 -0.9642142 0.41078594
000030 c5 01 c3 bf be 7f d1 3e 44 98 a1 3f 33 ac c6 be
       -1.5234915 0.40917772 1.2624593 -0.38803253
000040 17 2b 39 3f dd 0c 03 3e 2f 99 2a 3f dc 3d 28 3f
       0.72331375 0.12797876 0.6663999 0.6571939
000050 7a 97 35 bf 32 66 1f 3f 73 ac 6d be bd 3a e0 bf
       -0.7093426 0.6226531 -0.23210315 -1.7517926
000060 fa 06 03 bf ad 11 aa bf 93 68 26 3e b9 92 20 3f
       -0.5118252 -1.3286644 0.1625083 0.6272388
000070 04 d4 4c 3f f9 5c 37 3f 07 8b 1b bf 4a ee b7 3e
       0.8001101 0.7162624 -0.60759014 0.35923988
000080 00 19 95 3e 36 f3 72 bf 03 c4 e5 bf 34 62 f8 be
       0.29120636 -0.9490236 -1.7950443 -0.48512423
000090 58 c3 fa 3e f7 e1 de 3d 70 3e 52 bf c6 66 28 bf
       0.4897716 0.10882943 -0.8212652 -0.6578182
0000a0 69 13 e7 bf fb 6d 1d be 61 0c 15 be 8b 0a fc 3d
       -1.8052799 -0.15373985 -0.14555503 0.123066984
0000b0 cf 51 ab 3f ca 98 42 3f 56 ef bb bf e1 a7 90 bf
       1.3384341 0.7601439 -1.4682415 -1.1301233
0000c0 85 08 81 bf 17 30 5e bf 15 fa 18 3f 6f 36 9c bf
       -1.0080725 -0.8679213 0.59756595 -1.2204112
0000d0 b7 a7 83 3e 56 66 0d be a0 25 ba be fc f1 d7 3e
       0.25713894 -0.1380857 -0.3635683 0.42176807
0000e0 34 c7 f2 3e 8e b5 8e 3f 5f cd 88 3f e9 51 77 3d
       0.47417605 1.1149156 1.0687674 0.06038085
0000f0 ee d0 22 bf 93 05 67 bf 32 4c aa bf a2 1a a5 3e
       -0.6360005 -0.9024288 -1.3304503 0.32246882
000100 86 87 a9 bf 92 1c 7d bf 87 32 38 3f 67 49 99 3f
       -1.3244483 -0.9887172 0.719521 1.1975526
000110 52 25 4d 3f 32 83 6a be c7 76 09 bf 32 b3 c7 3d
       0.8013507 -0.2290161 -0.53696865 0.09750976
000120 c0 e5 5f bd ad 48 0e 3f 0c 2a 10 3e 75 c6 9d bf
       -0.054662466 0.55579644 0.1407854 -1.2326189
000130 e1 81 c5 bf ea b5 c4 bf ac 3b 21 3f 66 2f 42 3f
       -1.5430261 -1.5368016 0.6298168 0.75853574
000140 64 1a 84 be d8 e0 14 3e 9f 79 86 bd 43 66 c7 bf
       -0.25801384 0.14538896 -0.06566166 -1.5578083
000150 44 74 06 be 2b 21 3a 3e 0d 0e 04 c0 d1 03 4e b8
       -0.1313029 0.18176715 -2.0633576 -4.911778e-05
000160 50 e9 2c 3f 7c f0 37 3f 78 3b 08 3d 09 43 42 3e
       0.67543507 0.71851325 0.03325984 0.18970884
000170 90 a5 5e 3f 7d 2d 6b bf 20 bf b3 bf dc 75 71 be
       0.8697138 -0.91866285 -1.4042702 -0.23580116
000180 10 45 58 3f 10 34 a5 be c3 77 87 bf 5d 10 84 be
       0.8448038 -0.32266283 -1.0583423 -0.25793734
000190 fe c2 c5 3f 02 e5 fb 3e f4 ea 26 bf 78 e3 8f 3f
       1.5450132 0.49198157 -0.6520226 1.1241293
0001a0 88 ea aa 3e 91 12 f5 bc eb 3d a7 3f f0 6a cf 3e
       0.33382058 -0.02991608 1.3065771 0.40511274
0001b0 40 41 55 be 66 07 0a c0 ce 20 26 bf b2 ec a8 3e
       -0.20825672 -2.1567016 -0.64893806 0.32993084
0001c0 cb c0 df 3b c5 72 63 3e 86 02 a6 3e 54 de b2 3f
       0.0068284026 0.2221175 0.324238 1.3974099
0001d0 78 fe 90 bd 56 eb 7f 3e 43 20 51 3e de 98 be bf
       -0.07079786 0.24992117 0.20422463 -1.4890401
0001e0 55 3a 64 3c fd b0 96 3f d8 4d 0c bf 7a f9 3d bf
       0.013929923 1.1772763 -0.5480628 -0.74208796
0001f0 62 25 7a 3f 3b 3b 08 3f 1a 4c 69 bf 57 18 18 3e
       0.9771329 0.5321538 -0.91131747 0.14853035
000200 0e af b8 bb 7b b9 bf be e2 51 be 3f 0c 8f 5d bf
       -0.0056361025 -0.37446198 1.4868739 -0.865464
000210 b9 34 b9 3e d2 fd 85 3e 7b 39 9f bf 49 4d a2 3e
       0.36173037 0.26170212 -1.2439417 0.3169959
000220 1b d7 de bd 60 af d7 bf 14 83 80 3f 50 6a 24 3f
       -0.10880872 -1.6850395 1.0040002 0.6422472
000230 e9 e3 8d bf ce ad 2b 3d c9 9b 3c 3f 09 ae f3 3c
       -1.1085178 0.0419138 0.7367521 0.029746072

representation_encoder.0.bias f4 [16]
000000 f6 5b 9c be 2e 7b 0b 3d c1 d6 81 bc f5 c0 4b 3e
       -0.3053891 0.03405302 -0.015849473 0.19897826
000010 4f 2c a8 3a e3 44 dc bc 3a e8 8a be de 7b b6 3d
       0.0012830588 -0.026888316 -0.271303 0.089103445
000020 92 9f b9 3e ee b6 83 be 7c 8c 43 be ae e6 11 3e
       0.36254555 -0.25725502 -0.1909656 0.14248154
000030 ed 32 b8 3e 2a 07 9f bd 7c 65 73 3d f0 57 0f be
       0.35976353 -0.07765038 0.059422955 -0.13998389

representation_encoder.2.weight f4 [16]
000000 f8 a2 c0 3e a4 a9 8f 3f 34 43 73 3f 68 0a 5d 3f
       0.37624335 1.1223645 0.9502442 0.86344004
000010 d0 b7 f7 3e 60 8c 9f 3f ba c9 81 3f 54 1d 0d 3f
       0.48382425 1.2464714 1.0139687 0.55122876
000020 d3 65 85 3f 61 d4 50 3f f1 c2 92 3f 08 b1 bf 3e
       1.0421699 0.81574064 1.1465741 0.37439752
000030 36 bb 78 3f c2 a0 30 3f 0b b7 25 3f ab bb a6 3f
       0.9716066 0.68995297 0.64732426 1.3026022

representation_encoder.2.bias f4 [16]
000000 5c 2c 36 3e 8f 7c a8 be c2 e6 60 be a8 4c 5a bf
       0.1779036 -0.3290753 -0.21963027 -0.8527322
000010 d0 3f c7 be b6 6a 8e 3e fa 06 88 bf a4 8a 6d bf
       -0.38915873 0.2781579 -1.0627129 -0.92789674
000020 24 57 0f be 3a a6 de bd 24 84 00 bf 75 5e b3 be
       -0.13998085 -0.10871549 -0.5020163 -0.35033002
000030 31 48 58 bf 9d eb 7c bf e3 cb 60 bf 71 e8 85 bf
       -0.84485155 -0.9879702 -0.87811106 -1.046156

representation_encoder.2.running_mean f4 [16]
000000 78 5b a9 3f 57 66 ca 3e c6 2a e9 3d 38 7e ec 3e
       1.3231039 0.39531204 0.113851115 0.46190047
000010 75 df 34 3e 32 93 02 be bb 7e a4 3d ba b8 a9 3e
       0.17663367 -0.12751463 0.080319844 0.33148748
000020 59 22 ba 3e 51 40 26 be c7 87 26 be 30 b9 9e 3f
       0.3635433 -0.16235472 -0.16262732 1.2400265
000030 13 4a 24 3f 49 a4 70 3e 75 95 1b 3e d4 4c 46 3e
       0.6417553 0.2350017 0.15193732 0.19365245

representation_encoder.2.running_var f4 [16]
000000 db e5 b1 40 dc c1 0b 3f 42 be 86 3e 31 3a cf 3e
       5.5593085 0.5459268 0.2631703 0.40474084
000010 33 f3 49 3e 08 b0 8b 3e 7c 9c ec 3e 59 e5 4b 3e
       0.1972168 0.2728274 0.46213138 0.19911708
000020 69 7d 1d 3e e8 10 2e 3e a8 66 f7 3d 67 cc 2f 40
       0.15379871 0.16998637 0.12080127 2.7468507
000030 b7 c7 c0 3e 1b 59 98 3e 52 e6 aa 3d 1b b4 dd 3e
       0.3765237 0.29755482 0.08344711 0.43301472

representation_encoder.4.weight f4 [32, 16, 3, 3]
000000 85 34 15 be ef 43 1b bf e9 f2 15 3f ce 21 9a bf
       -0.14570816 -0.60650533 0.58573776 -1.2041566
000010 2b 8a 28 bf bf ef 94 3e df df 1c 3f d6 34 12 bc
       -0.6583583 0.29089162 0.612791 -0.00892373
000020 cf a7 ac be eb 17 86 bf 1a cf fd be 46 04 80 3f
       -0.33721778 -1.0476049 -0.49572068 1.0001304
000030 2e de 51 3f 2d f0 23 be 45 32 9a 3f e5 d0 8d 3e
       0.81979644 -0.16009589 1.2046591 0.27698436
000040 04 17 1b 3d 27 78 9c bf e6 cb 75 3e c2 3a 89 3f
       0.037863746 -1.2224168 0.24003562 1.0721056
000050 67 1a e4 bf 2d b3 2c 3f 1a d3 37 bf fc 87 cc be
       -1.7820557 0.674609 -0.7180649 -0.39947498
000060 9f b8 ce 3e 37 dc 6d be 44 48 84 3f f9 ac 99 3f
       0.4037523 -0.23228537 1.0334554 1.2005912
000070 e9 6c e3 3e 25 af c0 3e 8c 14 b4 3e c8 40 e2 bf
       0.4441903 0.37633625 0.35171926 -1.767602
000080 38 12 03 bf b3 51 69 3f 41 dd d2 be 8f 29 52 be
       -0.51199675 0.9114029 -0.41184428 -0.20523666
000090 52 c5 65 bf 85 01 91 bc 80 b6 84 be ba 32 db 3e
       -0.8975421 -0.01770092 -0.25920486 0.4281214
0000a0 7d 0b 26 be ae 1a 4d bf 9d 40 04 3f b8 f5 e0 3e
       -0.1621532 -0.80118835 0.5166109 0.4393747
0000b0 c2 ec f5 bf f8 39 a3 be 3c 4f 14 3f 31 e7 2c bd
       -1.9212878 -0.31880164 0.579334 -0.04221267
0000c0 50 10 c8 3f 79 8d 98 3f 3e 61 dd be b1 89 b6 3f
       1.5629978 1.1918174 -0.43238252 1.426077
0000d0 9a ed 1d 3f 33 4a 06 bd 04 34 79 3f 8a 3c cc 3e
       0.61690676 -0.032785606 0.97344995 0.39889938
0000e0 32 4f 03 3e 56 c6 a7 bf 65 2e a7 be c4 40 84 3e
       0.1282318 -1.3107402 -0.32652584 0.25830662
0000f0 5a 57 3d 3f 2b 0d 9a 3d 7a ba ce bd c2 c3 2d 3f
       0.7396141 0.07522043 -0.10094161 0.6787683
000100 27 39 1c 3f 51 73 b2 be 3c 1c 68 bf ff 80 7c bf
       0.6102471 -0.34853604 -0.9066808 -0.9863433
000110 00 9e b4 bf 6a ef 10 be 5f bc 17 bf 9b 28 17 bf
       -1.4110718 -0.14153829 -0.59271806 -0.59046334
000120 4d c1 bc 3e 21 eb 32 bf 41 07 a8 bf bc b0 c9 3f
       0.36866227 -0.6989003 -1.3127214 1.575706
000130 23 9e 96 be 51 7c 06 c0 3a 4e d6 3e 02 c8 2c bf
       -0.29417524 -2.1013377 0.41856557 -0.6749269
000140 e9 20 3f bf 3a 39 b6 bf ea de f6 3d f6 64 84 bf
       -0.7465959 -1.4236214 0.12054236 -1.0343311
000150 13 6e a5 3d 49 a1 0e 3f 9e bf 5e bf e4 35 92 3f
       0.080776356 0.5571485 -0.87011135 1.1422696
000160 ad f8 c5 be 37 44 49 bf fc 82 54 3e 18 e6 74 3e
       -0.38666287 -0.7861971 0.20753092 0.23915899
000170 92 e5 b5 3e c9 e1 5e 3f a8 dc b1 bf 21 8d 03 bd
       0.3552671 0.8706327 -1.3895464 -0.032117013
000180 2b dd 15 3f 03 2f b0 bf ad 6e 1f bf d3 80 f5 bd
       0.585406 -1.3764347 -0.6227825 -0.11987462
000190 ad c8 02 bf ec 53 5c 3f 19 11 d0 bf 31 bf 04 bf
       -0.51087457 0.86065555 -1.6255218 -0.51854235
0001a0 d5 51 20 3f 37 39 bf 3e c8 0d 48 be 47 22 c1 be
       0.62624866 0.3734834 -0.19536507 -0.37721464
0001b0 1e 53 e8 bf 53 17 19 bf e6 31 cb be 3d 3a 43 3f
       -1.8150365 -0.59801215 -0.39686507 0.7626074
0001c0 3a e6 6e 3d b1 b9 98 bf 21 0d a4 3f 35 b3 1a 3f
       0.05832503 -1.1931669 1.2816507 0.604297
0001d0 52 a6 0c c0 68 e8 95 bf ec cd 05 bf 9e 59 ff 3e
       -2.1976514 -1.171155 -0.52267337 0.4987306
0001e0 1e be 45 bf dc e7 3f bf 6b 79 88 be 78 a5 6d 3f
       -0.7724322 -0.74963164 -0.26655135 0.9283061
0001f0 e3 72 20 bf ee 77 3c be 76 5d 09 bf d2 9c a4 bf
       -0.62675303 -0.18405125 -0.53658235 -1.2860358
000200 fe 40 b3 3e 3d dd e8 bf 63 93 13 bf b2 c0 2c 3f
       0.35010523 -1.8192517 -0.5764677 0.6748153
000210 95 36 67 bd c9 e4 76 bf a0 84 91 3e fc ad 08 bf
       -0.056448538 -0.9644285 0.28421497 -0.5339048
000220 ae 89 dd bf ac 52 1d bf ae f6 2c bf c4 14 34 c0
       -1.7307642 -0.6145427 -0.67563903 -2.8137674
000230 a9 35 e4 bc 49 63 f0 be 61 20 38 bf b5 f7 03 bf
       -0.027857618 -0.4695075 -0.71924406 -0.51549846
000240 e4 f6 fd 3e ad 7c 88 3e 38 43 f5 be 52 05 e1 3d
       0.49602425 0.2665762 -0.47902846 0.10987343
000250 42 9f 79 be 1a c1 1b bf 9b 68 55 bf 95 48 9c be
       -0.24377158 -0.60841525 -0.8336274 -0.30524126
000260 8d 5b ea bf 52 d7 3f be af 05 10 bf 89 f4 5a be
       -1.8309189 -0.18734482 -0.5625867 -0.21382345
000270 8d af 53 bf 6b 90 3c bf c4 02 9a be 8b b0 ad be
       -0.82689744 -0.73657864 -0.30080235 -0.33923754
000280 fa db f2 be b4 76 f7 bf 3c 49 be be 93 a3 3e 3e
       -0.47433454 -1.93331 -0.37165248 0.18617086
000290 6b d0 8a 3f a6 2e 02 3f 51 22 73 be 29 2e aa bd
       1.0844854 0.5085243 -0.2374356 -0.083095856
0002a0 4d 14 56 3e 5a 72 0c bf c1 1a 9a 3d 75 71 5e bf
       0.20906182 -0.54861987 0.07524634 -0.8689187
0002b0 f4 f9 3b be c9 d5 e7 be 12 25 8f 3f e2 6f cb 3e
       -0.18357068 -0.45280293 1.1183188 0.39733797
0002c0 b6 91 bf 3e d2 b3 f4 be bc ff 7e bd 0c 56 e8 3e
       0.37415856 -0.47793442 -0.062255606 0.4537815
0002d0 4a ac 93 3e 8f 70 c4 bf f1 09 08 3f 9c 95 48 c0
       0.28842384 -1.534685 0.5314017 -3.1341314
0002e0 76 f8 0d c0 1e 7b 6e 3f 8b cf 79 3e 71 72 ea bf
       -2.2182899 0.9315661 0.24395578 -1.8316175
0002f0 03 9d 28 bf d7 4a 48 bf 31 bd 58 bc 09 6e 5a 3f
       -0.6586458 -0.78239197 -0.0132287005 0.8532415
000300 74 0a 6e bf 98 64 d7 be ff 76 da bd e0 f4 2a 3f
       -0.929847 -0.42068934 -0.10667228 0.667799
000310 b3 fa ea bd a5 49 6a bf 12 01 af 3e dc d5 ec 3d
       -0.11473598 -0.9151862 0.34180504 0.11564228
000320 43 fb 94 be 16 d2 84 3f ec 44 2c bf 07 88 bc be
       -0.29097947 1.0376613 -0.67292666 -0.3682253
000330 19 bf 08 bf ff aa 8d be 86 42 ec 3e 80 c7 d9 3d
       -0.5341659 -0.27669522 0.46144503 0.10633755
000340 2a 4a 24 3e 32 b8 0d 3f e4 c4 ed 3c f3 e0 ee be
       0.16043916 0.55359185 0.029024549 -0.46655998
000350 e7 16 19 3f cc 58 b0 bf 4e 95 29 3e fd ec 3c bf
       0.5980057 -1.3777099 0.16560861 -0.73799115
000360 82 2e 9f be 62 21 02 c0 97 1c b0 3e a3 4a a6 be
       -0.3109017 -2.0332875 0.34396812 -0.32478818
000370 b0 44 90 bf b0 a5 4f 3e cf 29 3f be 6b b0 92 be
       -1.1270962 0.20278049 -0.18668292 -0.2865022
000380 4e dd ac 3f 54 42 8c bf b8 60 3b bf 02 44 be 3f
       1.3505037 -1.0957742 -0.73194456 1.4864504
000390 a2 76 00 bf 59 ed c5 3e 4e 60 a6 3f a0 b0 06 bf
       -0.5018102 0.38657644 1.299814 -0.5261326
0003a0 c9 2a dd 3e a3 02 3f bf 48 68 4b bf 8d 9e 08 bf
       0.43196705 -0.746134 -0.79455996 -0.5336693
0003b0 d3 2f 82 be 56 b2 af 3e 70 6a 63 bd bb 49 96 3d
       -0.25427112 0.34315747 -0.05552143 0.07338282
0003c0 f9 61 94 bf 82 1c 4d 3f 2c 9f a7 3f d6 de 55 3f
       -1.1592399 0.80121624 1.309545 0.83543146
0003d0 8e d1 90 3c 16 f2 4c bf 2d c6 d5 3e 73 6c 53 be
       0.017678048 -0.80056894 0.4175276 -0.20646839
0003e0 16 0f 47 bf 02 eb 0d bf d8 24 83 be 28 71 00 c0
       -0.77757394 -0.5543672 -0.25614047 -2.0069065
0003f0 bb 23 00 40 ff 07 8f be 11 5a 75 3f 6f 07 01 c0
       2.0021808 -0.27935788 0.95840555 -2.0160787

representation_encoder.4.bias f4 [32]
000000 c7 46 64 3b 59 5b 91 3d 81 ed e0 bc 10 79 96 bc
       0.0034832226 0.07097501 -0.027457 -0.018368274
000010 9b d6 cd bc 84 9d 04 3d b5 ea 89 bd 59 5b 1b 3d
       -0.025126746 0.03237678 -0.0673422 0.037928913
000020 fb 15 ab bc e0 06 6f bd 8d 45 9b 3d 08 41 10 bd
       -0.020884505 -0.058356166 0.07581625 -0.03521827
000030 8a 06 79 bd 9f 6a 91 bd a0 fb 39 bd d2 30 60 bd
       -0.06079725 -0.071004145 -0.045405984 -0.05473406
000040 d2 94 01 bd 74 5c 21 3d a6 ec 8b bd 70 3e 84 3d
       -0.031636067 0.03939481 -0.068322465 0.064572215
000050 05 d6 af bd 7e 98 88 bd c2 96 a1 3d a4 01 04 bd
       -0.08585743 -0.066697106 0.07890083 -0.032228127
000060 00 21 14 bd 2c dd 77 bc f8 82 98 3c 2e 40 0e 3d
       -0.036164284 -0.015128415 0.018617138 0.034729175
000070 8d fc 9d ba 8d 1a cb bb b3 68 25 ba 8c 23 14 bb
       -0.0012053415 -0.0061982335 -0.0006309852 -0.0022604195

representation_encoder.6.weight f4 [32]
000000 4f 41 16 3f 4d 8a 2f 3f b1 a9 9d 3f 07 40 8b 3f
       0.58693403 0.68570405 1.2317411 1.0878915
000010 a2 f2 cf 3e 09 de 2e 3f 4e 0e 8c 3f 64 4a a8 3f
       0.40614802 0.6830755 1.0941865 1.3147702
000020 ca 6c 26 3f 33 28 ed 3e c3 b1 a1 3f c1 95 86 3f
       0.6500975 0.46319732 1.2632374 1.0514451
000030 4e 3e 13 3f 62 07 24 3f cc 6f 8f 3f ff 32 40 3f
       0.57516944 0.64073765 1.1205993 0.75077814
000040 bf 57 91 3f e1 47 9e 3f d5 6e b0 3e 76 ec 99 3f
       1.1354903 1.2365686 0.34459558 1.2025287
000050 7b ea 38 3f a4 c1 73 3f dc 86 65 3f 9d e7 c2 3f
       0.7223279 0.9521735 0.89658904 1.5226933
000060 f1 a3 81 3f e8 eb a2 3f 30 b9 ad 3f 0b 4a 4d 3f
       1.0128156 1.2728243 1.357214 0.80191106
000070 89 86 ca 3f 10 76 72 3f f8 b3 af 3e 4d 79 4d 3f
       1.5822307 0.947114 0.34316993 0.80263215

representation_encoder.6.bias f4 [32]
000000 9a ef 80 bb cf 6b ed 3d 84 9d bc 3e 70 ff 26 bf
       -0.0039348127 0.115928285 0.36838925 -0.65233517
000010 c5 3c c8 bd a8 49 03 bf b8 50 49 bd 0a 64 12 bf
       -0.09777216 -0.51284266 -0.049149245 -0.571839
000020 00 df dc be 70 72 d5 be b2 d4 40 3c e0 ab e3 bd
       -0.43138885 -0.4168887 0.0117694605 -0.11116767
000030 5c 29 cf 3d 9d 38 ed bd 2b a3 a7 be 04 82 e1 bd
       0.101153105 -0.11583064 -0.32741675 -0.11011127
000040 74 99 d8 be 01 65 aa bf cc f9 94 be 37 1a 99 bf
       -0.42304575 -1.3312074 -0.2909683 -1.1961125
000050 60 d1 fb be 55 15 ba 3e fc 06 98 bf 3a 86 c6 bf
       -0.49183178 0.363444 -1.1877131 -1.5509713
000060 5d 62 5e bf 01 bb f0 be 82 95 1b 3d 15 25 d0 3b
       -0.8686884 -0.47017673 0.03798438 0.006352077
000070 17 b7 37 bf ab 21 53 3e 82 87 ca bc 58 be a7 be
       -0.7176375 0.20618312 -0.024722818 -0.32762408

representation_encoder.6.running_mean f4 [32]
000000 1e 8d ca 41 51 a3 8d 41 93 05 86 41 a6 1b 45 41
       25.318905 17.704744 16.752722 12.31925
000010 16 4f a0 41 34 c6 77 41 85 9f 87 41 cf 69 91 41
       20.038616 15.485889 16.95289 18.176664
000020 04 12 2c 41 0e cf a5 41 b3 84 6a 41 3a 09 2d 41
       10.754398 20.7261 14.657397 10.814753
000030 9d 2b 4a 41 9d 5f 8a 41 9e 85 51 41 a1 af 67 41
       12.635648 17.296686 13.095121 14.480378
000040 0e 49 37 41 d3 32 86 40 d0 06 dc 40 b2 8f 1e c0
       11.455336 4.193704 6.8758316 -2.4775205
000050 fa 98 7a 41 18 d7 03 41 4e bd 94 40 a3 ed b6 bd
       15.662348 8.240013 4.6481085 -0.08932044
000060 91 05 ae 40 27 24 2e c0 65 bc 9b 41 9f db 08 41
       5.4381795 -2.7209566 19.46699 8.553618
000070 68 fb 14 40 f9 56 3f 41 45 16 3a 41 91 06 10 41
       2.3278446 11.958734 11.630437 9.001603

representation_encoder.6.running_var f4 [32]
000000 d0 44 ce 41 77 bb f4 41 f4 06 45 42 3a d5 6a 42
       25.7836 30.591536 49.25679 58.70823
000010 66 6b c3 41 3e 8d f4 41 93 d3 26 42 3b e2 5a 42
       24.42744 30.568966 41.706615 54.72093
000020 5e e8 16 42 33 17 f3 41 e8 bb 59 42 00 0a 99 42
       37.72692 30.386328 54.433502 76.51953
000030 3e 73 56 42 1f ba d6 41 5f eb eb 41 be 77 00 42
       53.61254 26.84088 29.489927 32.116936
000040 55 6e 8a 42 1d 2a 15 42 bc b1 15 42 93 95 58 42
       69.21549 37.291126 37.42357 54.14607
000050 fc 57 b2 41 0d c2 b7 42 97 9b 92 42 bd 29 a2 42
       22.292961 91.879005 73.30389 81.08152
000060 98 4c 4e 42 fd 00 a6 42 7b 88 ae 42 04 3f b9 41
       51.5748 83.00193 87.26656 23.15577
000070 dd 42 9f 42 89 fd db 41 7e b8 1b 42 75 18 f1 41
       79.63059 27.498796 38.93017 30.136942

representation_encoder.8.weight f4 [64, 32, 3, 3]
000000 1d 1d 6a 3d f3 78 f6 3e 8e 14 8d bf c0 ba 9a bc
       0.05715667 0.48139152 -1.1021898 -0.018887877
000010 04 f5 a2 3e 4f ef a9 bf 60 a0 9e bf 5e 93 2c bf
       0.31827557 -1.3276156 -1.2392693 -0.67412364
000020 94 86 88 bf 41 69 0a 3f 11 72 52 3e 03 71 25 3f
       -1.066607 0.54066855 0.20551325 0.6462557
000030 76 7b 96 bf bb a3 f2 bd 76 27 f7 be cf de c0 bd
       -1.1756427 -0.11847635 -0.48272294 -0.09417497
000040 3f 31 3f 3e 25 08 f6 be a4 49 a2 be 42 54 27 3e
       0.1867113 -0.4805309 -0.31696808 0.16340736
000050 60 5b c7 bd 72 cc 22 3f 8d 9c dc 3f 2c 2f 87 3f
       -0.09734225 0.6359321 1.7235276 1.0561271
000060 1c 0f 68 bf 14 d3 cf 3d 9d f5 38 3f 37 bd 25 3f
       -0.90648055 0.10147682 0.72249776 0.64741844
000070 f5 8a f2 be ff f8 29 be 10 9b 4a 3f 7b 8c e0 3b
       -0.4737164 -0.1659889 0.79142857 0.006852684
000080 44 73 0f 40 90 42 c0 be d7 04 d6 be 1d 61 c5 3f
       2.2414103 -0.37550783 -0.41800568 1.5420262
000090 c4 30 6a bf b1 3a c3 3e 31 ff 7b bf 76 2a 39 be
       -0.9148066 0.38130715 -0.98436266 -0.18082604
0000a0 ad 5d 3e 3f 3a 55 08 bb 70 14 d9 be 11 fd 82 3f
       0.7436169 -0.0020802752 -0.42398405 1.023348
0000b0 77 aa 1d 3f 6b 7c 71 bf f7 6b 04 c0 76 65 3b 3d
       0.61588234 -0.9433047 -2.0690897 0.045751058
0000c0 87 42 39 3e 75 22 55 3f c7 e3 d5 bd f4 1c a8 3f
       0.18091784 0.832557 -0.10443836 1.3133836
0000d0 10 16 df 3e a2 3f 63 be 24 7a a7 bf 3a f2 17 bf
       0.4357152 -0.22192243 -1.3084149 -0.59353983
0000e0 60 40 f5 be 7c 8c b9 3d 9e 8a b2 3f ba 2a 60 be
       -0.47900677 0.090599984 1.3948553 -0.21891299
0000f0 52 e9 27 be 3c d3 64 bf a0 ad 98 bf b5 96 e1 bd
       -0.16397598 -0.8938482 -1.1927986 -0.11015073
000100 3f 1d 9b bf a0 64 3f bf 83 07 9b 3f 52 22 18 3e
       -1.21183 -0.74762917 1.2111667 0.14856842
000110 3b e4 c8 3f 29 48 50 bf 2f 04 61 be d4 78 8b 3f
       1.569465 -0.8136011 -0.21974252 1.0896249
000120 f1 d7 77 bd 71 60 e1 be ce 0a 8e be 2c 0e 57 3f
       -0.060508672 -0.4401889 -0.27742618 0.84006
000130 10 c0 12 3f 1c a6 22 40 1b cb 1f bf c9 dc a2 3e
       0.57324314 2.5413885 -0.6241929 0.3180907
000140 3d da 6e be 40 8f c0 bf 25 cb 81 be 75 75 58 3f
       -0.23325439 -1.5043716 -0.253503 0.84554225
000150 11 11 f0 be 17 a1 b2 3e 86 42 cb 3f 2e 9d b8 bf
       -0.4688802 0.34888527 1.5879676 -1.4422967
000160 e8 77 b2 bf ec 14 9e bf 0c 01 f0 3e 93 e2 3d 3f
       -1.3942842 -1.2350135 0.468758 0.7417385
000170 29 18 2e 3f e0 88 34 3f 1c 1a 9b 3f 27 a6 d9 3f
       0.68005615 0.70521355 1.2117343 1.7003831
000180 74 91 84 bf 6d 53 77 bf 32 17 bd be c4 85 ce bc
       -1.0356889 -0.9661167 -0.3693176 -0.025210269
000190 7b be 85 be 3c 9a 8f 3e f6 25 73 bf c8 67 d9 bf
       -0.26121888 0.2804736 -0.949798 -1.6984797
0001a0 bc ff de 3e 06 17 38 3f 9b 35 bb bf e5 3b 83 bf
       0.43554485 0.7191013 -1.4625734 -1.0252653
0001b0 ec c1 73 3f d8 d5 12 3f 27 ee 39 3e 1e 63 a2 3f
       0.95217776 0.5735755 0.18157254 1.2686498
0001c0 cb d9 a8 3e 20 6b 2e bf 51 76 60 3f 91 1e 0e 3f
       0.32978663 -0.6813221 0.87680537 0.5551539
0001d0 91 29 5d bf 9d 2f 16 3f 32 83 dd 3d e5 11 ff bc
       -0.8639155 0.586664 0.10816039 -0.031136462
0001e0 0b 15 7d 3f 95 e0 e3 3e a9 7b 01 40 da d1 77 bc
       0.98860234 0.4450728 2.0231726 -0.015125716
0001f0 7a d8 82 bf 40 69 f4 be d8 8b 1d bf a0 b4 f4 be
       -1.0222313 -0.4773655 -0.6154151 -0.47794056
000200 44 0d 05 bf 03 e1 8d 3f 3e ce 15 3e 65 15 38 3f
       -0.51973367 1.1084293 0.14629456 0.71907645
000210 6b e7 98 3e 8f 5f 55 3f 5a eb e0 3f ae fb bc 3f
       0.29864058 0.83348936 1.7571824 1.4764307
000220 b3 c1 f7 3e c0 e5 0c bf 06 05 08 bf 90 5c fc be
       0.48389968 -0.5503807 -0.53132665 -0.4928937
000230 fb 40 ba 3f 54 65 9e be 94 a5 89 3c 8b 9c 6a bf
       1.455108 -0.30936682 0.016802587 -0.91645116
000240 13 42 de 3f ad 07 80 3f 68 90 84 3f ea b6 26 bf
       1.7363914 1.0002342 1.0356569 -0.65122855
000250 a1 a2 ac 3d 79 04 1a 3e de 20 a8 bf e9 eb 94 bf
       0.084294565 0.15040769 -1.313503 -1.1634494
000260 3a 51 65 be 89 94 87 3d f2 eb 4f 3f 31 53 52 3f
       -0.22394267 0.06620128 0.812194 0.8215819
000270 7f 1f e9 be c6 05 e3 be 97 06 bd 3c 64 13 7d bf
       -0.45531842 -0.44340342 0.023074431 -0.9885771
000280 b4 82 ca bf 69 c2 4b bf c3 0a 25 bf 11 11 c2 bd
       -1.5821137 -0.7959352 -0.64469546 -0.094759114
000290 03 b1 24 bf 04 f7 9a 3d c1 6d 62 bf 79 3c 72 be
       -0.643326 0.07566646 -0.8844872 -0.23655881
0002a0 86 49 ed be d4 0f c1 be 09 93 3a be c0 9a ac be
       -0.46345156 -0.37707388 -0.18220152 -0.33711815
0002b0 19 e3 8a be 9e d5 5b bf e8 04 43 3f 61 77 2f bc
       -0.27126387 -0.8587283 0.7617936 -0.0107096145
0002c0 c8 5e 1b bf 48 8a ac be 0e a8 87 bd 79 ca f9 3e
       -0.606915 -0.3369925 -0.06623851 0.48787287
0002d0 35 f3 07 40 18 ab eb 3f c5 72 65 be d4 59 96 3e
       2.1242192 1.8411589 -0.22407062 0.29365408
0002e0 67 6b f8 be 91 07 87 bf 81 c2 30 3f a3 f7 4e 3e
       -0.4851944 -1.0549184 0.6904679 0.20211653
0002f0 18 39 c1 bd ee 47 18 be 83 0d a0 be 36 00 d6 be
       -0.09434718 -0.14871189 -0.3126031 -0.41797036
000300 b8 56 9f bd 09 cd 1d 3f da 84 bc bd e0 e5 9e be
       -0.07780212 0.61640984 -0.09205027 -0.31034756
000310 d6 74 1a 3f 51 3e 5f 3f a9 48 64 3e 10 49 d2 3e
       0.6033453 0.8720446 0.22293343 0.41071367
000320 d8 27 af 3f 5c b9 3a bf 33 dd 0c 3d b2 cb aa bf
       1.3684034 -0.72939086 0.03439064 -1.3343413
000330 8c e7 b5 be 9c a1 75 3e 3c fa 97 3f 7b 4f d5 be
       -0.3552822 0.2398743 1.187324 -0.416622
000340 af 7e 6f bd 27 ca c4 bf b7 20 c9 3e 11 14 53 3f
       -0.058470424 -1.5374192 0.39282772 0.82452494
000350 76 dc 10 c0 45 ca 98 3e c6 45 f8 3e b3 b8 e3 3e
       -2.2634559 0.2984182 0.48490733 0.44476852
000360 9d d8 11 be 9e a9 16 bf 1f 15 12 bf 1c a9 4f bf
       -0.14242788 -0.58852565 -0.5706348 -0.81117415
000370 bd 73 4f 3f 2d a5 ce 3f 96 34 bd bf 8a 16 07 3f
       0.8103598 1.6144158 -1.4781673 0.52768767
000380 70 3d cf 3f a1 27 cc 3d d1 48 6b bd c9 a9 4a 3e
       1.6190624 0.09968496 -0.05744249 0.1979133
000390 3b b6 35 3f 2a e3 3d bd 3f 0c 46 bf d2 34 fe 3e
       0.70981187 -0.04635922 -0.77362436 0.49649674
0003a0 59 a3 03 bf 83 47 38 3f 3f dd 0b 3f f3 73 56 be
       -0.51421124 0.7198412 0.5463447 -0.20942669
0003b0 da 2b 76 be 09 d6 0e bf 7b 7e 9d 3e 2e 7a 30 bf
       -0.24040166 -0.5579534 0.3076056 -0.6893643
0003c0 2d 40 c3 bf c4 31 26 3f 77 e2 0a 3e ba 11 7e 3f
       -1.525396 0.64919686 0.13562952 0.992458
0003d0 24 ac 31 bc 90 fc 2c 3f 78 8b 7f 3f d3 2f 8b 3c
       -0.010844264 0.6757288 0.9982219 0.016990578
0003e0 3a cb 7b bc 77 c5 1a bf 73 17 b2 bf 21 87 fe be
       -0.015368277 -0.6045756 -1.3913406 -0.4971247
0003f0 45 b5 c8 be e3 ea 09 3e 02 91 36 bf cd f0 49 3f
       -0.39200798 0.13468508 -0.71315014 0.7888306

representation_encoder.8.bias f4 [64]
000000 a7 85 b6 bc b2 ac f1 bb 25 b0 31 bd 20 26 3b bd
       -0.022280527 -0.007375323 -0.043380875 -0.045690656
000010 4b fb b7 3c f9 6d 94 3b e2 3d 1c bd 3d 71 44 3d
       0.022458693 0.0045297113 -0.038144954 0.047959555
000020 cf 58 e2 bc dc 70 2f 3d d1 34 0e 3d a3 37 52 3d
       -0.027630238 0.04283224 0.03471834 0.05132259
000030 b6 af 13 3d 37 34 2b bd f0 47 71 3c 25 2e 85 3c
       0.036056243 -0.041797843 0.014726624 0.016257355
000040 cc 52 43 3d 83 85 1f 3d 4a a8 c6 3c 7a 3c 49 bd
       0.047686383 0.038945686 0.024250168 -0.04912994
000050 0d d9 33 3d 8d 9a 47 3d 33 30 35 3c ae 2b 13 bd
       0.043908168 0.048731375 0.011058855 -0.035930328
000060 66 48 29 3d 4e b4 9c bc 06 d1 2b bd a3 57 43 3c
       0.04132881 -0.019128945 -0.041947387 0.01192275
000070 a5 4a 5f bd b7 99 b7 bc dc 6b c6 3a 39 6d 12 bd
       -0.054514546 -0.022412164 0.0015138346 -0.035748694
000080 30 94 5f 3d 6c 8f 36 bb 9d b9 15 3d 60 bf ac bc
       0.054584682 -0.0027856482 0.036553968 -0.021087348
000090 9a 41 27 3d 3f 42 52 bd 9a 9e 33 bd 5e 8e 02 bd
       0.040834047 -0.05133271 -0.043852426 -0.031874053
0000a0 fd da 8d 3c 8c 66 e8 3c 89 25 54 bd c0 3a 4b 3c
       0.017316336 0.02836921 -0.05179361 0.012404144
0000b0 da ea 59 bd 52 61 46 3d 72 da 30 3d b0 ed 33 bd
       -0.053202488 0.048432656 0.043177076 -0.04392785
0000c0 d7 a5 54 bd dd 27 f9 bc ea e3 38 3d 45 20 34 bd
       -0.05191597 -0.030414516 0.04513923 -0.043976087
0000d0 8f 17 d6 bc a0 ab 47 bd b4 67 63 3d b8 77 8b 3c
       -0.02613428 -0.04874766 0.05551882 0.01702486
0000e0 2b a2 72 bd 9c 23 69 3d c2 26 96 bb 26 f2 b8 bc
       -0.059236687 0.056918725 -0.004582257 -0.022576403
0000f0 42 ce 40 bc 38 1e 65 3d ea 7f 57 3d d3 9c bf 3c
       -0.011767926 0.055937022 0.052612223 0.02339021

representation_encoder.10.weight f4 [64]
000000 6e fe b1 3f b7 df c4 3f 5d 32 34 3f 58 62 ac 3f
       1.3905771 1.5380772 0.7038935 1.3467512
000010 4a 6d 1c 3f 31 e5 1a 40 8b c0 65 3f f5 59 fa 3f
       0.6110426 2.4202387 0.8974692 1.9558703
000020 0a b4 a1 3f 3b 5b 51 3f df 7e f8 3f ad b2 0d 3f
       1.2633069 0.8177983 1.9413718 0.5535076
000030 d2 b2 40 3f b4 d6 43 40 ca b4 27 3f e4 f6 aa 3f
       0.7527286 3.0599794 0.6551024 1.3356595
000040 36 34 23 3f 8e f7 97 3f da 77 07 40 f1 22 1b 40
       0.6375154 1.1872423 2.1166902 2.4240077
000050 56 f3 50 3f 46 d6 04 3f 14 c3 a0 3f d7 c4 d0 3f
       0.816213 0.51889455 1.2559533 1.6310071
000060 02 a9 f2 3f f7 fb f6 3e d1 8a b8 3e 39 e3 49 3c
       1.8957827 0.4823911 0.3604341 0.0123222405
000070 6c 6f 0b 3f 94 b6 9d 3f 20 9d 58 40 e5 47 06 3f
       0.5446689 1.2321343 3.3845901 0.5245345
000080 c3 0c 86 3f e5 bd 37 3f 98 16 ab 3f 85 0e 86 3f
       1.0472645 0.7177413 1.336627 1.0473181
000090 41 3a 4e 3f 1a 7f b0 3f 52 f4 43 3e 5e bd bb 3f
       0.8055764 1.3788788 0.1913617 1.4667165
0000a0 aa 45 7e 3e 19 18 1d 3f c8 e2 3c 3f 16 99 d8 3f
       0.24831262 0.61364895 0.7378354 1.6921718
0000b0 20 51 a5 3e ec b3 1f 3f 69 38 c8 3f 14 3c 90 3f
       0.32288456 0.62383914 1.5642215 1.1268334
0000c0 da 58 ca 3f a1 49 0f 40 d5 58 01 40 85 cd f5 3f
       1.5808365 2.238869 2.0210469 1.9203345
0000d0 3b c8 c3 3f 9b 17 c9 3f 38 fa 1a 40 ba 81 75 3f
       1.529548 1.5710329 2.4215221 0.9590107
0000e0 ae 1a 71 3f 4d 84 3b 3f a4 82 92 3f 39 96 04 40
       0.94181335 0.7324875 1.1446118 2.0716689
0000f0 33 14 99 3f 88 de a3 3e b2 a6 ea 3f 3e bc 66 3f
       1.1959289 0.32005715 1.8332121 0.90130985

representation_encoder.10.bias f4 [64]
000000 ef f6 89 be 0a 18 92 3e cc df 40 be 16 9b d3 bc
       -0.26946208 0.28533965 -0.18835372 -0.025830787
000010 34 38 f1 3b 69 fa 65 3e d2 55 a3 3c 66 8d a8 3e
       0.0073614363 0.22458805 0.019938383 0.32920378
000020 cb 7f a6 3e 59 b7 42 bd 6b 81 4f 3e c1 4e bd bc
       0.32519373 -0.047538135 0.20264213 -0.023108842
000030 09 1a a8 bc f7 7b 71 bc ba 0a 67 3d 36 6c a2 3d
       -0.020520227 -0.014739028 0.056406714 0.07930796
000040 84 37 78 3d 1b e2 12 3e c9 ea 16 3f 2f d5 16 bf
       0.06059982 0.14344065 0.58952004 -0.5891904
000050 49 52 58 3d fb 81 b1 3c 0a 5c 3b 3c a5 04 bc 3d
       0.05281285 0.021668425 0.011435518 0.091805734
000060 72 8e a3 be 35 97 49 3d 58 28 0e 3d 4b 74 da 3c
       -0.31944615 0.049216468 0.034706444 0.026666781
000070 a9 3c 90 3a 21 e5 15 bd 61 2f 74 3f 32 0c 5c 3d
       0.0011004406 -0.036595467 0.95384794 0.053722568
000080 43 58 17 be e8 6e 6a 3d 14 33 5f be 07 25 08 3c
       -0.14779763 0.057234675 -0.21796829 0.008309609
000090 57 10 4c be 20 45 01 be 3b 32 ab bc 56 14 c6 3c
       -0.19928108 -0.12624025 -0.020897975 0.024179619
0000a0 6d 4e a1 3c 1c 4d 02 be 3c a0 eb bd d0 ca 25 3f
       0.019690717 -0.12724727 -0.11505172 0.6476259
0000b0 e4 38 75 3d fb 3d fa 3d f2 32 d3 be a2 b2 48 3e
       0.05986871 0.12218853 -0.41249806 0.19599393
0000c0 a9 51 03 3e 41 6b 88 3d 21 e8 c3 3c f5 14 94 be
       0.1282412 0.06661082 0.023914399 -0.2892224
0000d0 f9 8c 55 be 2a 09 29 be ce 25 e4 3d b1 74 db 3d
       -0.20854558 -0.16507402 0.11140023 0.107156165
0000e0 29 3f 81 3c bf 99 24 be 80 d6 46 bd 8f bb 76 be
       0.015777187 -0.16074274 -0.048544407 -0.24094985
0000f0 8b fb e2 bd 80 a6 c7 3c 1d 69 17 be 71 e9 6a 3d
       -0.11083134 0.024371386 -0.14786191 0.057351533

representation_encoder.10.running_mean f4 [64]
000000 19 e2 6e 41 14 6e 4b 41 fe 13 9a 41 cb 61 34 41
       14.9302 12.714375 19.259762 11.273875
000010 b1 cf 6b 41 19 00 b4 41 27 00 45 41 44 5f 34 41
       14.738206 22.500048 12.312537 11.273258
000020 c0 e9 e9 40 5a 6c 15 41 b3 54 ce 41 1c de af 41
       7.309784 9.338953 25.791357 21.983452
000030 35 d8 8f 41 0b 28 45 41 25 df 3e 41 6d b4 47 41
       17.98057 12.322276 11.929479 12.481549
000040 41 d5 5b 41 ff e7 d6 41 ce d8 81 41 45 3e c1 40
       13.739564 26.86328 16.230862 6.0388513
000050 27 45 84 41 aa 7a 1c 41 3a 26 8c 41 bf f1 42 41
       16.533766 9.779947 17.518665 12.18402
000060 89 f0 83 41 f9 d5 82 41 3e 11 cb 41 82 40 20 42
       16.492449 16.354479 25.383419 40.062996
000070 d6 34 c2 41 f8 78 a6 41 40 88 d6 3e 8f bb 85 41
       24.275799 20.809067 0.41900826 16.716581
000080 5d d6 76 41 30 66 7c 41 6a 6d 87 41 8e 58 ca 41
       15.427335 15.774948 16.928425 25.29324
000090 13 e5 99 41 ed 1b ad 41 42 81 95 41 16 b9 a4 41
       19.236853 21.638636 18.688114 20.590374
0000a0 c5 ad 8e 41 7b 69 5d 41 b2 f1 80 41 f8 c9 26 41
       17.834848 13.838252 16.118015 10.424309
0000b0 13 c4 5a 41 7a fa ff 40 b8 91 2d 41 cf 22 73 41
       13.67287 7.9993258 10.848076 15.195998
0000c0 84 6c 34 41 93 d0 c1 41 70 cf 37 41 64 50 68 41
       11.276493 24.226843 11.488144 14.519627
0000d0 6e 1f 82 41 2f 9c 57 41 16 41 90 41 24 77 c7 41
       16.265347 13.475631 18.03178 24.933174
0000e0 2f 24 64 41 45 e6 b5 41 63 da a5 41 34 bf 84 41
       14.258834 22.737436 20.731634 16.59336
0000f0 7e 76 5f 41 5e 05 2f 41 7c 45 67 41 d7 17 54 41
       13.966429 10.93881 14.454464 13.25582

representation_encoder.10.running_var f4 [64]
000000 bb 51 a3 42 61 55 08 43 c1 a5 9a 42 3b a9 13 43
       81.65963 136.33351 77.32374 147.66106
000010 be 9c a1 42 85 4e 07 43 e3 8a b7 42 20 15 d9 42
       80.80614 135.30672 91.77126 108.54126
000020 fb fd 24 43 f9 e2 d0 42 b7 ad f2 42 68 b5 7a 42
       164.99211 104.443306 121.33929 62.677155
000030 e2 ca ad 42 91 1e 46 43 19 e5 b4 42 d4 d3 5f 42
       86.896255 198.1194 90.44746 55.956863
000040 06 8d 07 43 9f 0a fa 42 75 d4 1d 43 17 3e a0 42
       135.55087 125.020744 157.82991 80.12127
000050 1c 44 af 42 50 32 8e 42 ff ac 23 43 a6 c6 12 43
       87.633026 71.09827 163.67577 146.77597
000060 79 a4 ec 42 f2 a4 c6 42 81 0f 52 42 40 46 56 43
       118.321236 99.32216 52.51514 214.27441
000070 9e e6 c9 42 36 68 92 42 86 d6 8b 43 a0 d0 34 42
       100.950424 73.20354 279.67596 45.203735
000080 2c 17 89 42 d8 72 90 42 76 8a af 42 4c 5e b1 42
       68.54526 72.224304 87.77043 88.68417
000090 6b e2 83 42 24 10 1d 43 45 c7 ac 42 bc 52 f0 42
       65.94222 157.06305 86.3892 120.16159
0000a0 8a 6a 71 42 66 34 4f 42 c8 06 b0 42 3d 21 3b 43
       60.354042 51.80117 88.013245 187.12984
0000b0 70 a7 89 42 f1 04 f2 42 47 49 a7 42 aa 22 36 43
       68.82703 121.00965 83.64312 182.1354
0000c0 cb 19 26 43 01 0e 1d 43 74 90 d6 42 35 d5 25 43
       166.10075 157.0547 107.282135 165.83284
0000d0 c4 62 0b 43 40 98 04 43 c2 a0 0e 43 f1 93 bf 42
       139.3858 132.59473 142.62796 95.78895
0000e0 5b 1f 0f 43 65 aa 82 42 89 a9 d1 42 b2 b3 a2 42
       143.12248 65.3328 104.83112 81.35097
0000f0 9a bb 09 43 01 55 56 42 d3 25 d6 42 74 1d 9c 42
       137.73282 53.58301 107.073875 78.057526

representation_encoder.13.weight f4 [16, 1024]
000000 e4 f9 27 3e 36 0b 57 bd 34 22 7d 3f 95 48 b0 3f
       0.1640392 -0.052500926 0.98880315 1.377215
000010 33 ae 04 bf 15 6d 78 bf a1 8e 61 bf fb 7d 62 bf
       -0.51828307 -0.97041446 -0.8810826 -0.8847348
000020 dd 7d d0 3e 50 37 c2 3e 73 7c 91 3e 17 de 29 3f
       0.40721026 0.37932825 0.2841526 0.6635451
000030 1a eb ad be 5a 0b e2 3e a4 aa 00 3f 3a fe 1b 3f
       -0.3396843 0.44149286 0.50260377 0.60934794
000040 69 71 95 3e 9d 66 19 3f 9f 20 88 bd 29 2a a1 3e
       0.29188088 0.599222 -0.06646847 0.31477478
000050 2f e6 ad 3e 68 a4 43 bf 8a 86 38 3f 10 d5 46 3f
       0.3396468 -0.7642274 0.7208029 0.7766886
000060 0b 30 29 bf 8a 52 7c bf da 3f c1 3f 67 13 a9 3e
       -0.6608893 -0.98563445 1.5097611 0.33022615
000070 a6 d8 77 3e 8a e0 13 3e dd be 16 bf 2b 9e ef be
       0.24203739 0.14441124 -0.58884984 -0.4680036
000080 a2 6a 2a 3f ed 29 12 3f f4 d8 b7 be 2b 5d 4c 3f
       0.6656896 0.57095224 -0.3590771 0.79829663
000090 c0 32 ad be a2 20 19 be 71 f2 37 3e e9 2e 68 3f
       -0.33827782 -0.14953855 0.17963578 0.9069658
0000a0 49 9c ed 3e 90 2a d5 3e 7a 3f 9c 3f 74 1e 5d 3f
       0.464083 0.41634035 1.2206872 0.8637459
0000b0 be 3b 1d 3f 4d 7a 29 3e 98 e5 0d be 61 d8 98 3e
       0.61419284 0.1655056 -0.13857114 0.29852584
0000c0 1f 8d a5 bb 78 5f a3 3e 04 fa 18 3e 78 13 52 3f
       -0.0050522233 0.31908774 0.14939123 0.82060957
0000d0 dc 15 2b 3d d0 52 57 bf 57 35 db be 4e 3b d2 3e
       0.041768894 -0.84110737 -0.42814133 0.4106087
0000e0 d0 14 fa 3d 50 1c 37 3f 60 5a 9a 3f 7a 01 04 bf
       0.12211001 0.71527576 1.205883 -0.51564753
0000f0 c0 f0 27 3f da 68 26 3f 66 e6 38 bf 90 f3 b9 3e
       0.6560173 0.6500374 -0.7222656 0.36318636
000100 90 9b 97 3e 86 bc 85 3f af 68 54 3e 78 a9 23 3e
       0.29610872 1.0448158 0.20743059 0.15982616
000110 ec f5 88 3e f6 ee 3a bf dc 3a 6d be 32 f5 73 3f
       0.26750124 -0.73020875 -0.23166984 0.95296013
000120 64 1e 10 bd cf 91 d6 bf d8 f8 bf bf 4b 41 2b 3f
       -0.035185233 -1.6763247 -1.4997816 0.66896504
000130 92 56 33 3f c3 17 f7 be 10 69 99 bd 6e 32 91 bf
       0.7005397 -0.48260316 -0.07490742 -1.1343515
000140 0b 07 c7 bc ed da 61 3e c0 1a 5c bf 75 ce fe be
       -0.02429535 0.2205617 -0.8597832 -0.4976689
000150 f4 3f ea 3e 54 56 12 3f 04 e1 ae bd c2 87 fd be
       0.45751917 0.57162976 -0.08539012 -0.49517637
000160 ff ad 60 3f de 79 df 3e 5f b0 0e be 5b 2f 82 3f
       0.87765497 0.43647665 -0.13934468 1.0170702
000170 a6 9a 1b be 73 8b f1 be ab 97 d1 3e 0e ba 2d 3f
       -0.15195712 -0.47176704 0.40936026 0.6786202
000180 1f e7 a6 3d f9 1a ee bc 3e ed 25 3e fb 9c 10 3f
       0.081495516 -0.029065596 0.16203782 0.56489533
000190 95 bb 91 be e4 04 48 3f 75 9b 0a 40 3b 15 18 3f
       -0.28463426 0.7813246 2.1657383 0.59407395
0001a0 66 38 67 3f 43 94 20 be ed bf ae 3e 61 fa fe be
       0.9032043 -0.15681557 0.34130803 -0.498004
0001b0 61 f0 6e bd a3 2f 95 be e3 73 4e bf d2 08 fb 3c
       -0.058334712 -0.29137906 -0.8064558 0.030643854
0001c0 4c 48 cc 3d f2 11 46 be 4d fa ab bf bb 0e d9 3d
       0.09974727 -0.19342783 -1.3435761 0.10598513
0001d0 04 01 9f 3e 21 98 66 bf 77 13 5a bf 87 f0 fa bd
       0.31055462 -0.9007588 -0.8518595 -0.12252908
0001e0 fc 34 93 3e ef a6 71 3d 74 92 d8 3e db 15 2b bd
       0.2875136 0.05899709 0.42299235 -0.04176889
0001f0 0b fa 97 3e 30 6b 65 3f f2 5a 6f 3f 21 8f fb bd
       0.29682955 0.8961668 0.93498147 -0.12283159
000200 d8 1d 3e be 46 61 68 3f aa 59 bf 3d 44 5e 2f bf
       -0.18566072 0.9077343 0.09343274 -0.6850321
000210 c0 ab 21 bf 93 c1 b2 be a6 12 8b be 3a d9 5f be
       -0.63152695 -0.3491331 -0.27162665 -0.21860209
000220 fa d6 ff be 64 20 c0 bf 04 73 1e bf 0b 8c ad be
       -0.49968702 -1.5009885 -0.6189425 -0.33895907
000230 26 1a 6c 3f f1 fc 44 be 59 14 f4 3e fd 81 2c 3f
       0.922274 -0.19237114 0.47671774 0.67385846
000240 c2 a2 9f be 7b 55 8b be c1 ee 98 3f 56 ce 86 3f
       -0.31178862 -0.27213654 1.1947862 1.0531719
000250 b2 07 5d bf dc 03 75 bf 8f a5 1b 3d aa 67 75 bf
       -0.8633987 -0.95709014 0.037999686 -0.95861304
000260 e2 4c 8c be b3 68 c5 bd 09 cc 13 bf 76 fa d2 bd
       -0.27402407 -0.096391104 -0.5773321 -0.10301678
000270 3c d3 78 3e 9c 8e 00 be 02 d6 c2 3c 1f 7f 72 3e
       0.2429933 -0.12554401 0.023783688 0.23681305
000280 0e 7f f4 3e 9e 5b c5 3f 72 8a db 3d a5 50 08 3f
       0.47753185 1.5418584 0.10719766 0.53248054
000290 dc 94 c9 be dc da 35 3f bc 17 41 3f 82 95 2f bf
       -0.39371383 0.7103708 0.7542684 -0.68587506
0002a0 0b 61 b6 3e 88 29 ac 3f d0 19 87 3f 73 bd 01 3d
       0.35620913 1.3450174 1.0554752 0.031674813
0002b0 33 63 2e 3f 96 ab af bf ff e2 ca bf 43 9c 1f 3f
       0.68120116 -1.3724239 -1.5850524 0.6234781
0002c0 c5 c2 25 3e a7 53 99 bf a7 24 82 bf a1 fd eb be
       0.1618758 -1.1978654 -1.0167435 -0.4609194
0002d0 25 aa 68 3f 04 1b 06 3f a7 ac 79 3f c5 46 7a 3f
       0.9088462 0.5238497 0.9752907 0.97764236
0002e0 d8 cb 89 3f 98 9a 41 be 72 40 cd 3f 62 04 82 3d
       1.0765333 -0.18906629 1.6035292 0.06348492
0002f0 a2 ae fc be 58 3e f0 bc 08 bf 7c 3f 7c 44 40 bf
       -0.49351984 -0.029326603 0.9872899 -0.751045
000300 2f be 87 be da 07 a5 3e 16 72 51 3f e8 94 28 3f
       -0.26512286 0.32232553 0.81814706 0.6585221
000310 4a bd 6d 3f 96 4c 12 3f 59 0c c8 3d 92 1d 59 3f
       0.9286696 0.5714811 0.0976798 0.84810746
000320 7c e6 be bd 21 14 4a 3d 63 4d ab bf 34 86 a2 be
       -0.09321305 0.049335603 -1.3382992 -0.31743014
000330 3d ee 8d be c8 94 62 bf 93 7d 5e 3f 29 74 ed bc
       -0.27720824 -0.8850827 0.8691036 -0.028986054
000340 9c 35 aa 3d 98 16 3a be 32 49 b9 3e 20 7e 9d 3d
       0.083110064 -0.18172681 0.36188656 0.07690072
000350 ce 00 ce 3e 64 27 02 3f e9 c5 67 3f 90 41 91 be
       0.4023499 0.50841355 0.9053636 -0.28370333
000360 8b ee 4f bf 7a b2 06 40 96 63 61 40 9c 3d ab 3c
       -0.8122336 2.1046433 3.5217032 0.020903401
000370 8d 55 56 3e 06 2f f8 bd 45 d4 67 3f 0f a5 58 3e
       0.20931073 -0.12118344 0.9055827 0.21156715
000380 ee 7b 7d bd 10 98 3b bf 65 c6 f5 be 46 e8 1e 3f
       -0.061885767 -0.73278904 -0.48002926 0.6207317
000390 c6 80 1d bf b6 3b 08 3f 52 43 57 3f 93 8d 1c bb
       -0.6152462 0.5321611 0.840871 -0.0023888096
0003a0 e5 f9 5e 3f a8 a8 4a be df 6a ad be 19 60 34 bf
       0.8710006 -0.197909 -0.338706 -0.70459133
0003b0 ca ed e9 be 7d 22 9e bf 90 d4 a7 bf 22 c4 7c 3f
       -0.4568923 -1.2354275 -1.3111744 0.98736775
0003c0 77 02 07 3f 41 b5 25 be 9c 87 4b bf 8b fa ad 3e
       0.52738136 -0.16182424 -0.795038 0.33980212
0003d0 71 80 bb be a3 24 75 3e ca 01 31 3e 88 14 0b bf
       -0.3662143 0.23939757 0.17285839 -0.54328203
0003e0 4b 22 b9 3e d5 73 74 bf 45 83 4d bf 03 e7 07 3f
       0.36158976 -0.95489246 -0.80278426 0.5308687
0003f0 4b 70 6a 3e 2f f9 97 bf 3d 76 cf bf 9c 3f 01 3f
       0.22894399 -1.187292 -1.6207958 0.50487685

representation_encoder.13.bias f4 [16]
000000 42 02 51 bf c1 2a 1f be 71 5f 04 be c0 2a c7 bd
       -0.8164407 -0.15543653 -0.12927033 -0.09724951
000010 7b 96 30 bf 9f e1 56 3f 31 de 19 3f 3d 7a 90 be
       -0.68979615 0.8393802 0.6010466 -0.2821826
000020 cd 50 a8 3d 06 9a 5e 3f 5d c9 b0 be a6 55 ac bd
       0.082185365 0.8695377 -0.34528628 -0.08414774
000030 e5 e1 3e bd 54 9b 44 bf 3f 84 e3 3e 3b 9d a8 be
       -0.04660215 -0.7679951 0.44436833 -0.32932457

representation_encoder.15.weight f4 [2, 16]
000000 e9 1b 5f bf ec c0 63 3e a6 4a f1 3e aa b2 d3 be
       -0.8715196 0.22241563 0.47127265 -0.41347247
000010 6e c9 a4 be 7d 60 85 be e0 79 f3 3e 9e b3 d4 be
       -0.3218493 -0.26050177 0.4755392 -0.41543287
000020 c1 c8 87 be 3c da 3f bf b5 ee 58 3f c7 de b9 be
       -0.2652035 -0.74942374 0.8473924 -0.36302778
000030 14 71 e7 be 04 fe 03 3f 1a ac 1a be 5b ec 50 bf
       -0.4520346 0.5155947 -0.15104714 -0.8161065
000040 96 ed 22 bf 1d 3d 45 bf 02 9c c3 3e d9 5f 72 3e
       -0.6364378 -0.77046376 0.38204962 0.23669375
000050 d3 d0 08 3f 82 34 09 bf fa ca 57 bf 30 e0 09 bf
       0.5344364 -0.53595746 -0.8429409 -0.5385771
000060 7a 93 61 3e 90 64 4f 3f 80 d9 25 be 3b 9b 91 bf
       0.22028914 0.8101282 -0.16196251 -1.1375498
000070 cc 9c d8 be 55 25 24 3f f3 67 05 3f 7a 1b bc 3e
       -0.42307127 0.64119464 0.5211174 0.36739713

representation_encoder.15.bias f4 [2]
000000 f8 4a dc 3b 9f 85 02 3e
       0.006722804 0.12746285
