mnist_results/2d_original_perceptual_wgan-gp/mnist_disc_state_dict.pth (torch, 58856 bytes, 7 tensors)

main.0.bias f4 [8]
00000000: 4757 883e a56a 5f3c c3ec f73b 591d c53f
00000010: 4af9 593e 0c0f 7f3c 96e9 e53b 6620 593c
0.26629087 0.013636266 0.007566066 1.5399581 0.21286502 0.015567552 0.007016371 0.013252353

main.0.conv.weight f4 [8, 1, 3, 3]
00000000: 3f5b c53d 0bd9 f73d 854f fe3d 163d 093e
00000010: 7a11 e73d 191a c33d 4db0 a43d 0c1e 033e
00000020: 4706 ed3d 0201 f0bd 11c6 21be e361 473c
00000030: 4c9d 8c3d 034c f53d 7f34 b33d f34a a63d
00000040: f38c 663d 8e20 513c 9dbc 833d 7e66 5b3c
00000050: af6c 01be 47e9 ca3d a149 f43d 79fb 8bbc
00000060: e3cd 813d 7cf5 c73d 178a 143d ef19 a6bc
00000070: b975 183d 16c6 303d d8e6 7a3a da45 5e3d
00000080: 4b81 dbbd b262 ff3c 901d 683d 95f9 8ebd
00000090: b637 b03d b306 39bd 9c6c 9cbd f8c6 e53d
000000a0: ece3 bebd 8a6b eebd 906a 843d e329 de3c
000000b0: 11da 3b3d 5708 703d 1abe 083e 6788 2e3d
000000c0: ec97 aebd 50fc c53d 1c6a fb3d c16b 33be
000000d0: d9bd adbc 627e 093e cf8c b23c 724b 8e3d
000000e0: 761e 823d 9b6e ec3d 347c 273e 995d 073e
000000f0: ffe8 f83d 0763 773d 2c21 e5bd 11ff 05bd
00000100: 5a9f a23d 16ab 0d3d df30 27bd f934 9f3d
00000110: a741 523d c565 633c 31ca a73d 05e0 3e3d
0.096365444 0.121019445 0.12417511 0.13402209 0.1128263 0.09526462 0.08041439 0.1280443
0.11573463 -0.11718942 -0.15798213 0.012169334 0.068659395 0.11977389 0.08750247 0.08119764
0.056286763 0.012764109 0.064324595 0.013391135 -0.12639116 0.09907775 0.11928106 -0.017087685
0.06338098 0.09763619 0.036264505 -0.020276038 0.037221644 0.04315766 0.00095711416 0.054265834
-0.1071802 0.031174991 0.056668818 -0.06981198 0.08604376 -0.045172404 -0.07637903 0.11219591
-0.093208164 -0.11641605 0.06465638 0.027119583 0.04586226 0.058601703 0.13353768 0.042610552
-0.085250705 0.096672654 0.12276098 -0.17521574 -0.02120869 0.13427117 0.021795658 0.06947984
0.06353466 0.11544534 0.16355973 0.13219298 0.121538155 0.060397174 -0.11187968 -0.032713953
0.0794055 0.03458699 -0.04081809 0.077737756 0.051332142 0.013879244 0.08192862 0.04660036

main.3.bias f4 [16]
00000000: 9b64 48bf 4515 4d40 120e 2d3f 57a0 ebbe
00000010: 356d 1abf 02bb cabd e908 97bf 8352 fa3e
00000020: 4243 af3f 188e d43f 8854 83be 8a72 6fbf
00000030: 068a e7bf 73ba 9ebf 8eb3 423e fa3e b8bf
-0.7827851 3.2044232 0.67599595 -0.46020767 -0.60322887 -0.0989895 -1.1799594 0.48891076
1.36924 1.6605864 -0.2565043 -0.9353415 -1.8088996 -1.240065 0.19013807 -1.4394219

main.3.conv.weight f4 [16, 8, 3, 3]
00000000: 60d8 9abf b913 36bf 98f7 0ebd c1c9 b13e
00000010: 8a05 743f f498 b63e e2a0 2a3f af4b 5f3f
00000020: 37a1 173e c82c 7cbf 7929 433f 6248 853f
00000030: 4f47 2b3f e3bd ea3f d964 c23f 1c8f 913f
00000040: 63f0 913f f04b 8a3d 3465 5fbf ed5a 55bf
00000050: 6cf8 41bd 04d3 503e 7d9c 4a3f 17b9 003f
00000060: 3be4 bf3e 8849 3f3f f729 533f 0a5b 46be
00000070: 3a02 62be 100e 5f3f 9325 8dbd 286a e93e
00000080: 94af 0f3f 6cb5 c33e a407 4d3f 021b 113f
00000090: 9f10 223e a0da 053f 8fd6 133e 0c8b 103f
000000a0: ee2c 0c3f aab5 313f 2341 61bd 62f8 25be
000000b0: 5cc2 b43e 2c1c 01bf 3e8b 10bf ce79 1dbe
000000c0: 3f24 0abf 0323 d8bd d4ab 0fbf ffdd 453e
000000d0: 6967 fb3e 661e 34be 4878 7dbf 416c c9bf
000000e0: 2ae3 713e f9d3 25be 91ab 083f ba40 073f
000000f0: 7404 3d3e 3e57 483f ad6a f23e 301d c2bf
00000100: 57eb 0ebe 043a ef3e 63af b53e 7c92 943f
00000110: 4d6b 823f 5636 6c3e eb98 063f ad2a 00bf
00000120: caa0 adbf e3a6 f5bf 592c b7bf 19f2 82bf
00000130: 77ac 2abf e086 94bf 0fff c9bf 80d1 8cbf
00000140: 9db0 13bf 4e65 b1be 51eb 6f3e 3430 433f
00000150: 5116 2fbf ad98 2fbf 3c2e f8be 5e33 70bf
00000160: 366f 913d 7c46 903e bd70 01bf cb47 d6be
00000170: 9040 cfbd 37c1 66bf 2d73 68bf 2f96 3cbf
00000180: 3a18 12c0 0149 e5be fe44 1a3f da53 fdbe
00000190: 574e 22bf d394 4fbd be5f a0be afe6 62be
000001a0: 687b 9ebe adf3 c8be 5be3 af3d 7533 0abf
000001b0: 9c53 523d 9725 9d3d 562d 0f3f 7ffa 9dbe
000001c0: 6831 e2be 0201 9cbe 0a1a 59bf 34fd 3dbf
000001d0: 0b20 b7be a9dd c4bd d3aa d0bd c783 46bf
000001e0: 34bb 35bf eddb 8dbc e256 09bd 52fb 4d3e
000001f0: fc13 083f c19b c33e 7fec 1abf 2929 23bf
00000200: 84a8 5abf 6e50 15bf 8b18 46bf 1c04 29bf
00000210: 7db0 d4bf 92ce 60bf 9d77 02bf 0a44 bf3e
00000220: 54c7 4bbf 4463 1fbf 9a86 00bf 257c 64bf
00000230: 3663 94bf 0672 09c0 cbdf aebf 37e9 c33e
00000240: a62b 223e 768e cbbe f8f6 2dc0 b9ba 4b3f
00000250: 1891 78bf 9f17 68bf 5cab 6b3e 9227 eb3e
00000260: 8785 803f 771e 00bf 486c 51bf 59dd e3bf
00000270: d668 b0be dead 0abe 4560 60bf cd58 243f
00000280: 3387 193f 68f4 213f 365b 32be 3d88 09bf
00000290: 293c fbbf 50c4 eb3e 7427 2fbf b545 06c0
000002a0: d106 833f edc6 913f dba5 bebe bce9 143f
000002b0: 572b acbe e0af 80bd 64be ab3e cdf0 69bf
000002c0: 8cd6 9abe c56c 0d3f a3d6 f13d 622e 1e3f
000002d0: f39e 283f ba9b fc3e 833f f9be 0541 5b3f
000002e0: 1f76 dabb c447 9dbd 3cd4 543f 3cdb 733f
000002f0: 1cff 213f 14a2 8dbd bb5c 7abf 5fa7 ddbf
00000300: 1b80 7dbe b63c bdbf f709 93bf 678c f43e
00000310: 2058 acbf f504 12bf f761 243e dc27 a5bc
00000320: 0b58 00c0 0cdd 7f3e 6159 84bf 6f6a eebf
00000330: ad30 e4bc 8c7a 59be 36fd eabe 0c1c 1b3f
00000340: f963 00c0 7bb6 30c0 1067 abbe 9825 f1bf
00000350: f37b 81bf 37f5 833f 32ad 893e 9115 763e
00000360: d8fc d73f 43c5 0d40 8678 b03f e326 0440
00000370: fd61 5e3f 9789 d4be fe06 e73f 1d97 fc3e
00000380: 55c4 17bf ee9d fc3e 6b2d 883e 070c a9be
00000390: b092 9f3e d070 403e bd29 64bf 7192 b73e
000003a0: 6f59 98be 811a 95bc 3411 533f ede6 5e3f
000003b0: eb21 3a3f f404 f53e 43d5 ab3c d1d7 713e
000003c0: 161b 463f 4682 5f3f 8395 17be 8a9e 893e
000003d0: cbac 813f 32b2 7ebf 2ad8 1e3f 9fde 023f
000003e0: d6a9 7bbf eb55 8c3f f5df 143f 421b e4bf
000003f0: 77e5 10bf a78d cc3e 76af 3dbd 37a9 6d3d
-1.2097282 -0.71123844 -0.034904093 0.3472424 0.9532095 0.3566357 0.6665174 0.8722486
0.14807592 -0.9850583 0.7623516 1.0412714 0.66905683 1.8339199 1.5187026 1.1371799
1.1401485 0.06752765 -0.872638 -0.83341867 -0.047356054 0.20392996 0.7914503 0.50282425
0.37478814 0.74721575 0.8248591 -0.19370666 -0.22071162 0.8713083 -0.06891932 0.45588803
0.56127286 0.3822435 0.80089784 0.56681836 0.15826653 0.5228672 0.14437316 0.5646217
0.5475606 0.6941782 -0.05499376 -0.16208032 0.35304534 -0.5043361 -0.56462467 -0.15378496
-0.5396156 -0.10553553 -0.56121564 0.19322966 0.49102333 -0.17589721 -0.9901166 -1.5736161
0.23621812 -0.16194142 0.5338679 0.5283314 0.1845873 0.7825812 0.47347012 -1.5165157
-0.13956963 0.4672395 0.35485372 1.1607203 1.0188996 0.23067603 0.52577084 -0.5006512
-1.3564694 -1.9191555 -1.4310409 -1.0230132 -0.6666941 -1.160366 -1.5780963 -1.1001434
-0.57691365 -0.34647602 0.2342961 0.7624543 -0.6839343 -0.6859234 -0.48472774 -0.9382838
0.0710129 0.28178775 -0.5056265 -0.4185165 -0.10119736 -0.9013857 -0.90800744 -0.7366666
-2.2827287 -0.4478226 0.60261524 -0.49478036 -0.6340079 -0.05067904 -0.31323045 -0.22158311
-0.30953526 -0.3924841 0.085882865 -0.5398477 0.051349267 0.07673185 0.5592855 -0.30855176
-0.4417832 -0.3046952 -0.8480536 -0.7421448 -0.35766634 -0.09612591 -0.10188832 -0.77544826
-0.70988774 -0.017316783 -0.033530124 0.20115402 0.53155494 0.38204768 -0.60517114 -0.6373468
-0.85413384 -0.5832585 -0.773812 -0.66021895 -1.661636 -0.878152 -0.50963765 0.37356597
-0.79601026 -0.6226084 -0.50205386 -0.8925193 -1.1592777 -2.1475844 -1.3662046 0.38263866
0.15836963 -0.39757127 -2.7181988 0.7958179 -0.97096395 -0.9066104 0.23014587 0.45928627
1.0040749 -0.50046486 -0.8180585 -1.7801925 -0.34454983 -0.13542888 -0.87646896 0.64198
0.5997192 0.6326356 -0.17417607 -0.5372351 -1.9627734 0.46048212 -0.68419576 -2.0980046
1.0236455 1.1388832 -0.37235913 0.5816915 -0.33626816 -0.062835455 0.33543694 -0.9138306
-0.3024181 0.55244094 0.11808517 0.61789525 0.6586754 0.4933756 -0.48681268 0.85646087
-0.006666913 -0.07679704 0.83136344 0.952564 0.6327989 -0.069156796 -0.97797745 -1.7316703
-0.247559 -1.4784153 -1.1487416 0.47763368 -1.3464394 -0.57038814 0.16052996 -0.020160608
-2.0053737 0.24986666 -1.0339776 -1.8626231 -0.027855242 -0.21238154 -0.4589631 0.6058967
-2.0061018 -2.7611377 -0.33477068 -1.8839598 -1.0115951 1.0309209 0.2688995 0.24031664
1.6874037 2.215165 1.3786781 2.0648735 0.8686827 -0.41511223 1.8049009 0.4933404
-0.59283954 0.4933924 0.2659715 -0.3301699 0.311666 0.18793035 -0.8912619 0.35853913
-0.29755732 -0.018201115 0.82448125 0.87071115 0.72708005 0.4785534 0.020975715 0.23617484
0.7738508 0.87308156 -0.14803128 0.26878768 1.0130857 -0.99490654 0.6204859 0.5112094
-0.98306024 1.096372 0.5815423 -1.7820818 -0.56600136 0.39951822 -0.04630991 0.058022704

main.7.weight f4 [16, 784]
00000000: 457b a2be 32b4 c2be f8ae 9a3e 3a60 9e3e
00000010: fe69 043f bea5 bebf ea2a 433e c369 043f
00000020: 3f58 76bf af79 fdbd 7e2e 1340 ab8e 2cbf
00000030: 5837 11c0 7ad2 873d f88c 3a3d d7df 9abf
00000040: 4119 003f e7f0 09bf 5069 983f 3938 913e
00000050: 02ed 0fbf 69e1 fabd f8e4 22bf 2fcb 533f
00000060: 056c dabf 1bbc a03f 10c1 99bf 9d8d 2ac0
00000070: f99b 88be 5237 9e3d 950d 0bc0 b737 1940
00000080: 9538 5cbf a738 383f d7aa da3e b1b3 8f3e
00000090: 4b76 3ebe ed53 34bf 3487 0a3f e995 0740
000000a0: f7f5 4c3e 98be c23e 13bb d0be cbc9 bc3e
000000b0: 4f8c 263f b9fe 0540 ad13 c43f 035d a1bf
000000c0: 8276 30bf fc4b 5a40 4958 f53d e33a 143f
000000d0: b417 c7be 6cb8 823e 57a0 99be 56b2 6c3f
000000e0: df99 703e 4052 00bf 1c87 ad3e d304 30bf
000000f0: c22a c6be ae95 0e3f a3ed 8dbf f799 b4be
00000100: d851 713d 8b69 a13e a21b cd3e 4e9c 2abe
00000110: e375 08bf 8b96 d83f 3f07 cebe 542c 9bbe
00000120: 8d11 86bf 8541 c53f bcf9 2e40 d306 f6bf
00000130: 3888 87be c571 55bf 2923 8e3f 8ae0 49be
00000140: abb7 4540 7dc7 20c0 5b2a 3fbe ac91 ae3e
00000150: cfd4 71be 37c6 1a3d be1d 3b3f 414d e33e
00000160: 21bd 9a3e 55af 5f3f 5abd 003e e295 e63f
00000170: 9dbb c43d 5ad3 ee3f 37bd 25c0 597c 4f40
00000180: 1e0b 1ebf 5499 273f e7e4 d73e 6396 57be
00000190: 8666 463f 595e 98bf 8ffe c3bf e457 bbbf
000001a0: 76b4 c83e 3ee0 0ebf 5fdf a0bf 6a9c 793f
000001b0: e8d5 a1bf b364 83bf e133 b3be 5ac0 aabf
000001c0: 1639 23bf 538e f93e 442c 62bf e68b 053f
000001d0: f7d4 0bc0 f3c7 20be 15c3 ebbe c957 85be
000001e0: 97d9 c8be 8b83 88be b5ff 0640 8f92 ac3d
000001f0: 5f24 b5bf abb0 8d3d 7de6 093f c74c 693f
00000200: 62dd fb3e 803b 1dbf 0ff8 bebf 36ae 99be
00000210: 1556 f8be 9fd9 edbc aef5 3e3e 3075 b3bf
00000220: bcfd 96bf e7cd 84be 9914 6fbd 11f8 e0be
00000230: 153c 3b3c 44f3 9f3d e671 d43f b6a2 933e
00000240: 43b2 8a3e 6d80 2b3e 3362 0c3f 2923 e43e
00000250: cb6c a73d 3706 b8be 4311 e63f 8e1e df3e
00000260: 890d cfbf 28a5 823f 40fd 023f 9081 92bf
00000270: 0142 b53e 1c75 abbe bd1b 54bf d5d7 ccbe
00000280: ffe9 9bbf f60f d9bd efa4 8cbe 2a1c ad3f
00000290: 4681 f43e 825c fd3c 4576 9fbf 3d30 d7bf
000002a0: 6c7f b63e 7a45 84bf d9c7 c2be 3aed a13f
000002b0: 28ec 843f 3961 1640 c334 d8bf 8e4b 17be
000002c0: 1e8e 0140 b1e0 363f ca67 1fc0 b8ff 833f
000002d0: ac04 183f e2dd 17bf fea5 883e e438 38bf
000002e0: 8ba3 0ebf 0751 ec3f c0cb 4b3f 870a 1c3f
000002f0: efe7 653f 6481 05bf 6364 783e d4ec eebe
00000300: 3b1a 2a3f 596f 2540 7795 edbf ab72 663e
00000310: b312 753e 1500 273f 0e2b f73e 6bf6 1b3f
00000320: 8ad5 a33e 10c2 b2be 5ae2 39bf 55a6 86bd
00000330: 3f12 33bf 7d18 1b3f 4ec4 fc3e 6a25 253c
00000340: 3f2e 3fbf 1629 623e 1799 edbe b739 bdbf
00000350: c66d 35bd abef 833e 5f7a c7bf a2a4 dbbe
00000360: b219 4c3d 63f0 d3be 433a c7be 5ff0 3f3f
00000370: cfce 283f a1bb 273e 02fd 0dbc f63e c9be
00000380: ab45 babe f99e 0b3e 1803 41bf 23e4 b33f
00000390: f222 de3f 653e 33bd fba9 143f 9f4e c5be
000003a0: 1fae abbe 8e14 e3bd d324 793e 129f 02c0
000003b0: 62aa 013f 2542 6dbe 61d8 d5be 1404 843f
000003c0: 6888 bb3f f571 9a3f 4802 d33f 0b53 f5be
000003d0: 6146 15be 70ec 6b3f 40a8 9cbe 4114 f3be
000003e0: f5a0 843e f3de e43e 7f44 273c 4a5e f03d
000003f0: f16e 26bf 85a5 adbe 1c1d 67be 149b b13d
-0.31734672 -0.38028103 0.30211616 0.3093279 0.5172423 -1.489433 0.19059339 0.5172388
-0.962284 -0.12376725 2.2997127 -0.67405194 -2.269003 0.06631942 0.045544595 -1.209956
0.50038534 -0.5388321 1.1907139 0.28363207 -0.5622102 -0.12250025 -0.6363063 0.8273191
-1.7064215 1.2557405 -1.2012043 -2.6648934 -0.26681498 0.07725395 -2.172704 2.3940256
-0.8602384 0.71961445 0.42708465 0.2806678 -0.18599813 -0.7044056 0.54112554 2.1185248
0.20015703 0.38036036 -0.40767726 0.36872706 0.65057844 2.093672 1.5318505 -1.260651
-0.6893083 3.4108877 0.1197973 0.57902354 -0.38885272 0.25531328 -0.30005142 0.9245962
0.23496197 -0.50125504 0.33892143 -0.6875736 -0.38704497 0.55697143 -1.1088146 -0.35273716
0.058915943 0.31525835 0.40060145 -0.16661188 -0.5330488 1.6920942 -0.40239903 -0.30307257
-1.0474106 1.541062 2.7339926 -1.9220833 -0.26471114 -0.83376724 1.110448 -0.19714561
3.0893352 -2.5121758 -0.18668501 0.34095514 -0.23616336 0.03778669 0.7309226 0.44394878
0.3022242 0.8737691 0.12572232 1.8014491 0.09606097 1.8658249 -2.5896738 3.2419646
-0.61735713 0.65468335 0.42166826 -0.21053462 0.7750019 -1.1903793 -1.531206 -1.4636197
0.3920018 -0.55810916 -1.2568167 0.97504294 -1.2643404 -1.0265106 -0.35000518 -1.3339951
-0.6375898 0.48741397 -0.88348794 0.52166593 -2.1848733 -0.15701275 -0.46047273 -0.26043537
-0.39228508 -0.2666286 2.109357 0.08426391 -1.4151725 0.06918462 0.5386732 0.9113278
0.4919234 -0.61418915 -1.4919451 -0.30015725 -0.48503175 -0.029034434 0.18648407 -1.4020138
-1.1796184 -0.2593834 -0.058369253 -0.4393926 0.011427899 0.07810071 1.6597259 0.28835076
0.27089128 0.1674821 0.5483734 0.44558075 0.081750475 -0.35942242 1.7974018 0.43578
-1.6176006 1.0206652 0.5116768 -1.1445789 0.3540192 -0.33487785 -0.82854825 -0.40008417
-1.2180785 -0.105987474 -0.27469584 1.352422 0.47754878 0.0309279 -1.2457968 -1.6811596
0.3564409 -1.0333703 -0.38043097 1.2650521 1.0384569 2.349684 -1.6891102 -0.14774916
2.0242991 0.714366 -2.4907098 1.0312414 0.5938213 -0.5932294 0.26689142 -0.7196181
-0.55718297 1.8462228 0.7960777 0.60953563 0.8980703 -0.5215056 0.24257044 -0.4666506
0.66446275 2.5849211 -1.8561238 0.2250468 0.23932914 0.652345 0.48275036 0.6092288
0.31998855 -0.34913683 -0.7261101 -0.06574694 -0.69949716 0.6058424 0.4936852 0.010079721
-0.7467994 0.22085986 -0.4640586 -1.4783238 -0.04429414 0.2576879 -1.558422 -0.42899042
0.049829192 -0.41394338 -0.38911638 0.7497615 0.65940565 0.16380168 -0.008666279 -0.39305848
-0.36381277 0.13634862 -0.75395346 1.4053997 1.7354414 -0.043760676 0.5807187 -0.38536546
-0.3353128 -0.11087905 0.24330454 -2.040959 0.5065061 -0.23169763 -0.41766647 1.0313745
1.4651003 1.2066027 1.6485071 -0.4791492 -0.14577629 0.9215765 -0.30597115 -0.4747639
0.2590405 0.44701347 0.010209202 0.11736734 -0.65013033 -0.33915344 -0.22569698 0.08672157

main.7.bias f4 [16]
00000000: 9678 5d41 2ac5 9ebf 5d58 dc40 2a20 dcbd
00000010: 24f4 8341 ef82 013d 9112 da3e ea02 bf40
00000020: 5be0 7bbf ff42 46bd 17a9 1440 1109 0bbd
00000030: 1587 28bf 76e2 b0c0 720d 303e 7437 f7c0
13.84194 -1.240392 6.8857865 -0.10748322 16.49421 0.03161901 0.4259229 5.9691057
-0.98389214 -0.048403736 2.3228204 -0.033944193 -0.6583112 -5.527644 0.17192629 -7.725519

main.9.weight f4 [1, 16]
00000000: 4371 48bd 77e5 bd3d 0677 8f3d d9cd f13d
00000010: 7327 bfbc 5409 af3d f03d c73d 77fa babc
00000020: 27c3 fabd 33a9 d23d 7582 f9bd f5ec 833d
00000030: 434c b53d f236 233e a6a6 a33d 0a70 a03d
-0.04893614 0.092722826 0.07005124 0.118068404 -0.02333424 0.08546701 0.097286105 -0.02282451
-0.122442536 0.102861784 -0.12183086 0.0644168 0.088524364 0.15938929 0.0799077 0.0783387
