mnist_results/gen_manipulable_ae_v4_perceptual_wgan-gp/mnist_disc_state_dict.pth (torch, 58856 bytes, 7 tensors)

main.0.bias f4 [8]
0	0x3f3b5588	0.73177385
1	0x3cc57f3a	0.024108518
2	0x3b770d55	0.0037697155
3	0x3ca2a037	0.019851787
4	0x3c051cc5	0.008124535
5	0x3bc38f75	0.005968029
6	0x3ce0057d	0.027346367
7	0x3e168c5e	0.14701983

main.0.conv.weight f4 [8, 1, 3, 3]
0	0xbda7ae6b	-0.081875645
1	0x3cbbeecb	0.022941014
2	0x3cc993ac	0.024606548
3	0x3d82ac59	0.06380529
4	0x3d665c7d	0.056240547
5	0x3c0c6f73	0.008571493
6	0x3d91cb7e	0.07118891
7	0xbcd8f783	-0.02648521
8	0xbd62245a	-0.05521045
9	0xbb4cd0e1	-0.0031252431
10	0xbd173838	-0.03691885
11	0xbd962cc2	-0.073327556
12	0x3d4675c3	0.04845215
13	0x3d659c6c	0.05605738
14	0xbd1e9e1a	-0.038724996
15	0x3d626523	0.055272233
16	0x3dbfe440	0.09369707
17	0x3ca0cf35	0.019630054
18	0x3d5e1836	0.054222308
19	0x3dc10493	0.094247006
20	0x3d0ddc8d	0.03463416
21	0x3d9145bd	0.0709338
22	0x3d520033	0.05126972
23	0xbc87cfb0	-0.016578525
24	0x3cdde6f0	0.027087659
25	0xbc856224	-0.016282149
26	0xbcc2a7a7	-0.023761583
27	0x3d5af99f	0.053460713
28	0x3d68616a	0.056733526
29	0x3d9e3cab	0.07726415
30	0x3d7d5ba8	0.06185499
31	0x3d7d625b	0.061861377
32	0x3dba4652	0.09095444
33	0x3d9a527b	0.07535263
34	0x3dbcd8a3	0.09221008
35	0x3db86026	0.09002714
36	0x3c253694	0.010083813
37	0xbd6b763e	-0.05748581
38	0xbcf53ade	-0.029935297
39	0x3e2171da	0.15766087
40	0x3dd09ca5	0.101861276
41	0x3cb93941	0.022610309
42	0xbdb7d837	-0.089767866
43	0xbcbd4dab	-0.023108324
44	0x3cbf5d0b	0.023359796
45	0x3d035029	0.03205887
46	0x3ddb21cb	0.10699805
47	0xbdc72b13	-0.09725013
48	0xbd3e5593	-0.04646833
49	0x3e2245d7	0.15846954
50	0x3cd3bbcd	0.025846386
51	0xbdb59e32	-0.08868064
52	0x3dcbae76	0.09945385
53	0xbd029dda	-0.03188882
54	0x3dc4ce00	0.09609604
55	0xbbf820a8	-0.0075722523
56	0xbd825692	-0.06364168
57	0x3da8af3a	0.08236547
58	0xbdf43ccc	-0.119256586
59	0xbd9053dd	-0.07047246
60	0x3d9dc29a	0.07703133
61	0x3dc07f34	0.09399262
62	0x3da10379	0.078619905
63	0x3d80a53d	0.06281517
64	0x3d00dbd9	0.031459663
65	0x3d3a68ab	0.045509975
66	0xbda8796d	-0.08226285
67	0xbe404675	-0.18776877
68	0xbd692802	-0.05692292
69	0xbdd53349	-0.104101725
70	0xbe06bca6	-0.13157901
71	0x3d8604c9	0.065438814

main.3.bias f4 [16]
0	0x3dc53e4f	0.09631025
1	0xbdbf70b1	-0.09347666
2	0x3d35c87e	0.044380657
3	0xbf2535b7	-0.6453509
4	0xbe5a8be2	-0.21342424
5	0x3d906e52	0.07052292
6	0xbdf906c3	-0.12159493
7	0xbd48c796	-0.049018465
8	0x3e9be471	0.30447724
9	0xbdb7ae63	-0.089688085
10	0x3ddc2f22	0.10751177
11	0x3d9466b8	0.072461545
12	0xbd2c74de	-0.04210364
13	0x3ce5a29c	0.02803164
14	0x3f350236	0.707065
15	0xbda1a02c	-0.078918785

main.3.conv.weight f4 [16, 8, 3, 3]
0	0x3dff3b23	0.12462451
1	0xbc7f8632	-0.0155959595
2	0x3d0b9bd8	0.03408417
3	0xbdc96800	-0.098342896
4	0xbe8ce55c	-0.27518737
5	0xbd52d7bb	-0.051475268
6	0x3d5e662d	0.05429666
7	0x3d0041ec	0.031312868
8	0x3e1a2344	0.15052515
9	0x3ebbfb27	0.36715052
10	0x3f23f509	0.6404577
11	0x3eae8d0b	0.34091982
12	0x3eb99d6f	0.36252925
13	0xbbda0ae4	-0.0066541303
14	0x3dae2699	0.08503456
15	0x3cc329be	0.023823615
16	0xbd2d46fe	-0.04230403
17	0x3e537115	0.20648606
18	0x3f1d406a	0.61426413
19	0xbe458a15	-0.19290955
20	0x3eb108c4	0.34577
21	0x3ccad5ef	0.024760215
22	0xbdebff11	-0.115232594
23	0x3ecc8034	0.3994156
24	0x3e03f165	0.12885053
25	0x3e52c658	0.20583475
26	0x3e777368	0.24165118
27	0x3f8d8380	1.1055756
28	0x3ee81e05	0.45335403
29	0x3ea1569c	0.3151139
30	0x3f28b0ca	0.6589476
31	0x3e9f8dde	0.31162924
32	0x3e8b1981	0.27167895
33	0x3efbd943	0.49189195
34	0x3f012f88	0.5046315
35	0x3f07ddbc	0.53072715
36	0xbd057620	-0.032583356
37	0x3c0ab688	0.00846637
38	0x3cb1cbd6	0.021703642
39	0xbade9d0e	-0.0016984062
40	0xbe5f24a2	-0.21791318
41	0xbe3e5b5a	-0.18589535
42	0xbd0c4a89	-0.03425077
43	0xbdaffd20	-0.08593202
44	0x3df82a38	0.121174276
45	0xbd646c76	-0.0557675
46	0xbdd2df1f	-0.10296463
47	0xbd1bf058	-0.038071007
48	0xbd0949a5	-0.0335175
49	0xbe83db6c	-0.25753343
50	0x3d8fb370	0.07016647
51	0xbd8e729f	-0.06955456
52	0xbe683d2a	-0.22679582
53	0xbd9f312e	-0.07773052
54	0xbd759d04	-0.059964195
55	0xbda458e2	-0.080247656
56	0xbde17458	-0.11008519
57	0xbe0d5320	-0.13801241
58	0xbe875b53	-0.26436862
59	0x3dbee5ab	0.093211494
60	0xbe12e796	-0.14346156
61	0xbe848e56	-0.25889844
62	0xbde38126	-0.111086175
63	0xbe1dbe05	-0.15404518
64	0xbf16db3e	-0.5892829
65	0xbe7b6ef2	-0.24554041
66	0xbf0ff3bb	-0.5623128
67	0xbf621ac5	-0.883221
68	0xbf3789d4	-0.71694684
69	0xbea048ff	-0.31305692
70	0xbdda32c8	-0.10654217
71	0xbc359a8a	-0.011084208
72	0xbf066988	-0.5250478
73	0xbe060f41	-0.13091756
74	0x3f0dff02	0.55467236
75	0x3ee49027	0.4464123
76	0x3efeb8a5	0.49750248
77	0xbe6bb3be	-0.23017785
78	0x3da222b3	0.079167746
79	0x3ec5fef5	0.3867108
80	0xbe5941de	-0.21216533
81	0xbd6115a7	-0.05495229
82	0x3ed82934	0.42218935
83	0x3d93371b	0.07188245
84	0xbf08e9d3	-0.5348179
85	0x3eac03ec	0.33596742
86	0xbe16684a	-0.1468822
87	0xbe22c4b4	-0.15895349
88	0x3f87d5ea	1.0612156
89	0xbd266f85	-0.040633697
90	0x3e245d95	0.16051324
91	0x3f3c6e77	0.73606056
92	0x3e22476f	0.15847562
93	0x3d8aff3e	0.06786965
94	0x3f7a2fec	0.9772937
95	0x3e9feb61	0.31234267
96	0xbf1beeb9	-0.60911137
97	0x3c7ce070	0.015434369
98	0xbf242d7d	-0.6413191
99	0xbe40fdc0	-0.18846798
100	0xbe7b9bbf	-0.24571131
101	0x3f0ade05	0.54245025
102	0x3e8a31c2	0.26991087
103	0x3e6750a5	0.22589357
104	0xbf07fa13	-0.5311596
105	0xbe1cd9f2	-0.15317515
106	0x3e4cb0e3	0.19989352
107	0x3e363754	0.17794544
108	0x3e821dab	0.2541326
109	0x3e3ae586	0.18251619
110	0xbca71d29	-0.020399647
111	0xbd0ef272	-0.034899183
112	0x3e2b3089	0.16717733
113	0xbb0a8790	-0.002113793
114	0xbeab5270	-0.33461332
115	0x3e0d2e0e	0.137871
116	0xbc4f436e	-0.012650354
117	0x3e17a1a3	0.14807753
118	0x3ec53c2e	0.38522476
119	0xbe0121f3	-0.12610607
120	0x3eb0850d	0.3447651
121	0x3f1c117c	0.6096418
122	0xbe7212e2	-0.23640016
123	0x3c87073c	0.016482942
124	0x3f0336c6	0.5125545
125	0x3cf1e350	0.029527336
126	0x3dd88d1f	0.10573792
127	0x3ec8cd67	0.3921921
128	0x3e74a58c	0.23891276
129	0xbeb331dc	-0.34998977
130	0x3e92ae3d	0.28648558
131	0x3eafd4f1	0.3434215
132	0x3e4d568a	0.20052543
133	0x3f39389c	0.72352004
134	0x3ee35313	0.44399318
135	0x3ce8d3d4	0.02842132
136	0xbe78a32f	-0.24281
137	0xbe670cc7	-0.22563468
138	0x3e730ffb	0.23736565
139	0xbd8d7dd8	-0.069087684
140	0xbdd5a33c	-0.10431525
141	0xbe6060e3	-0.2191196
142	0xbe84cd86	-0.25938052
143	0xbecb6af8	-0.39730048
144	0xbe30507a	-0.172182
145	0xbd4fdbf8	-0.050746888
146	0x3f188ef1	0.5959311
147	0xbe3997f6	-0.18124375
148	0xbe83d158	-0.25745654
149	0x3eb0420a	0.34425384
150	0x3f4702cb	0.77738637
151	0x3eec5e1b	0.46165547
152	0x3fa55fca	1.2919858
153	0xbf37597f	-0.71620935
154	0xbf105066	-0.5637268
155	0xbd9a5c36	-0.07537119
156	0xbd05b1b9	-0.032640193
157	0xbe86b48f	-0.2630963
158	0x3d8b007c	0.06787202
159	0xbfbd4d58	-1.4789228
160	0xbf8813bc	-1.0631022
161	0x3de70aaa	0.11281331
162	0xbce9a5bf	-0.028521417
163	0xbf05dd4f	-0.52290815
164	0xbfb263bc	-1.3936687
165	0xbefd5112	-0.49475914
166	0xbf83ddd1	-1.0302068
167	0xbf23e5ca	-0.64022505
168	0x3d169d4a	0.036771096
169	0xbf6d5521	-0.9270802
170	0xbeb179d9	-0.34663275
171	0x3cd098b0	0.025463432
172	0xbe5b909a	-0.2144188
173	0xbfde706e	-1.7378061
174	0xbe16cb5c	-0.14726013
175	0xbf173b6c	-0.59075046
176	0xbf055480	-0.5208206
177	0xbfab8712	-1.3400595
178	0xbef89fdb	-0.4855946
179	0x3f12ac92	0.5729457
180	0xbda39edc	-0.079892844
181	0xbd9f5e13	-0.07781615
182	0xbed08bec	-0.40731752
183	0xbd785c4f	-0.060634907
184	0xbe647faa	-0.22314325
185	0xbcd83588	-0.026392713
186	0x3db8966d	0.090130664
187	0xbd04c743	-0.032416593
188	0xbd6e5d1c	-0.058194265
189	0x3e1a8764	0.1509071
190	0x3c0c3863	0.0085583655
191	0xbdeaf0c6	-0.11471705
192	0x3e4373db	0.19087164
193	0x3e1f1d94	0.15538627
194	0xbcf2c794	-0.029636182
195	0x3d6c4e0a	0.05769161
196	0x3e64b522	0.22334722
197	0xbd1248df	-0.035714027
198	0xbd2bca6c	-0.04194109
199	0x3e8e36de	0.27776235
200	0x3ec79b28	0.38985562
201	0x3e1d33ca	0.15351787
202	0x3eba8d35	0.36435857
203	0x3eae86fb	0.34087357
204	0xbde1ab1e	-0.11018966
205	0xbbfd4350	-0.0077289715
206	0x3c17a991	0.009256736
207	0x3e5f5ebc	0.21813482
208	0xbbf60d98	-0.0075089447
209	0xbe9b3d5e	-0.30320257
210	0x3bccbd3e	0.0062481454
211	0xbe3dd8fb	-0.18539803
212	0xbee6418f	-0.44971892
213	0x3e6abc8c	0.22923487
214	0xbe8cd027	-0.27502558
215	0x3d453fa0	0.04815638
216	0x3ecc9ec2	0.39964873
217	0x3f03e9ea	0.515288
218	0x3f429652	0.7601062
219	0x3ef9f772	0.48821598
220	0x3f54243c	0.8286779
221	0x3f66ebb8	0.9020343
222	0x3eac7479	0.33682612
223	0x3f02a2ba	0.5102955
224	0x3e900b29	0.28133515
225	0x3f0f6fc1	0.560299
226	0xbe867141	-0.2625828
227	0xbf5fbb26	-0.8739494
228	0x3f184996	0.59487283
229	0xbe5ee101	-0.2176552
230	0xbc3022ca	-0.010750482
231	0x3e3e47da	0.18582097
232	0x3eb38777	0.3506429
233	0x3ec0a429	0.37625244
234	0x3f9d2b63	1.2278866
235	0x3f14d1cb	0.5813262
236	0x3f7e1b25	0.9926017
237	0x3fb14317	1.3848599
238	0x3e8761b7	0.26441738
239	0x3e9970fa	0.29969007
240	0x3efaa711	0.48955587
241	0x3efbe8ab	0.4920095
242	0xbe3d8ae7	-0.18510018
243	0x3c3cf07a	0.011531943
244	0xbe346384	-0.17616087
245	0x3f43417d	0.762718
246	0xbf31bf3d	-0.6943243
247	0xbdcd78ca	-0.10032804
248	0x3e68952a	0.22713152
249	0x3f03ad86	0.5143665
250	0xbe7f3f2a	-0.24926439
251	0x3f0e8217	0.5566725
252	0x3e1c4f01	0.15264513
253	0x3e09000c	0.13378924
254	0x3ea1d1b4	0.31605303
255	0x3f140fba	0.57836497

main.7.weight f4 [16, 784]
0	0xbd83ab3c	-0.06429145
1	0x3eb64864	0.35602105
2	0xbf398992	-0.7247554
3	0xbf14b527	-0.58088917
4	0xbf063bc4	-0.52434945
5	0x3e885d9b	0.26633915
6	0xbe875077	-0.26428577
7	0x3d4e3954	0.05034764
8	0x3efda165	0.49537197
9	0xbeed61ba	-0.46363622
10	0x3dcf93b9	0.10135598
11	0xbfa8b137	-1.3179082
12	0xbf09671f	-0.53672975
13	0x3f3e0be6	0.74236906
14	0x3ddce18f	0.107852094
15	0x3cf67a1d	0.030087525
16	0x3d36d1d4	0.0446337
17	0x3f7f1078	0.99634504
18	0x3e0cc9aa	0.13748804
19	0x3c7bf46a	0.015378097
20	0xbf85ccf3	-1.045317
21	0x3e3362a7	0.17518102
22	0xbf12fbe0	-0.5741558
23	0xbf96c1c3	-1.1777881
24	0xbf0456b9	-0.5169483
25	0xbf4ef0e4	-0.8083632
26	0x3e9ff7ad	0.3124365
27	0xbe98486f	-0.29742762
28	0x3d846924	0.064653665
29	0xbf6f5440	-0.9348793
30	0x3d708c64	0.058727637
31	0xbfa37fc4	-1.2773366
32	0xbeda31c5	-0.42616096
33	0xbf8fb6f0	-1.1227703
34	0x3f2cf08b	0.6755454
35	0x3e9a48b6	0.301336
36	0xbf4f7fff	-0.8105468
37	0xbf22890a	-0.63490355
38	0xbf31f53e	-0.69514835
39	0xbfeda206	-1.8565071
40	0xbf823ecb	-1.0175413
41	0x3ed126cb	0.4084991
42	0x3d8b995c	0.0681636
43	0x3eba5778	0.36394858
44	0xbef25c41	-0.4733601
45	0xbdd26e9b	-0.102750026
46	0xbe8f6ad3	-0.28011188
47	0xbebd11c3	-0.36927614
48	0xbd8ead52	-0.06966652
49	0x3ebef34f	0.37295005
50	0xbe048a9c	-0.129435
51	0x3e9bdcce	0.30441898
52	0xbeef75c3	-0.46769533
53	0x3ef4dccc	0.47824705
54	0x3eb1aea6	0.3470356
55	0x3e5aa66c	0.21352547
56	0x3ea60ffd	0.32434073
57	0xbf66be0e	-0.9013375
58	0x3f1a14a1	0.6018773
59	0x3ec7ae17	0.39000008
60	0x3eb274ad	0.34854642
61	0xbf102624	-0.563082
62	0x3f85c1ca	1.0449765
63	0xbe5dc9f8	-0.21659076
64	0xbe90c792	-0.2827726
65	0xbf1b2e7d	-0.6061781
66	0x3eede117	0.46460792
67	0xbedaf48f	-0.42764708
68	0xbf0930f8	-0.53590345
69	0x3f57cefa	0.84300196
70	0x3eec66b3	0.46172103
71	0xbe60d6c8	-0.21956933
72	0xbf0d3c39	-0.5517002
73	0x3eb4db48	0.35323548
74	0x3db720f4	0.08941832
75	0xbf49d77f	-0.78844446
76	0x3f93a5d9	1.1534988
77	0xbe95d84c	-0.29266584
78	0xbf1dbb7e	-0.61614215
79	0x3eb47759	0.35247305
80	0x3eda39bd	0.42622176
81	0xbe31c496	-0.17360148
82	0x3eaab287	0.3333933
83	0x3eedc451	0.4643884
84	0x3e0c5ad3	0.13706522
85	0xbd0eb8ec	-0.034844324
86	0x3eaa2c2e	0.3323683
87	0x3ea6dc55	0.32589975
88	0xbdba48fa	-0.090959504
89	0x3e33f012	0.17572048
90	0x3f7874cd	0.97053224
91	0x3dd6ec28	0.10494262
92	0xbf1047d6	-0.5635961
93	0x3f3173a9	0.6931711
94	0x3d626a74	0.055277303
95	0x3fa578ae	1.2927454
96	0x3d1fcce4	0.03901376
97	0x3eb24099	0.3481491
98	0x3e815909	0.2526324
99	0xbeb9ace3	-0.36264715
100	0x3f7b65d3	0.98202246
101	0xbf09a28c	-0.5376365
102	0xbf288636	-0.6582979
103	0x3e17d9f2	0.14829233
104	0xbdb08857	-0.08619755
105	0x3e1725c0	0.14760494
106	0x3f32e483	0.6987993
107	0x3e1653fe	0.14680478
108	0xbfadd431	-1.3580381
109	0x3edf4a96	0.43611592
110	0x3d75dc8f	0.060024794
111	0x3d97035e	0.07373689
112	0x3e2327f7	0.15933214
113	0x3e24618d	0.16052838
114	0xbd8d60ef	-0.06903254
115	0x3fd22c44	1.6419759
116	0xbdc0595d	-0.09392045
117	0x3c7964bd	0.015221772
118	0xbf144a88	-0.57926226
119	0xbebdcb31	-0.37069085
120	0x3e76f3b1	0.24116398
121	0xbf152a27	-0.58267444
122	0x3f29d2b4	0.6633713
123	0xbf02dcf0	-0.51118374
124	0x3f933d41	1.1503068
125	0xbe1711d1	-0.1475289
126	0x3c402e12	0.011729734
127	0x3c35a2b0	0.011086151
128	0x3fcc307e	1.5952299
129	0x3fd75706	1.6823432
130	0x3ec45049	0.38342503
131	0xbee311b8	-0.44349456
132	0x3d380ad7	0.044932213
133	0xbd409aff	-0.047022816
134	0xbf577fcb	-0.8417937
135	0x3f69e085	0.91358215
136	0x3fbc25d5	1.4699045
137	0x3f7a792c	0.97841144
138	0x3f9a44fe	1.2052305
139	0x3e870a72	0.26375157
140	0xbc75be52	-0.014998989
141	0xbdeb4c27	-0.11489134
142	0xbdfdcf9e	-0.123931155
143	0xbfcdca0c	-1.6077285
144	0x4004194e	2.0640445
145	0x3d8a065e	0.06739496
146	0xbed501ea	-0.41603023
147	0xbecb4f19	-0.39708784
148	0x3e9655c4	0.2936231
149	0x3e47ba64	0.19504696
150	0xbe016166	-0.12634811
151	0x3e069478	0.13142574
152	0xbe377c56	-0.17918524
153	0xbdd1d587	-0.10245805
154	0x3ea5445c	0.32278717
155	0x3d353ae7	0.044245627
156	0xbecc6cf4	-0.39926875
157	0x3b5c574d	0.0033621371
158	0xbd67e221	-0.056612138
159	0xbef8f12d	-0.48621503
160	0xbe2d306e	-0.16913006
161	0xbc19cb62	-0.009386869
162	0xbe4faf36	-0.20281681
163	0x3f2112c8	0.6291928
164	0x3f867b6d	1.0506417
165	0x3ee307e0	0.44341946
166	0x3ebaed97	0.36509392
167	0xbf38b5fc	-0.72152686
168	0xbe20d3ce	-0.15705797
169	0xbf4d2cd5	-0.80146533
170	0x3e633e60	0.22191763
171	0x3f263389	0.64922386
172	0x3ef8e248	0.4861014
173	0x3e6dda6b	0.23227851
174	0xbed4e3d0	-0.41580057
175	0xbeeaffaf	-0.45898196
176	0xbec4c81c	-0.3843392
177	0x3ef44f08	0.47716546
178	0x3ece8763	0.40337667
179	0x3e928a17	0.2862098
180	0x3caaf0ef	0.02086684
181	0x3f3c6cf7	0.7360377
182	0xbef8c69a	-0.4858902
183	0x3e84df15	0.25951448
184	0x3edac38f	0.42727324
185	0x3f3bdf80	0.7338791
186	0xbe02b113	-0.12762861
187	0xbf01ec5a	-0.5075127
188	0x3e7b6e35	0.2455376
189	0xbe08fa26	-0.13376674
190	0x3f1612f9	0.586227
191	0x3e09558d	0.13411541
192	0x3d2cc41c	0.042179212
193	0xbf05e309	-0.52299553
194	0x3f245a18	0.6419997
195	0xbf16d2b6	-0.5891527
196	0xbcabc8a3	-0.020969694
197	0x3da53782	0.08067228
198	0x3f561b01	0.83634955
199	0xbe9dbec2	-0.308096
200	0x3e8078b2	0.25092083
201	0xbe018bd8	-0.12651002
202	0xbe28ea98	-0.1649574
203	0x3e658474	0.22413808
204	0x3e0bb226	0.13642177
205	0xbdd7e168	-0.1054104
206	0x3f89ff2f	1.0781001
207	0x3f1d3343	0.61406344
208	0xbe79a29a	-0.24378434
209	0x3c45a402	0.012063028
210	0x3f1d54ed	0.6145771
211	0x3e10f692	0.14156559
212	0x3f382183	0.71926135
213	0x3de062fb	0.10956379
214	0xbf9ab4de	-1.2086446
215	0xbf1c3ff9	-0.61035115
216	0x3f442ec5	0.76633865
217	0x3f37032f	0.7148923
218	0xbf065ceb	-0.5248553
219	0x3f019700	0.5062103
220	0x3d229b30	0.03969878
221	0xbfc0c6c3	-1.5060657
222	0x3e101ef1	0.14074303
223	0xbe515673	-0.20443134
224	0xbdf0547f	-0.11734866
225	0xbe6ce0d7	-0.23132645
226	0x3e1baf50	0.15203595
227	0xbf29c0eb	-0.66309994
228	0x3ef38549	0.47562626
229	0x3f01f12d	0.5075863
230	0xbea88ec9	-0.32921436
231	0x3df42143	0.11920407
232	0xbdb83bac	-0.089957565
233	0x3e1b0d94	0.15141898
234	0xbeaa3843	-0.3324605
235	0x3eb3362f	0.35002276
236	0x3ec46fd5	0.3836657
237	0xbf0c2fb1	-0.5476027
238	0x3c3b784e	0.011442257
239	0x3dcf9294	0.101353794
240	0x3f4e3eb0	0.80564404
241	0x3f615058	0.8801322
242	0xbdf85ff1	-0.12127674
243	0xbef5189e	-0.47870344
244	0xbef2deb1	-0.47435525
245	0x3f1dd780	0.6165695
246	0xbdf6f610	-0.120586514
247	0x3cd85c88	0.02641131
248	0xbeb561e1	-0.35426238
249	0x3f0f6474	0.56012654
250	0x3eb9270c	0.36162603
251	0xbdecaf3c	-0.11556861
252	0x3eb971e6	0.3621971
253	0x3e879c48	0.2648642
254	0xbe849ca6	-0.25900763
255	0x3e9cc1e5	0.3061668

main.7.bias f4 [16]
0	0x40e7cf19	7.2440305
1	0x400db9fe	2.214477
2	0x40d16f03	6.544801
3	0x3f91e994	1.1399407
4	0x40ec2b08	7.380253
5	0x40de670d	6.9500794
6	0x4124f61f	10.310088
7	0x40f4fb2b	7.65566
8	0x40f17fc1	7.546845
9	0x409361c5	4.6056848
10	0x409f4ffb	4.9785132
11	0x3e5722f0	0.21009421
12	0x3ff23533	1.8922485
13	0x412acb4a	10.674631
14	0x4180733d	16.056269
15	0x3ebe3961	0.37153152

main.9.weight f4 [1, 16]
0	0x3e31f596	0.1737884
1	0xbbbee2ee	-0.005825392
2	0xbd81c580	-0.06336498
3	0x3e56cdae	0.20976898
4	0xbd2a6118	-0.041596502
5	0xbda30fe7	-0.079620175
6	0xbbca3c0d	-0.0061717094
7	0xbc91ce0b	-0.017798444
8	0xbdda5628	-0.10660964
9	0xbd831ece	-0.0640236
10	0x3d1ef6c9	0.03880957
11	0x3e5b7ee6	0.21435127
12	0x3e81a2ff	0.2531967
13	0xbcd3cf7f	-0.025855778
14	0xbdafa296	-0.08575933
15	0x3e7ea80e	0.24868795
