mnist_results/gen_manipulable_ae_v4_perceptual_wgan-gp/mnist_manipulable_ae_state_dict.pth (torch, 12358 bytes, 16 tensors)

manipulable_encoder.0.weight f4 [16, 16]
000000 8c 36 8d 3f 2d 81 22 bf 84 fa f6 be db 60 31 3f
       1.1032271 -0.63478357 -0.48238003 0.69288415
000010 5b b9 b8 3e 4e 07 af 3e a9 3d 64 3d 55 a3 81 be
       0.36078915 0.3418526 0.055722866 -0.25319925
000020 07 39 02 3f ab 0f c1 3e 63 25 ca 3d 93 c5 ae be
       0.50868267 0.37707266 0.09870412 -0.34135112
000030 14 ba 39 3f 79 d1 df 3e 3c db 4a 3f fe a8 1f bf
       0.7254956 0.43714502 0.79240775 -0.62367237
000040 50 c4 1c bf d5 c3 38 3f be ee c1 bd 23 af 16 3f
       -0.6123705 0.72173816 -0.094693646 0.5886099
000050 5f d1 9c 3e d0 04 cf 3e fe 37 2b 3f 70 88 ad 3f
       0.30628487 0.4043336 0.6688231 1.3557262
000060 00 10 a5 bf 9d 51 ae 3e 01 a0 6f 3d 3d 04 6e bc
       -1.2895508 0.3404664 0.0585022 -0.014527378
000070 3b 8f f9 bf 64 53 a8 3f 35 aa dd 3d 88 93 e8 be
       -1.9496835 1.3150449 0.1082348 -0.45425057
000080 59 7c 5b 3e 68 d0 50 3e 10 06 88 3e 05 d3 a8 3f
       0.21434154 0.20392 0.26567125 1.3189398
000090 88 0e 5f 3c 9e b6 77 be df 62 a8 be cb 10 aa bf
       0.013614304 -0.24190757 -0.32887933 -1.3286375
0000a0 79 71 14 3d db 0d 41 3c 5f 97 39 3f d9 6e 94 3e
       0.03624103 0.011783089 0.724966 0.2899082
0000b0 18 13 50 3f 9c 03 80 3e 3f 2d 9f 3e 47 eb 3f 3e
       0.81279135 0.25002754 0.31089208 0.18742095
0000c0 5c 57 03 bd 8f b5 d0 3e c7 c8 8f 3d fe 2e 7f 3e
       -0.032065734 0.40763518 0.07020717 0.2492027
0000d0 d4 5d b6 3d 14 47 0b be c9 d9 16 bf 70 59 9a bd
       0.08904615 -0.13601333 -0.58926064 -0.0753659
0000e0 e0 29 f5 3e 55 0e d1 ba 27 36 26 be eb 40 b5 3d
       0.4788351 -0.0015949706 -0.16231595 0.08850273
0000f0 5a b4 8a 3e 11 04 ec 3e 80 97 07 3f e0 46 2c be
       0.27090722 0.46096852 0.52965546 -0.16823912
000100 75 db 48 bf 76 b4 9e be ca eb 2e 3e 76 f6 d2 be
       -0.78459865 -0.30997056 0.17082134 -0.4120366
000110 7a f7 6c 3d 79 fc 87 be eb 8c 0a 3f 82 3f c8 3e
       0.0578532 -0.2655981 0.54121274 0.39110953
000120 5d ca 41 3e ac ce 9c be 7c d6 3f 3d 7a c2 82 3d
       0.18924852 -0.30626428 0.046835408 0.0638475
000130 05 dc 6d 3f f3 ee 54 bf 2c 54 5a 3e f6 79 05 3e
       0.9291385 -0.8317711 0.21321172 0.13034806
000140 24 e7 e4 3e ab b6 e2 be b5 f0 90 be 5f 5d 1e bf
       0.44707596 -0.4427999 -0.28308645 -0.61861223
000150 d0 c0 80 be 5f c9 5f 3e 17 74 c4 be 62 09 a5 bf
       -0.25147104 0.2185416 -0.3836982 -1.2893488
000160 64 d8 82 bf 40 73 51 3c 3a 04 96 3e 62 3b 39 3e
       -1.0222287 0.012783825 0.293001 0.18089059
000170 4d 15 05 bf bc ba da 3d 3f 08 3c bf dd df 6f 3e
       -0.5198563 0.10680148 -0.7345008 0.23425241
000180 06 10 94 bf 0a 55 2d be 2a 8a dd bd 1e 54 a4 be
       -1.156739 -0.16926971 -0.10817368 -0.32095426
000190 26 bd 98 3e 71 9f b3 3d f6 ae c1 be c4 c0 4b bf
       0.2983181 0.087706454 -0.37828797 -0.7959101
0001a0 40 fd 85 be 43 1e 2f be e4 47 b7 bd 0d 7d 55 bc
       -0.26169777 -0.17101388 -0.08949259 -0.013030303
0001b0 fb 0a 79 bd 22 d0 ab 3e 30 6d 08 3f 6c 9e 93 bd
       -0.060801487 0.3355723 0.53291607 -0.07207951
0001c0 48 8d 7a bc 07 42 06 3f 26 af 5f bd ee 72 55 3f
       -0.015292473 0.524445 -0.054610394 0.83378494
0001d0 0e 22 ba 3d d5 d2 35 be 2d 26 24 3f 32 70 3f bf
       0.09088527 -0.17756207 0.6412075 -0.7478057
0001e0 3e 44 99 3e ec d5 4b bf 39 2c 31 3e b6 b9 7a 3e
       0.29934877 -0.79623294 0.17302026 0.24484906
0001f0 21 71 72 bf 65 70 f8 bf 56 73 6a 3d df d6 d1 3e
       -0.9470387 -1.94093 0.0572389 0.40984246
000200 20 04 f0 be 82 fc d4 3e 0f bf 27 be 44 47 41 bf
       -0.46878147 0.41598898 -0.16381477 -0.7549937
000210 76 38 8d 3d d7 26 18 3f e8 f0 c1 be b5 b2 88 bf
       0.06895535 0.59434265 -0.3787911 -1.0679537
000220 8e 64 26 3f 10 92 83 3d 77 b6 9e be d8 39 c7 bd
       0.64997184 0.064243436 -0.30998585 -0.0972783
000230 1f 58 48 bf df 90 29 3f 8e 64 2f bf 2f c9 10 bf
       -0.7825946 0.6623668 -0.6851281 -0.5655698
000240 97 2b 8d be 79 e5 06 bf 77 c1 f3 3d 52 71 6d 3f
       -0.2757232 -0.526939 0.11902135 0.9275104
000250 78 bf a6 be 15 84 36 bf be 22 b3 bf 97 0d 35 bf
       -0.32567954 -0.7129529 -1.3994977 -0.7072386
000260 1e 5d 73 bf e6 32 42 3f c4 46 a0 bf 53 76 94 3e
       -0.9506396 0.75858915 -1.2521596 0.28996524
000270 83 7f 88 3d 14 2b 0a be 95 65 5c bf 08 fd e6 3d
       0.06664946 -0.13492996 -0.860925 0.11278731
000280 0a db f8 3e 04 53 2d 3e c0 68 5b 3d ec 90 b9 3e
       0.48604614 0.16926199 0.053566694 0.3624338
000290 a1 86 00 3c 72 60 78 bd a2 a1 2b 3f b5 46 e9 3f
       0.007844598 -0.060638852 0.6704351 1.8224703
0002a0 21 5d 3e 3f a9 bb 99 3e 79 f4 03 bf d9 51 72 be
       0.74360853 0.30025986 -0.5154491 -0.23664035
0002b0 fa 55 83 3e e3 74 81 3e 6d 1b 44 be 43 f8 4c be
       0.25651532 0.2528449 -0.19151087 -0.2001658
0002c0 da 72 61 bf db ea bf 3e 98 de 54 bc 17 f3 a4 3d
       -0.88065875 0.37483868 -0.012992524 0.08054178
0002d0 13 bb 98 bd 6e f6 71 3d 7f 06 15 bf a1 82 e0 3f
       -0.074575566 0.059072904 -0.5821304 1.7539865
0002e0 5c 0e b9 be ab 96 2c be a7 af 7d 3c 4f ca 6c 3d
       -0.36143768 -0.1685435 0.015483773 0.057810124
0002f0 fb d5 f7 be 3e 23 bc 3e 63 ec fa 3e b2 84 2f 3d
       -0.48405442 0.36745638 0.49008474 0.042851157
000300 4c 99 81 3e 95 72 9c 3e 89 b7 a6 bd 68 ba 98 3e
       0.2531227 0.3055617 -0.08140475 0.29829717
000310 54 17 42 3b 15 3f 02 bd 87 67 8b 3f 64 60 29 be
       0.0029615955 -0.03179844 1.0890969 -0.16540676
000320 9e 6a 99 3e 79 3b dc 3e 51 e7 13 3f a5 b4 c5 be
       0.29964155 0.43014124 0.57774836 -0.38614383
000330 88 a3 c0 3f 8e 1a 21 3f 80 a1 31 bf 8f 1f 15 3d
       1.5049906 0.62931144 -0.69387054 0.03640705
000340 e4 db 21 3e 79 52 9e 3e 4c 36 82 3e 4b f2 cd bd
       0.15806538 0.30922297 0.2543205 -0.10055979
000350 83 6f b5 be 9e 94 c5 bd 77 09 86 be 51 56 9e 3f
       -0.3543664 -0.09647487 -0.26179096 1.2370092
000360 27 f6 0c bf 94 47 81 bd 1e c4 a4 3e 1f c1 f5 3d
       -0.550631 -0.063124806 0.32180876 0.119997256
000370 61 de ab 3e 44 e9 64 be 41 c7 0e bf 82 6e e7 3e
       0.335681 -0.22354609 -0.5577279 0.45201498
000380 4c 94 bd 3e 7a 38 2c 3f da e1 19 be d5 c8 8b bf
       0.37027204 0.67273676 -0.15027562 -1.0920664
000390 12 f6 95 be a3 fb 1d 3f a9 7d b1 be ba 08 82 bf
       -0.292893 0.6171209 -0.34666184 -1.0158913
0003a0 34 0c 08 40 68 f5 61 be 6a 5c d3 b9 d7 a1 df 3d
       2.1257448 -0.22066271 -0.0004031391 0.109195404
0003b0 11 c8 9f bf 47 9c a1 3f 73 ec a9 bf 29 5c ba bd
       -1.248293 1.2625817 -1.3275284 -0.090996094
0003c0 70 97 f1 bd 37 17 e7 be 32 6f 93 3e c7 92 b2 bf
       -0.117964625 -0.451349 0.28795773 -1.3951043
0003d0 77 22 bf be 0e 20 85 3e 8f 22 ba bf 59 66 60 3f
       -0.37330982 0.26001018 -1.4541796 0.8765617
0003e0 2d ad 42 3e 20 1a 84 bc 1d 45 e6 3e 4d ec 49 3e
       0.19011374 -0.016125739 0.44974604 0.19719048
0003f0 ee 73 cd 3f 1f a7 53 bf 07 c9 1d 3f 0f 53 0e 3f
       1.6051004 -0.8267688 0.6163487 0.5559549

manipulable_encoder.0.bias f4 [16]
000000 83 9c 8c c0 f6 0c ac bf e5 f3 46 be 3c 7c 75 bf
       -4.3941054 -1.3441455 -0.19428976 -0.9589269
000010 4a 95 63 bf 90 79 ac 3f 4c 09 cf 3f c5 4e f8 3f
       -0.8889967 1.3474598 1.6174712 1.9399039
000020 54 b8 1d c0 dc 72 45 40 fd 7d b2 c0 cb 88 40 40
       -2.4643755 3.0851355 -5.5778794 3.0083492
000030 a6 81 9a 3e b3 7e dc 40 14 27 7a 3f ee fc 19 40
       0.3017704 6.890466 0.9771588 2.4060626

manipulable_encoder.2.weight f4 [16, 16]
000000 fc c7 60 3f cf 4f 3a bf 9c 7b 85 3e 52 db 89 3c
       0.8780515 -0.7277803 0.2607087 0.016828213
000010 06 35 6f 3d d1 eb d6 be 00 ba 2c bf 9f 41 6d 3e
       0.058400176 -0.4197679 -0.67471313 0.23169564
000020 6d 0c 02 be 7d 58 f1 bf 89 0c 9d 3e dc 45 83 bf
       -0.12700053 -1.885513 0.30673626 -1.0255694
000030 50 ad f9 bd a2 0d 20 bf ff 0b 7f bf 9c a7 9a bf
       -0.1219126 -0.625208 -0.9962768 -1.20824
000040 c4 42 31 be ce 29 99 3e b7 6c 82 be ec 05 b2 bd
       -0.17310625 0.29914707 -0.25473568 -0.08692536
000050 63 46 2e 3d b5 50 6b bf b0 79 6c 3e f7 b3 05 bf
       0.042547595 -0.91920024 0.23093295 -0.5222773
000060 6a f7 e3 3c da 6d 0c bf 84 69 23 bf c4 f2 08 3e
       0.027827937 -0.5485512 -0.6383288 0.13373858
000070 af 7b bf be 8e 42 5e bf 44 16 20 3e 3f 3f 47 3e
       -0.3739905 -0.86820304 0.15633494 0.1945772
000080 90 cb 37 3d 77 55 e1 bf c3 8b b4 3d b8 08 ff bd
       0.044871867 -1.7604207 0.0881572 -0.12452835
000090 dc 1f 9b be 8c ce 3e bf 9a c2 da 3e 20 24 9b be
       -0.30297744 -0.74533916 0.42726594 -0.30301
0000a0 aa 88 20 be 53 4a b1 be 64 92 74 be ba aa b2 3d
       -0.15677133 -0.34627017 -0.23883969 0.0872397
0000b0 4e ad af be 97 18 22 3f 76 e0 1b bf ce 5f 60 3f
       -0.34311908 0.6331877 -0.60889375 0.87646186
0000c0 56 8e 5e bf a2 1c 5f bf 34 ce ed be 62 1b 6f 3e
       -0.8693594 -0.87153065 -0.46446383 0.2335029
0000d0 33 d0 dd 3e bc 84 17 bf c3 90 bf 3d d4 6f 97 be
       0.43322906 -0.5918691 0.09353783 -0.29577506
0000e0 83 49 0b 3e ea 40 b3 3e d0 5b 90 bf 40 56 96 bd
       0.13602261 0.35010463 -1.1278019 -0.0734067
0000f0 a2 a7 2b be 27 4d ad be f0 67 03 40 c7 1f 87 3e
       -0.16763166 -0.33847925 2.0532188 0.26391432
000100 78 41 af 3d 62 c2 ba bb 05 a2 04 3f fd f8 af 3d
       0.08557409 -0.005699442 0.5180972 0.085924126
000110 93 dc 83 bc 5f 80 0a be ee fa b8 3e d9 18 57 bd
       -0.016096389 -0.13525532 0.36128944 -0.05251393
000120 65 14 a0 3e d4 65 45 bf 18 92 e0 be b3 3d 00 3e
       0.3126556 -0.771085 -0.4386146 0.12523536
000130 a0 17 08 3f 78 48 06 3e fa 5c 11 bf aa b0 dd 3b
       0.5316105 0.13113582 -0.56782496 0.0067654448
000140 56 1f 32 bf 28 96 2a 3d 90 5a 13 bf e6 a0 11 3e
       -0.69579065 0.041647106 -0.5756006 0.14221534
000150 12 02 1f be 6c 19 dd 3d 73 14 91 be 0d 36 90 3c
       -0.15528134 0.107958645 -0.28335914 0.017603898
000160 c4 e3 05 bf 2d ea c6 be 8d c1 c4 3e 4c cc 06 3f
       -0.5230067 -0.38850537 0.38428918 0.5265548
000170 dc 26 36 3f 1e 31 04 3f 55 64 89 3e 47 e2 c4 3e
       0.71153045 0.51637447 0.2683436 0.38453886
000180 2d ca 48 3f 22 53 f2 be 29 e8 12 3f 84 4f c6 3d
       0.78433496 -0.4732905 0.573855 0.09683135
000190 25 82 9a bd 0f 9a 57 be cc e0 32 be f1 4d 14 3f
       -0.07544354 -0.21054862 -0.17468566 0.5793143
0001a0 12 d1 aa be fd 14 9a 3f 10 aa cc bf 67 2a 21 be
       -0.33362633 1.2037655 -1.5989399 -0.15738831
0001b0 a6 1c 99 3e 20 65 a5 be 27 2c 6f 3d ec 98 2f bf
       0.2990467 -0.32303715 0.058391716 -0.68592715
0001c0 9d 9a bc be 81 1a 12 bf 33 29 47 bf 45 b1 c2 bc
       -0.3683671 -0.5707169 -0.7779724 -0.02376617
0001d0 4d d8 c1 3e 66 1b 97 be f1 da 2d 3e 48 09 a6 bf
       0.37860337 -0.2951309 0.16978051 -1.2971582
0001e0 27 dd 8f 3e e7 93 62 bf 0e d6 9b be 0d e0 94 3e
       0.28098413 -0.8850693 -0.30436748 0.29077187
0001f0 fe f9 cc 3e d8 7f 29 bf 24 ee 11 3e 00 8f b2 be
       0.4003448 -0.662107 0.14251 -0.34874725
000200 a4 eb 4a be a8 9c 4a 3e 38 0b f7 be d9 ff da bd
       -0.19816452 0.19786322 -0.48250747 -0.1069333
000210 ef e8 5c bd 53 d6 cb be b6 e3 c0 3e 79 65 7e bf
       -0.05393308 -0.39811954 0.3767373 -0.99373585
000220 7e 17 a9 3e c5 45 05 bf db e9 41 bf 5b 44 4c bf
       0.33025736 -0.52059585 -0.7574746 -0.797918
000230 ae 1a 9d bf 1b 38 5d 3e 1e 19 d0 be a3 ea 0c 3f
       -1.2273767 0.21603434 -0.40644163 0.5504553
000240 20 a4 bb 3e b7 b6 4a 3e c6 22 39 be df f8 10 bf
       0.36648655 0.19796263 -0.18079671 -0.5662975
000250 98 21 b3 3d 0e e6 8b 3e c2 de d9 bc b0 d6 95 bf
       0.08746642 0.27323955 -0.026595477 -1.1706142
000260 95 01 62 3f 90 8a 6e bf 54 ba 93 bf e0 12 3e be
       0.88283664 -0.9318018 -1.1541238 -0.18561888
000270 a5 d0 1d bf b5 1f 1b be 9b 5f 5e bf f1 dc 97 be
       -0.6164649 -0.15148814 -0.8686463 -0.29660752
000280 b6 7e a3 3e 39 87 1e be 15 6e 2f bf b5 40 93 3f
       0.3193261 -0.15481271 -0.68527347 1.1504122
000290 37 40 84 3e ab 67 f0 3d d6 f0 5f be 8f da 95 be
       0.25830242 0.11738523 -0.21869215 -0.2926831
0002a0 a3 7a 82 bf f3 20 09 be 0c bf a6 3e 69 75 61 be
       -1.0193676 -0.13391475 0.32567632 -0.22017445
0002b0 d1 d3 c1 3d d4 d6 bd be 66 c6 02 3f 85 ac 0f bf
       0.09464229 -0.37077963 0.5108398 -0.5612262
0002c0 92 ad f6 3e 51 53 f2 3e ad 58 57 be 95 26 9a be
       0.481793 0.4732919 -0.21029921 -0.3010756
0002d0 87 29 6a bf 8c 0f 72 3e 90 ff 1d bf 7e 74 88 bf
       -0.91469616 0.23638743 -0.6171808 -1.066055
0002e0 c8 68 44 3e fb ee 62 3e db 80 29 bf 09 c9 9c 3e
       0.19180596 0.22161476 -0.6621224 0.30622128
0002f0 ef cc d2 bd 16 99 66 bd f8 49 9f bf c9 fb b4 be
       -0.10292994 -0.056298338 -1.2444448 -0.35348347
000300 c9 64 cc 3e e5 8e 00 bf fc 5d 7f 3e 71 d5 12 3e
       0.39920643 -0.5021804 0.24938196 0.14339234
000310 0e fb 8d 3e 34 eb 4d bb 0a cc ee be 4f 37 4a 3f
       0.27730602 -0.003142071 -0.46640044 0.78990644
000320 b0 ed 44 bf f9 53 5b 3f d5 2f bc 3c 92 c0 65 bc
       -0.7692518 0.8567501 0.022972027 -0.014022963
000330 56 cd ea be 39 2b a7 bd 91 0c a5 3f ca b7 5d bf
       -0.45859784 -0.08162541 1.289446 -0.86608565
000340 e0 cf 6d bf 37 c6 c5 3d 5e c7 2a be 67 f1 d7 3c
       -0.9289532 0.09656947 -0.16677615 0.026360227
000350 84 9d 07 be d6 58 9f 3d e2 56 3c be 56 fe 83 bf
       -0.13243681 0.07780616 -0.18392518 -1.0311992
000360 b7 cd d9 3e 87 c8 5b 3f 6e 34 2b be 37 e7 36 3f
       0.4253976 0.85852855 -0.16719219 0.71446556
000370 78 a9 8d bd 1b 9c 15 bd bd 6e 86 3e 48 2a 5d bf
       -0.06917089 -0.036525827 0.26256362 -0.8639264
000380 15 1a e6 bd b2 15 39 bf 27 c6 dd 3d 3a 55 41 be
       -0.112354435 -0.7229873 0.1082881 -0.18880168
000390 7a 31 b7 3d 05 93 8a be ac 65 5b 3e 65 81 05 3f
       0.08944984 -0.27065292 0.21425503 0.52150565
0003a0 ca fa 14 bf f8 45 7f 3f 54 82 cd be ac 5a c3 3d
       -0.58195174 0.9971614 -0.40138495 0.09538779
0003b0 43 4c 05 bf 7e e2 23 3f e6 1c b0 3f 89 37 11 3f
       -0.5206949 0.64017475 1.3758819 0.56725365
0003c0 e1 48 c1 be 87 c8 42 3f 77 d7 a7 be 3a d1 c7 bd
       -0.37750915 0.7608723 -0.32781574 -0.09756704
0003d0 05 bd f9 3e d6 56 9e 3e 7d 7e 58 3d 47 11 54 be
       0.48777023 0.30925626 0.052855004 -0.20709716
0003e0 97 e9 f3 3d a4 e8 a8 bf 43 0d 32 3f 5b 7f 15 bf
       0.11909788 -1.3195996 0.69551486 -0.58397454
0003f0 34 8e bc be b6 d1 11 3e a5 cf bf bd 08 b8 1a 3f
       -0.36827242 0.14240155 -0.09365777 0.6043706

manipulable_encoder.2.bias f4 [16]
000000 88 55 91 c0 4d d4 6f 3e 42 5a c9 3e 93 f2 9b 3f
       -4.541691 0.2342083 0.39326674 1.2183403
000010 dc cb 2a 40 79 85 25 40 50 dc 0b c0 1e 1a 91 bf
       2.6686926 2.5862715 -2.1853218 -1.1336095
000020 c0 d4 67 3e c4 99 a7 bf 39 6a 28 3f d6 4c e2 3e
       0.22639751 -1.30938 0.6578708 0.44199246
000030 69 a1 69 40 22 0b 56 3c 53 fa 22 be 96 7c 8c bf
       3.6504767 0.013064178 -0.15915804 -1.0975521

manipulable_encoder.4.weight f4 [8, 16]
000000 5f c6 4d be d5 4d ab be 6a 1c db bd 11 90 33 3e
       -0.20095204 -0.3345782 -0.10698779 0.17535426
000010 d9 70 02 3f 40 5e 90 be 8e 22 a5 be 7d 77 a1 be
       0.5095344 -0.28196907 -0.32252926 -0.31536475
000020 af 9a 85 3e ff 7c 9c be da e9 fc bd a7 c5 b9 bd
       0.26094577 -0.30564114 -0.12349291 -0.09070902
000030 3d 83 12 3e 88 44 3c 3e 48 71 a4 be 82 83 ab be
       0.14307876 0.18385518 -0.32117677 -0.3349877
000040 c8 9d 1b c0 2f 32 dd 3d e9 42 42 3e 02 4a 3b be
       -2.4315052 0.108005874 0.18970837 -0.1828995
000050 1d d7 62 be d8 4a 92 be 4f 7c 93 bd c6 15 15 3f
       -0.22152372 -0.28572726 -0.07201444 0.5823635
000060 fe 44 61 3e a5 2a 9c 3e cf e7 0d 3f ba e4 3b 3c
       0.21998975 0.30501285 0.55431837 0.011468107
000070 21 3f 1f 3f 1e 87 71 be 60 17 2b bf 91 18 73 3d
       0.622057 -0.235867 -0.6683254 0.0593496
000080 da 2f e7 bc a8 50 b7 3c 29 a5 93 bf e1 e2 c3 bf
       -0.02822106 0.022377327 -1.1534778 -1.5303613
000090 9c 89 bd 3d c6 f0 38 bd 59 91 8d bf 64 7c 55 3e
       0.092547625 -0.045151494 -1.1059982 0.20848233
0000a0 15 f6 3d 3e b2 5c e1 3d 30 ce c6 3e 54 fe 01 bf
       0.18550904 0.11004008 0.38829184 -0.507787
0000b0 54 cd 20 bf a5 76 c1 3e d8 b5 43 3f 39 eb 11 bf
       -0.62813306 0.3778583 0.76449347 -0.56999546
0000c0 18 84 2a 3f 82 c5 b5 bd 06 f3 f8 be 76 1e 2f bf
       0.6660781 -0.08875562 -0.48622912 -0.68405855
0000d0 03 b8 29 3f 3d c4 68 be 5f 2f de be 3f 24 93 be
       0.66296405 -0.22731109 -0.43395516 -0.2873859
0000e0 9a 6a d6 be 2c 1d 93 3d 36 29 e0 bd 73 17 12 be
       -0.41878206 0.071832985 -0.1094536 -0.14266758
0000f0 56 66 fc bd da d9 f5 3e 93 44 51 3f 6f c4 55 be
       -0.123242065 0.4801777 0.8174526 -0.20875715
000100 89 ed 80 bf 2f e8 ac be be b8 f1 3e 06 aa d3 3e
       -1.007249 -0.33770892 0.4721126 0.41340655
000110 20 37 8b be d6 31 8e be 67 d0 cc be c5 02 76 be
       -0.27190495 -0.27772397 -0.40002748 -0.24024494
000120 6e d8 8d bd 9e 46 23 3f d7 38 0e 3e 75 67 cb 3e
       -0.06926046 0.6377963 0.1388887 0.3972737
000130 08 ea 10 be 04 63 63 bf f1 81 5d bf 9c a3 02 be
       -0.14151776 -0.8882296 -0.865264 -0.12757725
000140 a0 63 ce bd 11 23 82 bf 90 39 28 3e d3 d8 4d be
       -0.10077596 -1.0166951 0.16428208 -0.20102243
000150 59 b0 95 3d b0 d4 bf bf 71 49 d3 bd e4 32 1a bf
       0.07309026 -1.4986782 -0.10316742 -0.602339
000160 07 8c 88 bf 7f 18 8a bf 47 bc 32 3f c8 c5 90 3e
       -1.0667733 -1.0788726 0.6981854 0.28275895
000170 2a e9 03 bf 23 54 af be e0 c2 ab 3c 9d 66 58 3e
       -0.51527655 -0.3424388 0.020966947 0.21132894
000180 0c 4f f0 3e f8 a7 ec 3d 7d f2 8d 3e f5 d5 da 3e
       0.46935308 0.11555475 0.27724066 0.4274136
000190 6c 3c 3a be 72 68 54 3e d9 9c 12 3f 3e d3 95 3e
       -0.18187112 0.20742968 0.5727058 0.29262727
0001a0 dc 55 e1 bd ed 23 2d bf c5 d9 b7 be 0f 3a 0c 3e
       -0.110027045 -0.67632943 -0.35908332 0.13694023
0001b0 39 cd f2 3e 48 eb 9d be a9 3c 52 be 7d d4 43 3e
       0.47422197 -0.30843568 -0.20530953 0.19124027
0001c0 a1 f8 99 bf 9d d8 94 3e 13 f3 a7 3c 19 7e b3 be
       -1.2029 0.29071513 0.020501649 -0.35057142
0001d0 59 13 d5 3c 42 b9 61 be 90 f5 8c bf 5b 5c 02 bf
       0.026010202 -0.22043326 -1.101244 -0.50922173
0001e0 fe 40 62 3e 62 52 0a 3f 47 a6 ef 3e cc 11 87 bd
       0.22095105 0.54031956 0.46806547 -0.06595191
0001f0 79 f1 6a bf 2a d6 e7 be 58 f4 52 3e ed 9c cd be
       -0.9177471 -0.45280582 0.20601022 -0.40158787

manipulable_encoder.4.bias f4 [8]
000000 3d 20 ac 3f 9e 9e 0c 40 3c 1b 9d 3e b5 24 89 40
       1.3447338 2.1971812 0.3068484 4.285731
000010 48 2d c5 3f 3e 12 97 3e 96 66 c8 3f 0e 94 07 40
       1.5404444 0.29506105 1.5656307 2.1184115

manipulable_encoder.6.weight f4 [2, 8]
000000 66 4b cc bc 11 bc 24 3e ca 80 d4 bc b1 d2 af 3d
       -0.024938297 0.16087367 -0.025940318 0.08585108
000010 34 bd 2a 3e e6 0c 17 be 5c 94 ee 3d b6 f5 69 3e
       0.16673738 -0.14751014 0.11649391 0.22847638
000020 ff 08 6f 3d 25 51 a3 3e ea 14 1f bf f4 28 5a 3e
       0.05835819 0.31897846 -0.6214129 0.21304685
000030 e8 3c 6f bd 61 17 4e bc f2 1b ec bd e3 30 f7 3c
       -0.058407694 -0.012578816 -0.11528768 0.030174678

manipulable_encoder.6.bias f4 [2]
000000 25 9c b3 3f 85 79 a4 3f
       1.4032027 1.2849585

manipulable_decoder.0.weight f4 [8, 2]
000000 2f 97 a2 ba 91 f6 36 be 85 ed 4e bf 17 88 a0 3e
       -0.0012404675 -0.17867495 -0.80831176 0.31353828
000010 b0 d7 ec 3d a4 56 a8 be 68 72 47 3d 97 0b aa 3b
       0.115645766 -0.32878602 0.04869309 0.00518937
000020 67 66 7e be c4 b7 d6 3e 03 ef a0 3e 3c 53 04 bf
       -0.24843751 0.41937077 0.3143235 -0.51689506
000030 ca d4 30 bf 72 90 28 3d c6 b0 54 be 5e 3e 3f be
       -0.6907469 0.04115338 -0.20770559 -0.18676135

manipulable_decoder.0.bias f4 [8]
000000 f9 ee 4b 3f d7 06 07 40 44 ef 19 bf 09 a2 92 bf
       0.7966152 2.1097925 -0.60130715 -1.1455699
000010 f0 31 a1 be 94 b7 5a 3e 7d 27 54 3d b5 50 97 3f
       -0.31483412 0.21359092 0.05179547 1.1821505

manipulable_decoder.2.weight f4 [16, 8]
000000 99 46 12 bd 3a 47 30 bf 2e 20 1e bf 76 d4 9f bf
       -0.03571186 -0.68858683 -0.6176785 -1.2486713
000010 49 e0 59 3f 10 47 e2 bf 5d fd 55 bf d7 25 03 bf
       0.85107857 -1.7677937 -0.83589727 -0.51229614
000020 77 41 15 3d 78 72 7c bf b7 56 21 bf 05 59 46 bf
       0.036439385 -0.98612165 -0.6302294 -0.77479583
000030 7e 79 bd 3e e2 4c 32 bf 9a 39 d4 be 52 96 c6 be
       0.37006754 -0.69648564 -0.41450197 -0.3878656
000040 06 4d 2a be ee 17 9d 3f 5e 65 14 3f 99 70 03 3f
       -0.16630945 1.2272928 0.57967174 0.51343685
000050 54 23 82 be 98 6a b0 bd 30 8a 6a 3e a1 83 09 be
       -0.25417578 -0.08614081 0.22904277 -0.13429119
000060 df b1 2e 3f 60 3a 9c be 76 83 8e bd 43 0a 66 bd
       0.6824016 -0.30513287 -0.06958668 -0.05616213
000070 a6 fe e4 3e f7 95 52 bf 09 a2 08 be a9 41 14 3f
       0.4472553 -0.8226008 -0.13343062 0.5791269
000080 ec 76 cf 3c 7b 07 2a bf 34 ca 12 be 0d da 85 3f
       0.025325261 -0.66417664 -0.14334947 1.0457169
000090 3e bb 04 bf 2d 78 92 be 24 7c ec 3e db 71 03 40
       -0.5184821 -0.28607312 0.46188462 2.0538242
0000a0 34 4a 2b 3f a8 e5 50 3e f3 f9 05 3f f4 c0 23 3d
       0.669101 0.20400107 0.5233452 0.039978936
0000b0 8a 78 7b 3d fc 7b 01 3f 66 0d 35 3f 55 a6 47 3b
       0.061394252 0.5057981 0.7072357 0.0030464132
0000c0 e6 26 4c bf 07 f8 b9 be cd 94 99 be 74 1b 94 bb
       -0.79746854 -0.36322042 -0.29996338 -0.004519874
0000d0 6b 57 1d 3f 85 e2 9c bf ce 88 79 3f 7c 73 43 bd
       0.61461514 -1.2256628 0.9747437 -0.047717556
0000e0 96 ff 21 3e 5c 0d e8 bd d8 21 f6 be 1f 9e 59 bf
       0.15820155 -0.11330673 -0.48072696 -0.850069
0000f0 e6 6a f0 3e 3d 71 c9 3e 28 f3 67 bf 7c 88 9d bf
       0.46956557 0.39344206 -0.906054 -1.2307277
000100 c6 af 8f bf 73 ec 6b 3f 4a 92 28 3f a1 d0 33 3e
       -1.1225517 0.9215767 0.6584822 0.17560054
000110 3a 01 56 3e 8f 4e 2c 3f 45 58 71 3f 4e 00 2b bf
       0.20898905 0.6730737 0.94275314 -0.6679734
000120 6a b0 3b be 95 96 8c be 22 6e 2f be 52 b0 60 bc
       -0.18329015 -0.27458635 -0.17131856 -0.013713913
000130 68 9e 76 3c e3 c5 0c be 82 33 8c 3c e8 25 00 3f
       0.015052415 -0.13747363 0.017114405 0.5005784
000140 76 89 d4 3e 1a af fc bf c3 dd 94 bf 83 ad 0f bf
       0.41511124 -1.9740937 -1.1630176 -0.5612413
000150 da 19 37 bf aa 65 c7 be 9a bd 0f bf 73 f6 25 3f
       -0.7152382 -0.3894475 -0.56148684 0.64829177
000160 2f 4a c2 bf 27 34 2e 3f c5 42 02 3f 99 34 94 3f
       -1.5178889 0.6804833 0.5088313 1.1578552
000170 27 76 5c bf 90 5c 6b bd 54 ed 41 3f 08 e6 53 be
       -0.86117786 -0.05746132 0.7575276 -0.20693219
000180 25 cb ee 3e 8f 88 8d bf c4 13 31 bf 49 1d fe be
       0.46639362 -1.1057299 -0.69170785 -0.49631718
000190 27 68 a7 bf 68 5b 46 bf 6f 18 31 bf af c8 05 3f
       -1.307866 -0.77483225 -0.6917791 0.52259344
0001a0 3f 8e f0 3d b2 74 2f bf 91 70 a6 3e f2 ba 19 3e
       0.11745881 -0.6853744 0.32507756 0.1501272
0001b0 54 bb d9 be 98 bd 33 bf 99 b9 ea 3e 53 74 1d 3c
       -0.42525733 -0.7021117 0.45844725 0.009610253
0001c0 48 0e 99 bd 57 44 22 3f da 97 06 3f 2d 2b dc 3f
       -0.07473427 0.6338553 0.5257546 1.7200676
0001d0 ac f6 ad bf 66 49 a6 3e 43 3e a3 3f 0a c0 c5 3e
       -1.3590903 0.32477874 1.2753376 0.38623077
0001e0 3c d0 15 3f df 1e f0 3e 69 2f 0b 3f 8d db 52 3f
       0.58520865 0.46898553 0.5436922 0.8236626
0001f0 dc d0 8d be d2 84 b2 3f 86 dc 3c 3f c4 80 14 bf
       -0.2769841 1.3946784 0.7377399 -0.5800898

manipulable_decoder.2.bias f4 [16]
000000 72 ab d7 be 15 04 d1 be 20 f4 4f 3e db 40 c2 be
       -0.4212299 -0.40823427 0.2030797 -0.37940106
000010 fd 85 cf 3e 83 a5 54 bf 5a 8c ef bf 6b d6 05 c0
       0.40531912 -0.8306505 -1.8714707 -2.091212
000020 ee ff a9 bf e2 46 16 40 81 55 cd 3f 5c 1d 9e 3f
       -1.3281229 2.3480763 1.6041719 1.235271
000030 ce f8 49 3e 12 5d 02 40 61 77 86 3f 81 45 27 bf
       0.19723818 2.0369306 1.0505182 -0.6534043

manipulable_decoder.4.weight f4 [16, 16]
000000 31 a0 bc 3e e4 7e a9 be ef d1 9d 3e 19 48 87 3e
       0.36840966 -0.33104622 0.3082423 0.26422194
000010 60 e4 1c 3f e0 a4 04 bf d2 15 2b be 48 34 80 bf
       0.6128597 -0.5181408 -0.16707543 -1.0015955
000020 11 c0 4b 3d 3b 72 84 3f 44 da 9d be f2 be c7 bf
       0.049743716 1.034736 -0.30830586 -1.5605147
000030 46 be 88 be 17 40 90 3f 5d cd 93 3f ad 67 0f bc
       -0.26707667 1.1269559 1.1547047 -0.008752746
000040 03 05 49 c0 c6 37 06 bf f5 bd d5 3c 2c 70 86 bf
       -3.140931 -0.52428854 0.026091555 -1.0502982
000050 15 bf 03 bf bf 27 b0 bf 57 4b f2 be 09 fe 8b 3f
       -0.51463443 -1.376213 -0.47323105 1.09369
000060 6f 39 01 bf 55 55 3e be e4 55 29 3f b7 a6 b0 3d
       -0.5047826 -0.18587239 0.66146684 0.08625548
000070 08 87 85 3f ce 1e 7e bf 84 b3 4a bf fe a3 18 c0
       1.0431833 -0.99265754 -0.7918017 -2.3850093
000080 c3 85 3b 3f 10 9a 91 bf dc d1 09 3f f8 1d d1 3e
       0.7325098 -1.1375141 0.53835845 0.40843177
000090 d0 1e 94 bf af b6 2b bf d0 25 a3 bd d5 4d 2d be
       -1.1571903 -0.6707563 -0.079661965 -0.16924222
0000a0 cd 17 b7 3f ca 74 13 3f 82 f5 a5 3e 34 b1 9f 3e
       1.4304138 0.5760008 0.3241387 0.31189883
0000b0 2c 4d 41 bf 1c 84 5c bf f3 25 67 be c0 cf 7d bf
       -0.7550838 -0.8613908 -0.2257307 -0.99145126
0000c0 96 b0 b9 3e f8 5a af 3c 37 97 10 c0 d9 1b ea bb
       0.36267537 0.021405682 -2.2592294 -0.007144433
0000d0 09 96 04 40 9f ff b7 be 11 5e cb bd 77 82 1d bf
       2.0716574 -0.3593721 -0.09930051 -0.615272
0000e0 1f 55 54 bd 83 f4 09 bf a8 0a c7 3e 88 a6 18 c0
       -0.05183899 -0.5388872 0.38875318 -2.3851643
0000f0 97 5b 1e 3f e4 e3 e4 3e c8 29 8f 3f a4 21 0b bc
       0.61858505 0.44705117 1.1184626 -0.008491907
000100 3d 2a 1d 3f 6e ed 19 3f 6b 6e ad bf eb 90 4d 3f
       0.61392576 0.60127914 -1.3549322 0.8029925
000110 c9 80 3e bf 4f fa 0a be 46 24 8b 3f db b1 4c 3c
       -0.7441526 -0.13572048 1.0870445 0.012493576
000120 b0 63 a2 bf af 90 df 3e 62 3c 55 bf 5a 53 9e 3f
       -1.2686672 0.43665072 -0.8329526 1.2369187
000130 bc 84 7c 3e 68 02 2d bf be 58 e5 3e ee de 6c 3e
       0.24660009 -0.67581797 0.44794267 0.23131916
000140 eb 9c 8a 3e f2 67 01 3e b8 92 2a 3f 9a a0 5b bf
       0.27072844 0.12637308 0.66630125 -0.85791934
000150 16 a3 46 bd b9 10 e6 bd 20 96 af bf 0d 8d 39 3e
       -0.048495375 -0.11233658 -1.371769 0.18120213
000160 16 a8 29 3e b0 ac 34 3e 80 16 5a 3f 00 8e 10 bf
       0.16568026 0.17644 0.8519058 -0.56466675
000170 bd c2 47 3f 42 ba 26 bf d9 d1 fe bf 27 31 50 3e
       0.7803152 -0.65127957 -1.990779 0.2033125
000180 ef 7a 0e 3e d3 b8 d0 bd 1a c9 b1 3e ba 8a 3c 3e
       0.13914083 -0.101915024 0.3472374 0.18412295
000190 6e d2 9b bc 36 e0 74 3f 52 4a 85 bf 2f 17 ab be
       -0.01902124 0.9565462 -1.0413306 -0.33416125
0001a0 13 4b 36 bf 5b 3a 45 3e ee cd 9c 3d c3 08 a3 3e
       -0.71208304 0.19260542 0.076564655 0.31842622
0001b0 33 28 69 3e 5f 34 f6 3e 96 45 2a be a8 1c ec 3f
       0.22769241 0.4808683 -0.16628107 1.8446245
0001c0 06 ff 24 3e 29 0c 84 bf 44 7a fd be f3 77 8b 3e
       0.16112909 -1.0316211 -0.49507344 0.27239951
0001d0 0f 06 67 be 87 5f b7 be ae 52 c5 3f 06 ed 3d bf
       -0.22560905 -0.3581507 1.5415857 -0.74189794
0001e0 71 57 72 bf c0 1b 5e 3f c9 75 bf bf 8a c1 8a 3f
       -0.94664675 0.86761093 -1.495782 1.0840313
0001f0 ac 11 92 3f 39 93 6a 3f 6b 95 19 bf 0d e3 3c 3f
       1.1411643 0.91630894 -0.5999362 0.7378395
000200 f4 bf 70 bf ff 2e f8 3e 0e 43 28 3f 7c 6e c3 be
       -0.940429 0.48473355 0.6572732 -0.3817023
000210 4e 2a 2f be 09 fc 14 bf d0 7d e3 bc 13 b1 7a 3e
       -0.17105982 -0.58197075 -0.027769953 0.24481611
000220 d9 b6 9a bf f3 f5 49 be df 0f 31 3f a2 ec d3 3e
       -1.2087051 -0.19722728 0.6916484 0.41391474
000230 d8 80 88 3e b9 c2 fb b9 60 51 88 3f 09 ab 64 bf
       0.266608 -0.0004801953 1.0649834 -0.8932348
000240 f6 92 44 3f 6b 16 a1 bf b7 17 35 bf 1a a9 8c bd
       0.76786745 -1.2584966 -0.7073931 -0.06868191
000250 9c f4 2f bf 12 56 ca be cb 5b 50 3f 00 a4 f8 be
       -0.6873262 -0.3951879 0.81390065 -0.48562622
000260 40 af 04 be ae d9 2f 3f d7 28 9e bf f5 53 44 bf
       -0.12957478 0.6869153 -1.2356213 -0.7669061
000270 bd f9 34 3f 4b 5b 39 be 6d a4 a7 bf c3 d5 df 3e
       0.7069357 -0.18101232 -1.3097054 0.43717775
000280 05 61 53 bf f8 14 29 3f af c5 05 be 62 5b f4 3d
       -0.82569915 0.6604762 -0.13063692 0.119314924
000290 bd 8f 07 3f 0c eb 08 bf f6 1a 98 bf 7d 89 54 3f
       0.529537 -0.53483653 -1.1883228 0.8302229
0002a0 95 17 83 bf bf 53 61 3f ab 85 5b bf f1 fb a3 3f
       -1.0241572 0.8801841 -0.85750836 1.2811261
0002b0 6f 62 80 bf 4b 74 30 bf d3 a1 b8 bf 23 bd 3e bf
       -1.003004 -0.6892745 -1.4424385 -0.7450735
0002c0 0d 5d 4a c0 42 15 17 bf 69 3b 04 bf cc c4 8d be
       -3.1619294 -0.5901681 -0.5165315 -0.27689207
0002d0 16 4d a2 3f 76 fe 58 3e a2 49 b4 be f2 6a 99 3d
       1.2679775 0.21190819 -0.35212427 0.07491101
0002e0 cb 18 e9 3e 67 5d 34 be e1 1a 60 3f 2b 8e 52 bf
       0.45526728 -0.17613755 0.87541014 -0.8224818
0002f0 f0 38 97 3f 4e f5 12 3e ac 54 a5 be f2 2d 24 bf
       1.1814251 0.14351389 -0.32291162 -0.64132607
000300 ae 96 17 bf 89 69 8c bd fa c3 88 3f 85 2e 35 be
       -0.59214294 -0.06856067 1.0684807 -0.17693527
000310 e8 f4 80 3e 16 1d 4f 3e 28 2f 1f bf 0f ec 44 bf
       0.2518685 0.20225939 -0.6218133 -0.76922697
000320 a6 8a c8 3f ac 15 b1 be 2e d8 a5 3e cd a7 04 3f
       1.5667312 -0.34586847 0.32391495 0.51818544
000330 00 0a 0d be 8f 44 37 bf 45 f0 8e 3e f8 94 f5 be
       -0.13773346 -0.7158899 0.27917686 -0.47965217
000340 eb a8 63 be 86 68 00 bd 11 54 16 bf 2f a2 59 bf
       -0.22232406 -0.03134968 -0.58722025 -0.850131
000350 57 b0 4f bf f5 45 2b 3e df 50 3a be 17 0b 1c bf
       -0.8112845 0.16725905 -0.18194912 -0.6095442
000360 2f 08 4f 3f 68 d3 6e 3f 87 c8 96 be 72 9c 54 bf
       0.8087186 0.9329133 -0.29449865 -0.83051217
000370 92 60 f2 3e bb 6a 55 3f 3d 0f f2 be 46 ea d1 bd
       0.47339302 0.8336598 -0.4727725 -0.10249762
000380 a5 d9 be 3f bc eb a6 bf 3b 4c c1 3f 7f d1 2b 3f
       1.491017 -1.304069 1.5101389 0.6711654
000390 5f 20 ff be 57 94 90 be e4 45 ce bf 32 c2 44 3f
       -0.49829385 -0.28238174 -1.6115079 0.7685882
0003a0 69 eb 38 bf 50 4d 9c 3f 60 3c af 3f 4e e0 cb 3e
       -0.7223421 1.2211094 1.36903 0.39819568
0003b0 46 e4 2b c0 cd 0d 6c 3f de 4d b0 3f 16 28 7b be
       -2.6858077 0.9220856 1.3773763 -0.2452701
0003c0 83 16 77 bf ce 16 8e bf 40 57 be 3e 4f 8e 94 3e
       -0.96518725 -1.110071 0.3717594 0.29014823
0003d0 00 5b 22 bf f7 37 c7 3e ce 6e c6 3f 67 3e cf 3e
       -0.63420105 0.38909885 1.5502565 0.40477297
0003e0 6e 5b a9 bf 19 d9 40 3e e9 ea c3 bf aa e8 4e 3f
       -1.3231027 0.18832816 -1.5306064 0.8082377
0003f0 63 20 b5 bd 9d cf 44 3f b8 3e dd bf 1e 5a 84 bf
       -0.08844068 0.7687929 -1.7284765 -1.0340002

manipulable_decoder.4.bias f4 [16]
000000 fe 17 75 40 6b 12 91 3f 66 3a c8 3e cc eb be bf
       3.8295894 1.1333746 0.39107054 -1.491571
000010 5f 28 04 40 78 6b 00 40 23 84 1c 3f 49 f8 ab be
       2.064964 2.0065594 0.61139125 -0.33587864
000020 51 83 f1 3f 36 cd 80 3f ad 32 4e 40 97 f5 89 3f
       1.88682 1.0062625 3.221843 1.0778073
000030 a2 e7 cc 3d 91 e3 72 40 a0 31 34 40 5f 31 00 40
       0.10005118 3.7951396 2.8155289 2.0030134

manipulable_decoder.6.weight f4 [16, 16]
000000 dc 8a a8 3f fb dc ec 3d 83 28 2a 3e 8b c4 45 be
       1.3167377 0.11565586 0.16617016 -0.19313256
000010 e2 0f d2 3e fc 5e 2b 3e cc dc 2b 3e 65 70 d2 3e
       0.41027743 0.16735452 0.16783446 0.41101375
000020 e2 5f d8 3f a5 e7 f2 3f 24 70 84 be 46 98 0f be
       1.6904261 1.8976942 -0.25866807 -0.14022931
000030 19 a5 bd 3f e6 30 35 3e ad 93 68 be cb 43 c0 bf
       1.4816009 0.17694435 -0.22712584 -1.5020689
000040 66 9f ea 3e 15 3f 75 3e 8d 50 98 3e 96 25 d2 bd
       0.45824736 0.23949845 0.29748955 -0.10261075
000050 a7 a6 ad 3f 79 36 86 be 27 8d 59 3f fa c0 7b be
       1.3566483 -0.26213434 0.84981006 -0.24585333
000060 fb 8d 92 be 44 8d 80 bd dd 6a c5 3e 56 40 40 3f
       -0.28623948 -0.06276944 0.38558093 0.7509817
000070 a9 66 06 3f 36 45 7f 3f 3a a6 a5 3d 3a ac 39 be
       0.52500397 0.9971498 0.08088346 -0.18132105
000080 92 01 ff bf 2d 98 79 bf 6d ca b5 bf ca 96 ff 3e
       -1.9922354 -0.97497827 -1.42024 0.4991973
000090 b3 7e b8 bf 32 55 13 c0 d7 84 de bf f8 58 2b c0
       -1.4413666 -2.302075 -1.738429 -2.6773052
0000a0 4f 94 03 c0 b6 b8 04 c0 8e 07 54 bf f9 e7 a1 be
       -2.055927 -2.0737739 -0.8282403 -0.31622294
0000b0 d3 39 b6 bf c9 bb 2b c0 2e b5 be bf 5f 1a 87 be
       -1.4236397 -2.6833365 -1.4899042 -0.26387307
0000c0 ce ff d6 bf 3a 54 36 bf 1c 97 95 3f ee dd 55 be
       -1.6796815 -0.7122227 1.168674 -0.2088544
0000d0 cc 5d 88 c0 5b b6 4e c0 b3 4f 3c 3f a2 a0 a9 3f
       -4.26145 -3.22988 0.7355911 1.3252146
0000e0 31 e7 04 c0 d3 a9 fc bf 53 47 8f c0 28 cf 35 c0
       -2.0766108 -1.9739326 -4.4774566 -2.8407688
0000f0 bf 4a 61 3f 69 31 d1 bf dc 8e 31 c0 c0 d8 bd 3d
       0.8800468 -1.6343204 -2.7743444 0.092698574
000100 d0 3f 7a c0 cd 10 33 3f d8 82 16 c0 52 e4 32 c0
       -3.9101448 0.6994751 -2.351736 -2.7951856
000110 d1 36 73 c0 12 02 bc bf 88 91 1c c0 8c 62 96 bf
       -3.8002207 -1.4688132 -2.4463825 -1.1748824
000120 fd 23 5a c0 1c d8 05 c0 11 99 10 c0 b6 3a 66 bf
       -3.4084466 -2.0913153 -2.2593424 -0.89933336
000130 92 bf 2f c0 22 6a b6 c0 85 d5 80 bf 35 cd a6 be
       -2.7460675 -5.7004557 -1.0065161 -0.32578436
000140 52 df a7 c0 0c 5b ae 3f 84 19 50 c0 bd a3 a1 3e
       -5.246011 1.3621535 -3.2515574 0.31570235
000150 ee fb 53 bf 40 52 c4 bf 26 52 4d c0 c1 14 39 3f
       -0.8280629 -1.5337601 -3.208139 0.7229729
000160 98 2f 12 c0 d0 60 37 3e dd ce 0f c0 7a 19 1a c0
       -2.284155 0.17908025 -2.247001 -2.407805
000170 8a d3 20 bf dc d8 73 c0 a0 75 a7 c0 c4 35 4a bf
       -0.62822783 -3.810111 -5.2331085 -0.7898829
000180 a5 1d 68 3f a8 4d 1f 3f 44 9d 74 3d 00 ff 0b 3f
       0.90670234 0.6222787 0.059720293 0.54685974
000190 16 b4 79 3f 58 aa 4f bf 32 a5 5f 3d 99 1a 06 bd
       0.97540414 -0.811193 0.054600902 -0.03274021
0001a0 67 48 80 be c8 22 fc be d9 56 6a 3f 4f a0 b1 3f
       -0.2505524 -0.49245286 0.9153877 1.3877047
0001b0 55 55 5d 3e d5 fb 9f 3e 45 48 04 3f 2d 15 91 3e
       0.21614583 0.3124682 0.51672775 0.28336468
0001c0 b3 b2 89 3f 5c fe aa c0 43 79 4a c0 7d ef 26 bf
       1.075766 -5.3435497 -3.1636512 -0.6520918
0001d0 d0 4a 49 c0 b6 99 76 be c6 6f ab 3e da f5 6f bf
       -3.1451912 -0.24082074 0.33483714 -0.93734515
0001e0 15 31 02 40 e7 ee 67 3f 00 e2 54 c0 87 af 92 bf
       2.0342457 0.9059891 -3.326294 -1.1459817
0001f0 58 80 3a c0 ca 31 65 be 3d c2 da bf ce eb 6f c0
       -2.9140835 -0.22382274 -1.7090527 -3.7487674
000200 3b 0e 49 bf a7 39 80 c0 db 1d 55 c0 74 e6 bd bd
       -0.7853734 -4.0070376 -3.3299472 -0.09272471
000210 31 2b eb 3f ef 3f e3 bf c8 ec 1a bd 49 6f f0 3e
       1.8372556 -1.7753886 -0.03782347 0.46959904
000220 e4 f5 fc bf b2 f4 10 c0 9f bd 04 3f 95 b3 8f c0
       -1.976254 -2.264935 0.5185184 -4.4906716
000230 ca db 19 40 8d 16 a7 bf 25 7b 0f c0 6e 4a bf bf
       2.4040399 -1.3053757 -2.2418911 -1.4944589
000240 f0 ff f4 bf 15 59 b8 3f d4 24 c4 3f 90 78 37 40
       -1.9140606 1.4402186 1.5323739 2.8667336
000250 7f 8a 84 c0 20 55 a5 be 89 a9 25 c0 ee 15 8a 3e
       -4.1419063 -0.32291508 -2.5884726 0.26969856
000260 7e 88 31 c0 0c c9 f9 3f 02 d9 bc c0 55 02 44 bf
       -2.7739558 1.951448 -5.90149 -0.7656606
000270 7b 73 01 bf 51 05 4c c0 79 af 08 bf 9e ca 3e c0
       -0.50566834 -3.1878245 -0.5339275 -2.9811168
000280 35 47 84 c0 aa 25 76 3f c5 99 d0 be b2 9f 7d 40
       -4.1336923 0.9615122 -0.40742317 3.962872
000290 e0 42 d6 3f 31 4f 1b c0 28 27 69 c0 cd f4 90 be
       1.6739159 -2.4267085 -3.643015 -0.28311768
0002a0 e4 30 02 c0 2f ad 91 c0 3d 34 b8 bf ee 81 ff bf
       -2.034234 -4.5523906 -1.4390942 -1.9961526
0002b0 6b a9 5b 40 2f 0e 16 3f 0f 12 bb c0 ca 4d ea 3e
       3.4322155 0.5861539 -5.8459544 0.45762473
0002c0 4b cf a4 3d 1f 7f 15 3e bb 07 c8 bc e1 6c ab be
       0.080473505 0.14599274 -0.024417749 -0.33481506
0002d0 08 9e 6c 3e f1 30 1e 3e 85 01 10 3e c9 c5 24 be
       0.23107159 0.15448357 0.1406308 -0.16091074
0002e0 13 f7 2b 3e 0e be 20 3e 0d 82 78 3d c5 2f 80 bc
       0.1679347 0.156975 0.0606709 -0.015647778
0002f0 d2 92 2d 3e 55 33 b9 3e c1 25 90 3d 44 a5 3c 3e
       0.16950539 0.36171976 0.07038451 0.18422419
000300 5c ad 23 3f 7c 12 92 bf 81 d4 ab 3f d3 86 44 3f
       0.639364 -1.1411891 1.3424226 0.76768225
000310 15 d7 32 bf 41 d4 2e bc 40 85 b6 be 05 ce ec be
       -0.6985944 -0.010670722 -0.35648537 -0.4625093
000320 4c 75 cb 3d 8d d2 d1 bf 96 70 e4 3c f8 01 53 bf
       0.09934482 -1.639238 0.027885716 -0.8242488
000330 93 7a 83 3e c0 30 e2 3e 44 04 56 be ac a1 f6 bf
       0.25679454 0.44177818 -0.20900065 -1.9268088
000340 ed 03 dc 3e 3e 68 d6 3e b8 66 4a 3f 9d 9d be be
       0.42971745 0.41876405 0.79062986 -0.37229624
000350 25 3a b4 3f 6a 6b 7c 3e 6e 13 45 3f 53 7f 1b be
       1.4080244 0.2465035 0.7698277 -0.15185289
000360 b3 a6 30 bf f9 d3 6c 3f ff 45 99 be c1 e8 9b 3f
       -0.6900436 0.92510945 -0.29936215 1.2180406
000370 f2 8f a3 3f bc e9 4f 3f 14 68 8c 3e 65 e5 ef bf
       1.2778304 0.81216025 0.27423155 -1.8741881
000380 4a 19 33 3f 5f c2 0c bd 81 83 0b bd 99 de c2 bf
       0.69960463 -0.034365054 -0.03406096 -1.5224181
000390 fb d0 01 3f 09 58 b0 3f f5 84 64 3f 1a d6 0e bc
       0.50709504 1.3776866 0.89265376 -0.008718038
0003a0 8c aa ef 3e 07 02 1d 3e 1f bc cd 3e 90 56 e8 ba
       0.46809804 0.15332805 0.40182588 -0.0017725993
0003b0 73 60 71 3f e4 30 65 3e 11 67 71 3f 76 b5 55 bf
       0.94287795 0.22381932 0.9429789 -0.8348001
0003c0 61 2a b4 3e 81 7d a9 bd 61 4d fe 3e b1 1d 78 3e
       0.35188583 -0.08275891 0.4966841 0.24230076
0003d0 74 aa f0 3e d3 5f cd 3c 6d 31 3f 3e 00 9e 42 be
       0.47005045 0.025070107 0.18671198 -0.19005585
0003e0 e0 62 bf 3e 84 01 3b be 92 fd 14 3f ee c9 a9 3e
       0.37380123 -0.18262297 0.5819942 0.33161873
0003f0 ea f6 2b 3e 7e 5b 72 3f 87 84 5d 3d 9b c2 87 3e
       0.16793409 0.94670856 0.054081466 0.2651566

manipulable_decoder.6.bias f4 [16]
000000 01 03 d0 3f 75 8a 1f 3f 61 a9 81 3e 92 fb 91 c0
       1.6250917 0.62320644 0.25324538 -4.5619593
000010 29 65 63 c0 1a 28 df c0 32 87 27 40 85 ed 35 3f
       -3.5530493 -6.973645 2.6176267 0.7106555
000020 71 f3 37 c0 22 1d bf c0 d0 0f 12 c0 5d e8 f2 3f
       -2.8742335 -5.9723063 -2.282215 1.8977162
000030 d7 59 be bd f3 c2 91 bf ab b6 be 3f 46 4a 81 40
       -0.09294479 -1.1387619 1.4899496 4.0403166
