mnist_results/gen_manipulable_ae_v4_perceptual_wgan-gp/mnist_tripletnet_state_dict.pth (torch, 169517 bytes, 20 tensors)

representation_encoder.0.weight f4 [16, 1, 3, 3]
0	0xbfb77a28	-1.4334154
1	0xbf7497b5	-0.95543987
2	0xbe26526c	-0.16242379
3	0xbfa2a7f6	-1.2707508
4	0x3f1adf1c	0.6049669
5	0x3f4230f5	0.7585595
6	0xbfb915e0	-1.4459801
7	0xbe892bb8	-0.26791167
8	0x3f0b9524	0.54524446
9	0x3f242d63	0.64131755
10	0x3e342c0b	0.17594926
11	0xbf42568a	-0.759133
12	0x3ecbf97e	0.39838785
13	0xbf464478	-0.77448225
14	0xbf7a9227	-0.9787926
15	0xbf5d8d92	-0.86544144
16	0xbff70f5b	-1.9301561
17	0x3f2650ac	0.64966846
18	0xbe3034dc	-0.17207664
19	0xbf6d1955	-0.9261678
20	0x3f492199	0.7856689
21	0xbfd50c7b	-1.6644434
22	0xbd19726e	-0.037462644
23	0x3f6cd348	0.9250989
24	0xbe06928d	-0.13141842
25	0x3f44454d	0.76668245
26	0x3e419bd7	0.18907104
27	0x3f1db0a7	0.61597675
28	0x3e9a4fa0	0.30138874
29	0x3ef7fe84	0.48436368
30	0x3dd67e0a	0.10473259
31	0x3f44650c	0.76716685
32	0xbf92298b	-1.1418928
33	0xbfa62e33	-1.2982849
34	0xbf98b0b8	-1.192893
35	0xbf0f73a7	-0.56035846
36	0xbf83e83f	-1.0305251
37	0xbf528edf	-0.82249254
38	0x3e30b48a	0.1725637
39	0x3fcf99ec	1.6218848
40	0x3f8d1dce	1.1024721
41	0x3f17fcc9	0.59370095
42	0xbe58cc75	-0.21171744
43	0xbf2caa61	-0.6744748
44	0xbd5e3529	-0.054249916
45	0xbf84c904	-1.0373845
46	0xbdadf91a	-0.08494778
47	0x3ecaf648	0.39641023
48	0x3e073031	0.13201977
49	0xbfe5b910	-1.7947102
50	0x3f2e3ffd	0.6806639
51	0x3f3602b7	0.7109789
52	0xbf6c59d7	-0.92324585
53	0xbf22f6ef	-0.6365804
54	0xbe2c0caa	-0.16801706
55	0x3ea45cf5	0.3210217
56	0x3fa2e410	1.2725849
57	0xbeb80622	-0.3594218
58	0xbfaf783d	-1.3708569
59	0xbfe5825b	-1.7930406
60	0x3f0dd294	0.5539944
61	0x3e0d6548	0.13808167
62	0x3df024a0	0.11725736
63	0x3e631de1	0.22179367
64	0x3f43fbfb	0.76556367
65	0x3f299da9	0.66256195
66	0xbe4e8465	-0.20167692
67	0x3eba1971	0.36347535
68	0x3f8adb75	1.0848223
69	0xbfae01da	-1.3594315
70	0xbf9030fc	-1.1264949
71	0xbf2e6886	-0.6812824
72	0xbef509c5	-0.47859016
73	0x3e987070	0.29773283
74	0xbe89a4a9	-0.26883438
75	0x3efca418	0.49343944
76	0x3fa4bf56	1.2870891
77	0xbf4d2d04	-0.80146813
78	0xbdc583ab	-0.09644254
79	0x3f0682cc	0.5254333
80	0xbff3e57e	-1.905441
81	0xbed7da95	-0.42158952
82	0xbfd3c7c0	-1.6545334
83	0xbe98d321	-0.2984858
84	0x3f848350	1.0352573
85	0xbef35d27	-0.47532007
86	0xbf7a7972	-0.9784156
87	0x3f32d004	0.69848657
88	0x3f14cea2	0.58127797
89	0xbe9a65a6	-0.30155677
90	0x3f49c77e	0.78820026
91	0x3f6b2017	0.9184584
92	0x3f9a1d9f	1.204029
93	0xbdd696e2	-0.10477997
94	0xbf289913	-0.6585857
95	0xbc3445d8	-0.01100298
96	0x3f001353	0.50029486
97	0x3f8cf62c	1.1012626
98	0x3f5f9269	0.8733278
99	0x3f68df2b	0.9096553
100	0xbfac9640	-1.3483353
101	0x3eddda37	0.43330547
102	0x3f812fe8	1.0092745
103	0xbfe9abc9	-1.825555
104	0x3ed538d4	0.4164492
105	0xbe91d484	-0.2848245
106	0x3eb6c657	0.35698196
107	0x3ce35434	0.027750112
108	0xbf5af6f9	-0.855331
109	0xbfead15b	-1.834514
110	0xbea30a49	-0.31843784
111	0xbe9e02e8	-0.30861592
112	0x3eca6797	0.39532158
113	0x3f38d944	0.7220652
114	0x3f8042ef	1.0020427
115	0x3f638d2d	0.8888729
116	0xbe8e2f2b	-0.2777036
117	0x3f3d5e96	0.7397245
118	0xbf49bc83	-0.7880327
119	0xbfcca3bf	-1.5987471
120	0xbfe272c7	-1.7691277
121	0xbf1543b3	-0.58306426
122	0x3ecb9931	0.39765313
123	0xbf13a101	-0.5766755
124	0x3f2d83a6	0.67779005
125	0x3e753e4c	0.23949546
126	0x3e98cf23	0.29845533
127	0xbe325fe6	-0.17419395
128	0x3edd096d	0.43171254
129	0x3fadad35	1.3568484
130	0x3ff0a75c	1.8801074
131	0x3f904d92	1.1273673
132	0xbeda4eb2	-0.42638165
133	0x3f9411e2	1.1567957
134	0x3e2a262f	0.16616128
135	0xbfa4decc	-1.2880492
136	0x3f0ef894	0.5584805
137	0x3e1d30fa	0.15350714
138	0xbf7a0e66	-0.9767822
139	0x3fafdfb5	1.3740145
140	0x3ebf2264	0.37330925
141	0x3e8f0ad1	0.2793794
142	0x3ecda3ae	0.4016394
143	0xbf61187b	-0.8792798

representation_encoder.0.bias f4 [16]
0	0xbe956fee	-0.29186958
1	0x3c8b254c	0.016985558
2	0xbe9fef2a	-0.31237155
3	0xbc68b812	-0.014204042
4	0x3d7e82c8	0.06213644
5	0x3dd1acd5	0.10238043
6	0xbe2cbfd8	-0.16870058
7	0xbe475d7c	-0.19469255
8	0xbdb022e8	-0.08600408
9	0xbeb108eb	-0.34577116
10	0x3e04362c	0.1291129
11	0x3e8c8fc5	0.27453437
12	0x3e1debf8	0.15422046
13	0x3e3e6658	0.18593729
14	0x3e23ef0d	0.1600916
15	0x3d924903	0.07142832

representation_encoder.2.weight f4 [16]
0	0x3f6d78e9	0.9276262
1	0x3f66b803	0.9012453
2	0x3f4c1836	0.7972444
3	0x3f29ec9e	0.66376674
4	0x3f40c52f	0.7530088
5	0x3f8df164	1.1089292
6	0x3f1a1bdc	0.6019876
7	0x3f80728c	1.0034957
8	0x3f473ebe	0.7783011
9	0x3f6748a8	0.9034524
10	0x3ecdf0ca	0.4022277
11	0x3f06930e	0.5256814
12	0x3f73e4dc	0.95271087
13	0x3f73c95c	0.95229125
14	0x3f3752ba	0.71610606
15	0x3f6cfe50	0.9257555

representation_encoder.2.bias f4 [16]
0	0xbfa1c709	-1.2638866
1	0xbe8e0a43	-0.27742204
2	0xbe92d552	-0.28678375
3	0xbedb6932	-0.42853695
4	0xbfb3d857	-1.4050397
5	0xbee4ff4b	-0.44726023
6	0x3c92c7e6	0.017917585
7	0xbf892222	-1.0713542
8	0xbef3481c	-0.47515953
9	0xbec64660	-0.38725567
10	0x3f2de8dc	0.6793344
11	0xbf4a34fc	-0.789871
12	0xbf0eb2e2	-0.55741704
13	0x3ec887c8	0.39166093
14	0x3f558087	0.8339924
15	0xbf33312c	-0.69996905

representation_encoder.2.running_mean f4 [16]
0	0xbe8b9548	-0.2726233
1	0x3d21ed92	0.039533205
2	0x3d3b332b	0.045703094
3	0x3e05f6b2	0.13082388
4	0x3edb73a7	0.42861673
5	0x3d6a097a	0.057137944
6	0xbd5afe23	-0.05346502
7	0x3e0fab62	0.14030221
8	0x3de7788b	0.113022886
9	0xbe7a541e	-0.2444615
10	0x3f990736	1.1955326
11	0x3eff6cad	0.498876
12	0x3f0036bb	0.5008351
13	0x3e4bcd57	0.1990255
14	0x3fcc1dc8	1.5946589
15	0x3ec47eb5	0.3837792

representation_encoder.2.running_var f4 [16]
0	0x3e9eb450	0.30996943
1	0x3e68c9e2	0.22733262
2	0x3ef6fa31	0.48237756
3	0x3e72f40c	0.23725909
4	0x3ec807c0	0.39068413
5	0x3e093a7d	0.13401218
6	0x3df04286	0.11731438
7	0x3eff4162	0.4985457
8	0x3e653cee	0.22386524
9	0x3e694b5b	0.22782652
10	0x400eabb3	2.2292297
11	0x3e14e9cc	0.14542311
12	0x3efc9945	0.49335685
13	0x3e4974c0	0.19673443
14	0x409138b3	4.5381713
15	0x3eae8a89	0.3409007

representation_encoder.4.weight f4 [32, 16, 3, 3]
0	0x3e8d8fdd	0.2764882
1	0x3f5a7f5d	0.8535059
2	0x3fd04cff	1.6273497
3	0x3e35ab91	0.17741229
4	0xbe0237ed	-0.12716646
5	0x3ead765c	0.33879364
6	0x3d5ba101	0.053620342
7	0x3e6794a2	0.22615293
8	0x3f5df69b	0.86704415
9	0xbecd5d68	-0.40110326
10	0x3f06c9d0	0.5265169
11	0x3f6ff378	0.9373088
12	0xbde221ff	-0.110416405
13	0x3f88e2bb	1.0694193
14	0x3ec401c9	0.38282612
15	0x3feb2f5a	1.8373826
16	0x3f0e88d6	0.55677545
17	0xbf43d7f7	-0.7650141
18	0x3e83cffa	0.2574461
19	0xbfa11de1	-1.2587243
20	0x3fa78de6	1.3090179
21	0x3f749547	0.9554028
22	0x3d9197c8	0.07109028
23	0x3eda707e	0.4266395
24	0xbefb18f9	-0.4904249
25	0xbdb80667	-0.08985596
26	0xbd736e1e	-0.059431188
27	0xbf035d7d	-0.51314527
28	0x3e0fd9b4	0.14047891
29	0xbf2597b6	-0.6468462
30	0x3e480d45	0.19536312
31	0x3f30ab5c	0.69011474
32	0x3e09a013	0.1343997
33	0x3f653b1d	0.89543325
34	0xbec4ab49	-0.3841193
35	0x3e9933e1	0.29922393
36	0x3f3c7cb7	0.736278
37	0x3fb2e2cf	1.3975466
38	0xbf02075d	-0.50792485
39	0x3f3be1c9	0.73391396
40	0x3e6bf225	0.2304159
41	0xbfc87f89	-1.5663921
42	0xbfc2bc13	-1.5213646
43	0xbf14ad3d	-0.5807684
44	0x3fa0f254	1.2573953
45	0x3f733b29	0.95012146
46	0x3f8bf64f	1.0934542
47	0x3f83990d	1.0281082
48	0x3f14cdae	0.5812634
49	0xbf403647	-0.7508282
50	0xbfd962ea	-1.6983311
51	0xbee74056	-0.45166272
52	0xbf9452f1	-1.1587812
53	0xbf9bca72	-1.2171156
54	0x3e68e341	0.2274294
55	0xbd800fe7	-0.06253033
56	0xbf991077	-1.195815
57	0x3ef71673	0.48259315
58	0xbe87e18d	-0.2653927
59	0xbf775a68	-0.96622324
60	0xbeb292ce	-0.34877628
61	0x3e7d4d68	0.2473656
62	0xbe2e1458	-0.16999948
63	0x3f0f7924	0.5604422
64	0xbefad6f2	-0.48992115
65	0xbf202607	-0.62558025
66	0xbe3eb002	-0.18621829
67	0xbedb730e	-0.42861217
68	0xbfbbe0ee	-1.4678018
69	0xbfd31400	-1.6490479
70	0xbfcc4061	-1.5957147
71	0xbcdd3233	-0.027001476
72	0xbc368642	-0.011140408
73	0x3f78809d	0.9707125
74	0xbf2aa0b4	-0.66651464
75	0x3f851347	1.0396508
76	0x3f22be3f	0.6357154
77	0xbf3810a0	-0.7190037
78	0x3f752150	0.95753956
79	0x3f697189	0.91188866
80	0xbf00841c	-0.5020158
81	0x3f82d62c	1.022161
82	0x403bffef	2.937496
83	0xbdd30efa	-0.10305591
84	0x3f322363	0.69585246
85	0x3f42807f	0.7597732
86	0xbeb6efc3	-0.357298
87	0xbf6b3eac	-0.91892505
88	0xbf318950	-0.6935015
89	0xbe97f6d4	-0.29680502
90	0x3f068cba	0.5255848
91	0xbd0c8cab	-0.03431384
92	0xbe9eccda	-0.31015664
93	0x3f83c58a	1.0294659
94	0xbe57ea56	-0.21085486
95	0xbfd78c5a	-1.6839707
96	0x3f2ab9f1	0.66689974
97	0xbf6c7f8f	-0.9238214
98	0xbf961757	-1.1725873
99	0xbf9c24b1	-1.2198697
100	0x3e82123e	0.25404543
101	0x3eedf7e2	0.46478182
102	0xbf29f4bc	-0.6638906
103	0x3f8d6aa3	1.1048168
104	0xbe2a75df	-0.16646527
105	0xbdcf2b4b	-0.10115679
106	0x3eb54255	0.3540217
107	0xbe683ccb	-0.2267944
108	0x3f012750	0.5045061
109	0x3c7100be	0.01470965
110	0xbf99bd08	-1.2010813
111	0x3c9cd734	0.019145586
112	0xbf5e633d	-0.86870176
113	0xbefe10ca	-0.49622184
114	0xbf6fb381	-0.93633276
115	0xbf51d52c	-0.819659
116	0x3d4b58cd	0.049645234
117	0x3e8e0cd1	0.27744153
118	0xbf841dcc	-1.0321593
119	0xbe292d26	-0.16521129
120	0xbeae1af5	-0.34004942
121	0x3f18da87	0.59708446
122	0xbef7355a	-0.48282892
123	0x3efe76be	0.49699968
124	0x3f778322	0.9668447
125	0x3faf5f39	1.3700935
126	0x3e76cba2	0.24101117
127	0x3e6df5e0	0.23238325
128	0xbf9688b8	-1.1760473
129	0x3f819d4b	1.0126127
130	0xbf10f475	-0.5662301
131	0xbff961df	-1.9482993
132	0x3f1a5454	0.60284925
133	0xbf689788	-0.9085622
134	0xbf8dd8fe	-1.1081846
135	0x3f88b66c	1.0680671
136	0xbf262568	-0.6490083
137	0x3e1e52f8	0.15461338
138	0x3f41e91f	0.7574634
139	0xbf89fdae	-1.0780542
140	0x3dcfcbfd	0.101463296
141	0xbda27ea9	-0.07934315
142	0xbece7678	-0.4032476
143	0x3e84c7b9	0.25933626
144	0xbee67d26	-0.45017356
145	0x3d983a10	0.074329495
146	0xbf600109	-0.8750158
147	0xbf739885	-0.951546
148	0xbf878782	-1.0588229
149	0x3d921c39	0.07134289
150	0x3f03c8d6	0.51478326
151	0xbe078913	-0.13235883
152	0x3fa296d0	1.2702274
153	0x3eae8522	0.34085947
154	0xbf08d22f	-0.53445715
155	0xc00aa9a9	-2.1666052
156	0x3e440c4c	0.19145316
157	0x3d2d6eb4	0.042341903
158	0xbf842c42	-1.0326006
159	0xbe298b77	-0.16557108
160	0x3f9bb893	1.2165703
161	0x3f9d9944	1.2312398
162	0xbc26fa33	-0.010191488
163	0xbdb35eb2	-0.08758296
164	0xbfb2a6f2	-1.3957198
165	0xbec24eb4	-0.3795067
166	0x3e937b63	0.28805074
167	0x3dd7dd91	0.10540307
168	0xbd927fa5	-0.071532525
169	0x3e2445d3	0.16042261
170	0x3e708e5a	0.23491803
171	0x3ee93be0	0.45553493
172	0x3e807c05	0.2509462
173	0xbf40224f	-0.7505235
174	0x3d23fb3a	0.04003451
175	0x3e2e4705	0.1701928
176	0xbef36fae	-0.47546142
177	0xbfaf9d69	-1.3719913
178	0x3d8a63bf	0.06757306
179	0x3ee4f5f9	0.44718912
180	0xbdbcb985	-0.092150725
181	0xbe1bb1fc	-0.15204614
182	0x3eed691d	0.46369258
183	0xc00b4345	-2.1759808
184	0xbfc1be41	-1.5136186
185	0xbf3d7c65	-0.74017936
186	0xbf2a7b96	-0.6659483
187	0xbf4ff6d6	-0.81236017
188	0xbf0f83e1	-0.56060606
189	0x3eed1713	0.46306667
190	0x3f588f6b	0.8459384
191	0x3f341788	0.70348406
192	0x3d2a64b9	0.041599963
193	0x3f3d253a	0.7388493
194	0x3f3e76a6	0.74399793
195	0xbf1efb5b	-0.6210229
196	0xbe28ab51	-0.16471602
197	0x3eb0e989	0.34553173
198	0x3f58620d	0.84524614
199	0x3f5a323e	0.85232913
200	0x3c3b442a	0.011429826
201	0x3ec7c296	0.39015645
202	0x3f98c7d2	1.193598
203	0x3e74d126	0.23907909
204	0xbf55d7f5	-0.8353265
205	0x3e0eafc1	0.13934232
206	0x3dee1118	0.11624354
207	0x3faef62f	1.3668879
208	0x3fb24ee4	1.3930326
209	0x3e518444	0.20460612
210	0x3eada4b4	0.3391472
211	0x3f2f71e1	0.6853314
212	0x3ec7e374	0.3904072
213	0xc00ad756	-2.169393
214	0xbf3db5d0	-0.7410555
215	0xbe3c6949	-0.18399538
216	0x3ef79ac9	0.4836028
217	0x3e341a43	0.17588143
218	0x3f266130	0.64992046
219	0xbfaa3dd9	-1.3300124
220	0xbff36113	-1.9014
221	0xbea51984	-0.3224603
222	0x3d6534a0	0.05595839
223	0x3c52a857	0.012857518
224	0xbde67d71	-0.11254395
225	0xbf9cec9c	-1.2259707
226	0xbf36b321	-0.7136708
227	0x3fe02330	1.7510738
228	0x3f133d6d	0.57515603
229	0xbf102905	-0.5631259
230	0x3c8e3e35	0.017363647
231	0xbf8f64d9	-1.1202651
232	0xbf7e9129	-0.99440247
233	0x3ece0a82	0.40242392
234	0x3ce2994a	0.027660985
235	0x3f3d001b	0.73828286
236	0x3ecd7345	0.40127006
237	0xbf2f4fd2	-0.6848117
238	0xbe09c677	-0.13454615
239	0xbef26523	-0.47342786
240	0xbfc10e78	-1.508254
241	0xbf1eafd5	-0.6198705
242	0x3e72f981	0.2372799
243	0x3f7de53b	0.991779
244	0xbfd3ea21	-1.6555825
245	0xbcf983e7	-0.030458404
246	0x3db11805	0.086471595
247	0xc0187106	-2.3818984
248	0xbf4c27f9	-0.79748493
249	0x3df0886a	0.11744769
250	0xbf5cc1f9	-0.8623348
251	0x3f8003f3	1.0001205
252	0xbf4fa2db	-0.8110787
253	0xc000c8ee	-2.0122638
254	0x3e4becfa	0.19914618
255	0xc0054b25	-2.0827115

representation_encoder.4.bias f4 [32]
0	0x3d1e9c0c	0.038723037
1	0xba925df8	-0.0011166921
2	0x3d98f477	0.07468503
3	0x3c4a26ba	0.012338335
4	0xbc9e5b26	-0.019330572
5	0x3d877ad1	0.06615222
6	0xba1ef2db	-0.000606341
7	0xbd6bef56	-0.057601295
8	0x3d0c7a81	0.034296516
9	0x3d9f8cc3	0.0779052
10	0x3c3a48f3	0.0113699315
11	0x3cc7b020	0.024375975
12	0xbd4a9c57	-0.049465504
13	0x3d147be5	0.036250968
14	0x3d566a5e	0.052347533
15	0xbce1beaa	-0.027556736
16	0x3d4767ca	0.048682965
17	0x3d7a35f9	0.06108663
18	0x3d6e774b	0.058219235
19	0xbdae6c40	-0.08516741
20	0xbd30ecac	-0.043194458
21	0xb9b047be	-0.00033622788
22	0xbda8da8e	-0.08244811
23	0x3cebd8bf	0.028789876
24	0x3d4dd4ee	0.050251894
25	0xbcdeb8be	-0.027187701
26	0x3d2cee53	0.04221947
27	0x3c95daf1	0.018292876
28	0x3d89e254	0.06732622
29	0x3cdb45f1	0.02676675
30	0x3d215f19	0.039397333
31	0x3d9377b3	0.07200565

representation_encoder.6.weight f4 [32]
0	0x3f9c22f0	1.2198162
1	0x3f15159c	0.582361
2	0x3f57cdca	0.84298384
3	0x3f307193	0.689233
4	0x3f53a320	0.82670784
5	0x3f6b95b6	0.92025316
6	0x3f640898	0.89075613
7	0x3f0dabc0	0.55340195
8	0x3f841a21	1.0320474
9	0x3f4f8037	0.81055015
10	0x3f655def	0.89596456
11	0x3f323e12	0.6962596
12	0x3f931f05	1.1493841
13	0x3fa8a18f	1.3174304
14	0x3f83e34a	1.0303738
15	0x3f17f897	0.59363693
16	0x3fd8d7da	1.6940873
17	0x3fd2593a	1.643348
18	0x3f4fff97	0.81249374
19	0x3f9aa3c0	1.2081223
20	0x3f2d5f28	0.6772332
21	0x3f586da9	0.8454233
22	0x3f6f12c6	0.9338802
23	0x3f39bef1	0.7255698
24	0x3f424401	0.75885016
25	0x3f779e85	0.96726257
26	0x3faf9c54	1.3719583
27	0x3f8a8ecf	1.0824832
28	0x3f18981c	0.596071
29	0x3f788041	0.970707
30	0x3f01d8be	0.5072135
31	0x3f8b1592	1.0865958

representation_encoder.6.bias f4 [32]
0	0xbee5a214	-0.44850218
1	0xbdfad0c7	-0.12246852
2	0x3e63d19d	0.2224793
3	0x3da547c0	0.08070326
4	0x3da04110	0.0782491
5	0xbf07bef5	-0.5302575
6	0xbf71b7ea	-0.94421256
7	0xbd2972fc	-0.041369423
8	0xbe629981	-0.2212887
9	0xbf80e596	-1.0070064
10	0xbe30cb79	-0.17265119
11	0xbf079231	-0.52957445
12	0xbf877140	-1.0581436
13	0x3eaf4585	0.34232727
14	0xbedf06e0	-0.43559933
15	0xbf0f5c71	-0.5600043
16	0xbf6b038f	-0.91802305
17	0xbded1249	-0.11575753
18	0xbf31e781	-0.6949387
19	0xbf215da9	-0.6303354
20	0xbf6a23b5	-0.91460735
21	0xbef44381	-0.4770775
22	0xbf1840dd	-0.59473974
23	0xbc691a3c	-0.014227446
24	0xbddd1921	-0.107958086
25	0x3f673fa7	0.903315
26	0x3e43bc69	0.19114842
27	0xbf7d86b0	-0.9903364
28	0xbef309d8	-0.47468448
29	0x3f590991	0.8478022
30	0x3e2ade29	0.1668631
31	0x3c426ed3	0.011867243

representation_encoder.6.running_mean f4 [32]
0	0x4072ca0e	3.7935824
1	0x41898b6a	17.193073
2	0xbfa6d89c	-1.3034854
3	0x41466a6f	12.400985
4	0x4089b653	4.3035064
5	0x3fc2bfda	1.5214798
6	0xbf344373	-0.7041542
7	0x40b31c1f	5.5971828
8	0xc02469c4	-2.5689554
9	0x4163f5a6	14.247473
10	0x40dc3a15	6.88209
11	0x3f28e759	0.6597801
12	0xc094b448	-4.647007
13	0xc03de457	-2.9670618
14	0xbf3f60db	-0.74757165
15	0xbff35b11	-1.9012166
16	0x3f92e8ba	1.1477273
17	0xc03172a8	-2.772623
18	0x40da26b2	6.8172235
19	0x40280a40	2.6256256
20	0xc03a2ad5	-2.9088643
21	0x417f63a1	15.961823
22	0x3f525f78	0.82176924
23	0x3f82ca13	1.0217918
24	0x4180e2c1	16.11072
25	0xc0af9a6a	-5.4875994
26	0xc033093e	-2.797439
27	0xc0579463	-3.3684318
28	0x40c352d6	6.103862
29	0x411bb42b	9.731486
30	0x41948cc7	18.568739
31	0x4087dc10	4.245613

representation_encoder.6.running_var f4 [32]
0	0x426eea9e	59.72912
1	0x421e9ac4	39.65114
2	0x4241ec4a	48.48075
3	0x41eb2800	29.394531
4	0x4233d9b7	44.962612
5	0x420e4e00	35.57617
6	0x420f64eb	35.848553
7	0x41944069	18.53145
8	0x4252bb02	52.682625
9	0x41ea11f5	29.258768
10	0x423ffa1d	47.99425
11	0x420b1c11	34.77741
12	0x4224ffae	41.249687
13	0x42f601a4	123.003204
14	0x41d69793	26.82401
15	0x41b3c382	22.470463
16	0x42578ef3	53.8896
17	0x4347d63b	199.83684
18	0x41b531af	22.64926
19	0x42eb05ce	117.51134
20	0x420b8160	34.876343
21	0x41e30357	28.37663
22	0x41b62c03	22.77149
23	0x4240da2f	48.21307
24	0x41cde7cf	25.738188
25	0x42c8fdcd	100.495705
26	0x42a89d58	84.30731
27	0x41adbff9	21.718737
28	0x41c51f10	24.640167
29	0x42417910	48.368225
30	0x41ed3dc7	29.655165
31	0x4299f176	76.9716

representation_encoder.8.weight f4 [64, 32, 3, 3]
0	0x3f8e3c9d	1.1112248
1	0x3fe46c2e	1.7845514
2	0x3f56dd32	0.8393127
3	0x3e9296ec	0.2863077
4	0x3f9dfc4e	1.2342622
5	0x3e587230	0.21137309
6	0x3ca9da9b	0.020734122
7	0x3e648ee9	0.22320141
8	0x3f355fe8	0.70849466
9	0x3e32f9df	0.17478131
10	0xbf3c4449	-0.73541695
11	0xbe276e26	-0.16350612
12	0xbff19a6e	-1.8875253
13	0xbf4b5d2d	-0.7943905
14	0x3f32527a	0.696571
15	0xbf0a8ed8	-0.5412421
16	0x3ce16e7f	0.027518509
17	0xbf3567d6	-0.70861566
18	0xbe8465a8	-0.25858808
19	0xbef1c2ca	-0.47218925
20	0xbe7fde32	-0.24987105
21	0x3f045686	0.51694524
22	0x3e09e5c1	0.1346655
23	0x3f4dddcd	0.80416566
24	0x3f66532f	0.8997068
25	0xbe30cef0	-0.1726644
26	0xbe8985e2	-0.26859957
27	0x3f4f47d7	0.80968994
28	0xbf453d19	-0.7704635
29	0xc03c236b	-2.9396617
30	0xbf9443ee	-1.158323
31	0x3eee99f6	0.46601838
32	0xbe38ce0a	-0.18047348
33	0x3eb70ba0	0.35751057
34	0x3fc044f4	1.5021043
35	0x3f983311	1.1890584
36	0x3f190ec3	0.5978815
37	0x3ebb5e04	0.36595166
38	0x3dc8e1e2	0.09808709
39	0xbd88644b	-0.06659754
40	0x3e1e1bce	0.15440294
41	0x3f1072b2	0.5642501
42	0x3f5aa09b	0.85401314
43	0x3f7c85fe	0.98641956
44	0x3f7ada83	0.9798967
45	0x3f4b9d44	0.79536843
46	0x3d3fe167	0.04684582
47	0xbee820d7	-0.45337555
48	0xbeddf1f4	-0.43348658
49	0xbe190ed5	-0.14947064
50	0x3f5244c9	0.8213621
51	0xbf7dd65f	-0.9915523
52	0x3df9131b	0.12161847
53	0x3f5392c0	0.826458
54	0x3e95ed52	0.29282624
55	0x40195134	2.3955812
56	0x3f1124dd	0.56696874
57	0xbf666507	-0.89997905
58	0x3e4ea20d	0.20179005
59	0x3fa4053b	1.2814096
60	0xbf7746d6	-0.9659246
61	0xbe741801	-0.23837282
62	0xbf44fc21	-0.7694722
63	0xbf88edc1	-1.0697557
64	0xbe830e3c	-0.25596797
65	0xbf25528b	-0.64579076
66	0x3f58cccf	0.84687513
67	0x3f20b042	0.6276895
68	0xbe5875ed	-0.21138735
69	0xbed3cf65	-0.41369167
70	0xbf37d176	-0.7180399
71	0x3e9adda3	0.3024722
72	0x3dd3791d	0.10325835
73	0x3f4a3d4b	0.78999776
74	0xbe0fc615	-0.14040406
75	0xbf661f58	-0.89891577
76	0xbf17e38e	-0.59331596
77	0x3b36517a	0.002781956
78	0x3f3860c9	0.7202268
79	0xbf3b4b91	-0.7316218
80	0x3ee2947d	0.44253913
81	0x3ef4857e	0.47758096
82	0x3f143d8f	0.5790643
83	0xbf165487	-0.5872273
84	0x3fd2d3dc	1.6470904
85	0x3f198e58	0.59982824
86	0xbf2aceb9	-0.66721684
87	0x3f68d837	0.9095492
88	0x3e7edf1f	0.24889801
89	0xbfaca38b	-1.3487409
90	0x3f054b92	0.52068436
91	0x3f0a2fc4	0.53979135
92	0x3d2485a7	0.040166523
93	0x3f7b5ca4	0.98188233
94	0x3f5c104e	0.8596238
95	0x3de3c21a	0.11121006
96	0x3f2634e4	0.64924455
97	0x3dfebe24	0.1243861
98	0xbeda63fe	-0.42654413
99	0x3db68ed7	0.08913963
100	0x3e07bc0f	0.13255332
101	0x3ec5fbcb	0.38668665
102	0x3e2e821d	0.17041822
103	0x3f3a92bf	0.72880167
104	0x3e1d0dab	0.15337245
105	0x3fa41ecd	1.28219
106	0x3e9c2703	0.30498514
107	0x3f6717d3	0.9027073
108	0x3dbe2fef	0.09286486
109	0x3dcd8a69	0.10036165
110	0x3ee41362	0.44546038
111	0x3e769e5a	0.24083844
112	0x3f975bc3	1.1824878
113	0x3f5f6395	0.87261325
114	0xbeeab2fe	-0.45839685
115	0xbf0f1031	-0.5588408
116	0xbe275d26	-0.16344127
117	0x3fca4ff7	1.5805653
118	0x3fa0735f	1.2535208
119	0xbedbe0ed	-0.42945042
120	0x3e69c989	0.22830786
121	0x3f095c4a	0.53656447
122	0x3d26c139	0.040711615
123	0xbea9f138	-0.33191848
124	0x3ed5801a	0.41699296
125	0xbe39ae64	-0.18132931
126	0xbf266721	-0.6500111
127	0xbf17c1a9	-0.59279877
128	0xbbf686ce	-0.007523394
129	0xbf9d18b5	-1.2273165
130	0xbf999261	-1.1997796
131	0x3ea8d502	0.32975012
132	0xbef38816	-0.47564763
133	0x3ef49946	0.47773188
134	0x3fa04d23	1.252354
135	0xbfb484a7	-1.4102982
136	0xbf5808e4	-0.84388566
137	0x3f9dbb6a	1.2322819
138	0xbef12fb3	-0.47106704
139	0x3ed5e1c3	0.41773805
140	0x3f29e748	0.6636853
141	0xbf21f329	-0.6326166
142	0xbecae3f8	-0.3962705
143	0x3dd059c4	0.101733714
144	0x40312e5d	2.7684548
145	0x3f92307e	1.1421049
146	0xbea1673a	-0.31524068
147	0x3fff6e93	1.995562
148	0xbf397ba9	-0.72454315
149	0x3cf45b1e	0.029828604
150	0x3f9ab8a7	1.2087601
151	0xbf149a49	-0.5804792
152	0xbfa4e09c	-1.2881045
153	0x3efa8ac7	0.48934004
154	0x3ef3e6b7	0.4763696
155	0xbf25d2b7	-0.6477465
156	0xbf813db3	-1.0096954
157	0xbc88d938	-0.01670514
158	0x3dd94f61	0.106108434
159	0xbf85910b	-1.0434889
160	0x3fdabc6c	1.7088752
161	0x3f6dd4a5	0.92902595
162	0x400f787d	2.241729
163	0x3f85b054	1.0444436
164	0xbe954f9a	-0.29162294
165	0xbfae650f	-1.3624591
166	0x3e92dcbd	0.28684035
167	0xbed9fd2b	-0.42575964
168	0xbf80f602	-1.0075076
169	0xbe445aff	-0.19175337
170	0x3ebfc96c	0.3745836
171	0x3fe65b60	1.7996635
172	0x3eeca8c8	0.4622252
173	0xbe0de149	-0.1385547
174	0x3ffa5e96	1.9560115
175	0x3e654c2c	0.22392339
176	0xc006918a	-2.102633
177	0xbe97bb56	-0.29635113
178	0xbc347b3b	-0.011015709
179	0x3f2860ac	0.6577251
180	0xbe410505	-0.18849571
181	0x3e7b1cd7	0.2452272
182	0xbfb1764c	-1.3864226
183	0x3d932321	0.07184435
184	0x3fa69dfc	1.3016963
185	0x3eee9ff3	0.46606407
186	0xbe8c5c97	-0.2741439
187	0xbddddc80	-0.10833073
188	0x3f9ecfce	1.2407167
189	0xbf84cb2d	-1.0374504
190	0xbe9c9d38	-0.30588698
191	0xc0005276	-2.005033
192	0xbec62b1a	-0.3870476
193	0x3df63c31	0.12023199
194	0x3ece05f8	0.4023893
195	0xbec3d6c3	-0.38249788
196	0x3fc15ff8	1.5107412
197	0x3fb3c464	1.4044309
198	0xbf9f4401	-1.2442628
199	0x3f021d7f	0.5082626
200	0xbeeff6d6	-0.46868008
201	0x3da7f82c	0.08201632
202	0x3fb317ad	1.39916
203	0x3f12b936	0.5731386
204	0xbe0c3f87	-0.13696109
205	0xbf2f8d39	-0.68574864
206	0x3e524e08	0.20537579
207	0xbf4817cc	-0.7816131
208	0xbf3e8ec9	-0.7443662
209	0xbf014d86	-0.50508916
210	0x3ea0a9f2	0.31379658
211	0xbf64355f	-0.8914394
212	0x3f5f282d	0.8717068
213	0x3f68fb53	0.9100849
214	0xbe303953	-0.17209367
215	0x3f38f7e0	0.7225323
216	0xbeabb912	-0.33539635
217	0xbf483a4e	-0.78213966
218	0xbf2f30f5	-0.6843408
219	0x3ed20d4f	0.4102578
220	0xbf5cb065	-0.86206657
221	0xbe329541	-0.17439748
222	0x40068d57	2.1023767
223	0x3f08c1fd	0.53421
224	0xbe663467	-0.22480927
225	0x3f6ffd25	0.9374564
226	0xbecea3ad	-0.4035925
227	0xbf756f98	-0.95873404
228	0x3fb77303	1.4331974
229	0x3fb29876	1.3952777
230	0xbfb788cc	-1.4338622
231	0x3f91ba68	1.1385012
232	0xbeeec3d2	-0.46633774
233	0xbf01d54f	-0.5071611
234	0xbf4708c4	-0.7774775
235	0xbfb8743b	-1.4410471
236	0xbf4be0cf	-0.79639906
237	0xbe12200d	-0.14270039
238	0xbef9e7f7	-0.48809788
239	0xbe2643d7	-0.16236816
240	0x3f1b6991	0.60707957
241	0x3c059606	0.008153444
242	0x3fb4964f	1.410837
243	0x3f98bd2d	1.1932732
244	0x3f7a6db6	0.97823656
245	0xbf969a47	-1.1765832
246	0xbf3a103e	-0.72681034
247	0x3e4445a8	0.19167197
248	0xbe865267	-0.26234743
249	0xbebf151d	-0.37320796
250	0xbed30b6c	-0.41219652
251	0xbe1e2956	-0.15445456
252	0xbf3062d4	-0.689008
253	0xbf1c48bf	-0.610485
254	0xbf5ae745	-0.8550914
255	0xc00d71da	-2.210074

representation_encoder.8.bias f4 [64]
0	0x3d35578e	0.04427295
1	0x3c2c4a1c	0.010515716
2	0xbc45654b	-0.012048076
3	0x3c407e7b	0.011748905
4	0x3d540ec7	0.051771905
5	0x3d14900e	0.036270194
6	0xbcd6332e	-0.026147451
7	0xbd5eb9c5	-0.054376382
8	0xbd56b2f0	-0.05241674
9	0x3c6dec77	0.01452171
10	0xbc6551a1	-0.013996513
11	0x3d153a40	0.036432505
12	0x3ca5bf7a	0.020232905
13	0xbd2343e7	-0.03985968
14	0xbc65ebba	-0.014033252
15	0x3c47e045	0.012199466
16	0xbd06338b	-0.032764
17	0x3c132474	0.008980859
18	0xbcec8a81	-0.028874638
19	0x3c4304a2	0.01190296
20	0x3d408445	0.047001142
21	0xbcc51238	-0.024056539
22	0x3cbc09a9	0.022953825
23	0xbc2efe8a	-0.010680804
24	0x3cb7933f	0.02240908
25	0xbc8d063e	-0.01721489
26	0xbcb5e0bb	-0.022201886
27	0x3c493a41	0.012281955
28	0x3c07c3e6	0.008286452
29	0x3cb910fb	0.022591105
30	0x3cd8bac9	0.026456254
31	0x3ca1288d	0.019672656
32	0xbd26c39f	-0.040713903
33	0xbd0eb4ac	-0.03484027
34	0xbd63db41	-0.05562902
35	0xbd639969	-0.055566225
36	0x3ca62813	0.02028278
37	0x3d5eeebf	0.054426905
38	0xbd086dbb	-0.033307772
39	0x3be74789	0.007058088
40	0x3d36654f	0.04453021
41	0xbd278d94	-0.040906504
42	0x3d4d737c	0.050158963
43	0xbc8cbde7	-0.017180396
44	0xbc0c606b	-0.00856791
45	0x3d020d64	0.03175105
46	0xbd2e54cf	-0.04256135
47	0x3cbbd0c8	0.022926703
48	0xbcfb3e13	-0.030669248
49	0xbcafb8ca	-0.021450419
50	0x3c8652b3	0.016396856
51	0xbcc30961	-0.023808183
52	0x3c844331	0.01614532
53	0xbd0dad08	-0.034588844
54	0x3be565f3	0.0070006787
55	0x3cefa593	0.029253757
56	0xbbfc2dc7	-0.007695887
57	0x3d4c2ccf	0.04984742
58	0x3b993431	0.004675411
59	0x3cdcd47d	0.026956791
60	0x393e82c9	0.00018168533
61	0xbcb09abe	-0.021558162
62	0xbd1b8f6f	-0.037978586
63	0xbaf6c7c1	-0.0018827842

representation_encoder.10.weight f4 [64]
0	0x3ee9c637	0.45659038
1	0x3ea879c9	0.32905415
2	0x3e9e52ca	0.30922538
3	0x3e04de75	0.12975486
4	0x3e618e23	0.22026877
5	0x3eae6273	0.34059486
6	0x3f52cbb6	0.8234209
7	0x3eb142bf	0.34621236
8	0x3e192277	0.14954554
9	0x3e3cb20b	0.18427293
10	0x3ea246cf	0.31694648
11	0x3e51b574	0.20479375
12	0x3e50e475	0.2039965
13	0x3f594e15	0.8488477
14	0x3f07d15a	0.5305382
15	0x3e259776	0.16171059
16	0x3e0bb66e	0.1364381
17	0x3e0fce5d	0.14043565
18	0x3ec705b0	0.38871527
19	0x3e5bd24e	0.21466944
20	0x3e269575	0.16267951
21	0x3e373d4f	0.17894481
22	0x3e45d156	0.19318137
23	0x3e0fcc67	0.14042817
24	0x3eb3b7f3	0.3510128
25	0x3e4bddec	0.19908875
26	0x3e33d08d	0.17560025
27	0x3e55e0d0	0.2088654
28	0x3e9498e3	0.29022893
29	0x3e4bda13	0.19907407
30	0x3e761427	0.24031125
31	0x3f574eb5	0.8410447
32	0x3f0f4c1c	0.5597551
33	0x3e291a2b	0.16513889
34	0x3ed43c7b	0.41452393
35	0x3f04d307	0.518845
36	0x3db3d714	0.08781257
37	0x3eb480a2	0.3525439
38	0x3e8049c3	0.25056276
39	0x3ed508bc	0.41608226
40	0x3e0e7053	0.13910036
41	0x3e23de67	0.16002809
42	0x3c8eb8b6	0.017422061
43	0x3e679ddf	0.22618817
44	0x3e50e2a3	0.20398955
45	0x3f608a81	0.8771134
46	0x3ed3044c	0.41214216
47	0x3ea5ad3e	0.32358736
48	0x3e51c3d6	0.20484862
49	0x3ef3e62a	0.4763654
50	0x3e89d018	0.26916575
51	0x3ecf6968	0.40510106
52	0x3e21182c	0.15731877
53	0x3e4cd1fc	0.20001978
54	0x3ea94aa5	0.33064762
55	0x3e647c3d	0.22313018
56	0x3e966e82	0.29381186
57	0x3ec5a4cf	0.386023
58	0x3e418318	0.18897665
59	0x3e7da293	0.24769048
60	0x3eca1f84	0.3947717
61	0x3e9b8821	0.30377296
62	0x3ece768c	0.4032482
63	0x3dee46f4	0.11634627

representation_encoder.10.bias f4 [64]
0	0x3fa68d41	1.3011857
1	0x3fab6938	1.3391485
2	0x40204cef	2.5046957
3	0x3faced85	1.3509985
4	0xbfebddd4	-1.8427072
5	0x3f5d1934	0.8636658
6	0xbf65cd0a	-0.8976599
7	0x3ea42c8d	0.3206524
8	0xbf4c7982	-0.79872906
9	0x40a36c7b	5.1069922
10	0x3ee8d566	0.4547531
11	0xbfac37c4	-1.3454518
12	0xbf4f3c8d	-0.8095177
13	0x3f782ea2	0.96946156
14	0x3fb21da7	1.3915299
15	0xbf3a49b7	-0.7276873
16	0x3f382511	0.7193156
17	0xbfa1e5f0	-1.2648296
18	0xbfe9102a	-1.8208058
19	0x3f544314	0.82914853
20	0x3fa4ca41	1.2874223
21	0x3f8b3563	1.0875667
22	0x3dab691e	0.08369659
23	0x3f342e5e	0.7038325
24	0xbfa9ca69	-1.3264896
25	0xbfde2ddf	-1.7357749
26	0xc09743e2	-4.7270365
27	0xc056cc95	-3.3562367
28	0x3fc4caaa	1.5374348
29	0xbfc5b72c	-1.5446525
30	0x3fe53595	1.7906977
31	0xbf9538b5	-1.1657931
32	0x3fa365f6	1.2765491
33	0xbfbb3397	-1.4625119
34	0x3f89cbba	1.0765297
35	0x3e67afbb	0.2262563
36	0xc0abda23	-5.370378
37	0x3f95370f	1.1657428
38	0xbfa1604b	-1.2607511
39	0x3fabb7a0	1.3415413
40	0x40a84990	5.25898
41	0x3f4e5ac0	0.80607224
42	0x40a945f6	5.28979
43	0x3e85be7a	0.26121885
44	0xbfeacaec	-1.8343177
45	0xbf2f453f	-0.68465036
46	0x3f1bc1c3	0.6084253
47	0xc09dbc19	-4.929211
48	0x3f40df1f	0.75340456
49	0xc066797b	-3.6011646
50	0xbfb740d4	-1.4316659
51	0x3fca2b4e	1.5794466
52	0xbf6c3edd	-0.9228342
53	0x40a5554d	5.1666627
54	0xbfc04c5b	-1.5023302
55	0xbf0d07d8	-0.55090094
56	0x3efc038f	0.49221465
57	0x3f222414	0.633363
58	0xbf97521a	-1.182193
59	0xbf870fd9	-1.0551711
60	0x3f605a47	0.8763775
61	0xbf705cf3	-0.9389183
62	0x3f5cb89c	0.8621919
63	0x3f56b130	0.83864117

representation_encoder.10.running_mean f4 [64]
0	0x410c5bbf	8.772399
1	0x418c9b4a	17.575825
2	0x4196c5d9	18.846605
3	0x41693f34	14.57793
4	0x40b1a2f3	5.5511413
5	0x410dde50	8.8667755
6	0x4117c68d	9.485974
7	0x413dc903	11.861575
8	0x41beadf0	23.83493
9	0x418a02d4	17.25138
10	0x40f39f33	7.6131835
11	0x4143086c	12.189556
12	0x417a4f26	15.644323
13	0x40ebfb3a	7.3744173
14	0x40eedb56	7.4642744
15	0x413ab80c	11.669933
16	0x412b1eff	10.695067
17	0x4149ba82	12.608034
18	0x4108d2ec	8.551495
19	0x41648775	14.283071
20	0x40e22936	7.0675306
21	0x40f18020	7.5468903
22	0x4156ed25	13.432897
23	0x4100b862	8.045015
24	0x41729044	15.160221
25	0x413ca827	11.791053
26	0x41693739	14.575982
27	0x4194a586	18.580822
28	0x41ba63ba	23.298695
29	0x4159206c	13.5704155
30	0x4111b8dd	9.107633
31	0x419d7924	19.68415
32	0x414529af	12.322677
33	0x4161f863	14.123141
34	0x41896805	17.17579
35	0x41907bfd	18.060541
36	0x412b329b	10.699855
37	0x4109e935	8.619435
38	0x416f85bf	14.970153
39	0x40ac17e5	5.377917
40	0x415ce613	13.80617
41	0x40a0bd57	5.023113
42	0x4176c5a3	15.423251
43	0x41a6ba41	20.840944
44	0x40d556d4	6.666849
45	0x41037204	8.215336
46	0x419fb3cc	19.962791
47	0x41030848	8.189522
48	0x4122e13b	10.179988
49	0x41a6dee0	20.858826
50	0x41728ab8	15.158867
51	0x41749956	15.287436
52	0x41932647	18.39369
53	0x41637651	14.216386
54	0x41cf60d9	25.922289
55	0x41b44e56	22.53825
56	0x411532b2	9.324877
57	0x41993edb	19.155691
58	0x410f612b	8.961223
59	0x41538458	13.2198105
60	0x4128c638	10.548393
61	0x3f92a931	1.1457883
62	0x41ab0330	21.376556
63	0x417250e3	15.144748

representation_encoder.10.running_var f4 [64]
0	0x439e38b2	316.44293
1	0x4317d537	151.83287
2	0x43110792	145.02957
3	0x433cfd52	188.98953
4	0x43050079	133.00185
5	0x42ee737d	119.22556
6	0x436649f6	230.28891
7	0x435611ce	214.06955
8	0x4381cff0	259.6245
9	0x42afc124	87.87723
10	0x433638fa	182.22256
11	0x42884511	68.134895
12	0x4304d1e6	132.81992
13	0x435e73d8	222.45251
14	0x43914b2e	290.58734
15	0x4324c86d	164.78291
16	0x42be5058	95.15692
17	0x430bfc87	139.98643
18	0x423a5b0b	46.58891
19	0x435b0da1	219.05324
20	0x42d31f43	105.56106
21	0x431886e4	152.52692
22	0x43488371	200.51344
23	0x4314e453	148.89189
24	0x42a61c46	83.05522
25	0x42b85e22	92.18385
26	0x433b14e5	187.08162
27	0x428a7757	69.233086
28	0x4305a977	133.66197
29	0x42bf3359	95.60029
30	0x42b92091	92.56361
31	0x4361b7f3	225.71855
32	0x4417b464	606.8186
33	0x42f10685	120.51273
34	0x436a1498	234.08044
35	0x439bb3e6	311.40546
36	0x42ed4d37	118.65081
37	0x42f49361	122.28785
38	0x42b76f7f	91.717766
39	0x43221c8e	162.11154
40	0x42d65f3a	107.18599
41	0x43051cfa	133.11319
42	0x42cd62a4	102.69266
43	0x4344a908	196.66028
44	0x42b0a040	88.31299
45	0x4328616d	168.38057
46	0x437e93f5	254.57796
47	0x42773353	61.80012
48	0x433627e6	182.15585
49	0x43016201	129.38283
50	0x430fd744	143.84088
51	0x42e74f3f	115.65478
52	0x4289f4ca	68.9781
53	0x42daf90e	109.486435
54	0x4317c65c	151.77484
55	0x434081df	192.50731
56	0x436147dc	225.2807
57	0x42f4052e	122.01012
58	0x42aa9a8c	85.30185
59	0x42e2b6df	113.35717
60	0x438fa08f	287.25436
61	0x43536f5b	211.43498
62	0x4319a5c1	153.64748
63	0x42bf8cb6	95.774826

representation_encoder.13.weight f4 [16, 1024]
0	0xbf53b78f	-0.82701963
1	0x3e999d4a	0.30002815
2	0x3e772f23	0.24139075
3	0xbdf8a3dc	-0.12140629
4	0xbe412820	-0.18862963
5	0xbf5f3f6e	-0.8720616
6	0x3f158bb2	0.58416283
7	0xbffa43e6	-1.9551971
8	0x3e42f9cc	0.19040602
9	0x3e677292	0.22602299
10	0x3f881dca	1.0634091
11	0xbfbad409	-1.4595958
12	0x3f041d9d	0.51607686
13	0xbf077e93	-0.5292751
14	0x3e8d3fae	0.27587646
15	0x3bcf253a	0.0063215764
16	0x3f21b9c2	0.6317407
17	0x3f487996	0.78310525
18	0x3ea02247	0.31276152
19	0xbf06286a	-0.52405417
20	0xbe208722	-0.15676549
21	0xbe8657ab	-0.2623876
22	0x3f224ef8	0.63401747
23	0x3f8a91be	1.0825727
24	0xbfade6fa	-1.3586113
25	0xc018989f	-2.3843153
26	0xbfb8f4df	-1.4449729
27	0x3f9de054	1.2334085
28	0x3f0e008b	0.5546958
29	0x3f867104	1.050324
30	0xbdb7e019	-0.0897829
31	0xbe8898b3	-0.26679
32	0xbf386057	-0.72022
33	0x3f83b8ad	1.0290734
34	0xbf01ddc1	-0.50728995
35	0xbec85adf	-0.3913183
36	0xbdf7c152	-0.1209742
37	0x3fa5c9f5	1.2952257
38	0xbf0ef973	-0.5584938
39	0x3f0e05e2	0.55477726
40	0xbe21ecc3	-0.15812974
41	0x3f08352b	0.5320613
42	0xbe0e7cb0	-0.13914752
43	0x3f2907b2	0.6602737
44	0xbe43a75e	-0.19106814
45	0x3e91edc6	0.2850172
46	0xbefa148d	-0.48843804
47	0x3e38f666	0.18062744
48	0xbf619c6d	-0.8812931
49	0x3e49ad32	0.19694975
50	0x3f9e08bd	1.2346417
51	0x3d51d172	0.051225133
52	0xbe1b8e03	-0.15190892
53	0x3f25b096	0.64722574
54	0x3e68bd9f	0.22728585
55	0x3f9d0c01	1.2269288
56	0xbf4509be	-0.7696799
57	0x3fa02849	1.2512294
58	0x3e3ae2c3	0.18250565
59	0xbdade542	-0.08490993
60	0x3d34f4f8	0.044178933
61	0x3e96b02c	0.29431283
62	0x3dc18c7d	0.09450624
63	0xbe9d8c9f	-0.30771348
64	0x3e9025b0	0.28153753
65	0xbf1b889f	-0.6075534
66	0x3c518dd1	0.012790159
67	0xbf2f6079	-0.6850658
68	0x3f0c1ac9	0.5472837
69	0xbfb42701	-1.4074403
70	0xbf11d9d2	-0.5697299
71	0x400ee4a4	2.232705
72	0xbde0e85e	-0.109818205
73	0xbf2e1cd6	-0.6801275
74	0x3f1e81ea	0.61916983
75	0x3fef4181	1.8691865
76	0xbeff9481	-0.49917987
77	0x3fb61bbf	1.4227217
78	0xbf58c974	-0.84682393
79	0xbf91c642	-1.1388628
80	0x3ea4f4ae	0.32217926
81	0x3f9dfa31	1.2341977
82	0x3f16e565	0.5894378
83	0x3fb0542f	1.3775691
84	0x3e33e2bc	0.17566961
85	0xbe337366	-0.1752449
86	0x3e8d5879	0.27606562
87	0xbf16978b	-0.58824986
88	0x3f0a93e9	0.54131943
89	0xbf7d1b67	-0.9886994
90	0xbff2949d	-1.8951603
91	0x3d790a7e	0.06080102
92	0x3f4b14c6	0.7932857
93	0x3ddb9b43	0.10722973
94	0xbfc49749	-1.5358669
95	0x3d3fcee5	0.04682817
96	0xbe916bb5	-0.28402486
97	0x3e8a1fba	0.2697733
98	0xbeec6192	-0.4616819
99	0xbe4ded4f	-0.20110057
100	0x3f400ee3	0.75022715
101	0xbf2270ab	-0.6345317
102	0x3eefac53	0.4681116
103	0x3f6504a3	0.894602
104	0xbf5b33b5	-0.85625774
105	0x3d7f2b74	0.0622973
106	0x3ee23f2d	0.44188824
107	0x3ea4e34d	0.32204667
108	0xbfd0613c	-1.6279674
109	0xbf0e1f4d	-0.5551651
110	0x3d66c8b1	0.056343738
111	0xbf38aca9	-0.7213846
112	0xbef7fe24	-0.4843608
113	0xbe8d0d35	-0.2754914
114	0x3e75826a	0.2397553
115	0xbf3b728d	-0.73221666
116	0x3e96ade6	0.2942955
117	0x3f1fef02	0.6247407
118	0x3f5e9c27	0.8695702
119	0xbf3cee82	-0.73801434
120	0xbd4216a7	-0.047384884
121	0x3e5ee86d	0.21768351
122	0x3f852d71	1.0404493
123	0xbf59603b	-0.8491246
124	0x3f22e8f2	0.63636696
125	0xbee1167a	-0.4396246
126	0xbe269c60	-0.1627059
127	0x3e98a690	0.29814577
128	0x3f2151d3	0.6301548
129	0xbe9bc436	-0.30423135
130	0x3f49d6b8	0.7884326
131	0xbfb6c94f	-1.4280185
132	0xbe662fb0	-0.22479129
133	0x3f74e18f	0.95656675
134	0xbe4f2ed7	-0.20232712
135	0x3eb44643	0.35209855
136	0xbf1239cf	-0.5711946
137	0x3f18588f	0.5951013
138	0xbe386c25	-0.18010004
139	0x3f90c0b0	1.1308804
140	0x3e9e6529	0.30936554
141	0x3ef95f5e	0.48705572
142	0xbe9d4a23	-0.30720624
143	0xbd8ddeb1	-0.06927241
144	0xbe1cad31	-0.15300442
145	0x3d822105	0.06353954
146	0x3e8ab892	0.2709394
147	0x3ea34819	0.31890944
148	0x3e39257d	0.18080707
149	0x3ef58933	0.47956237
150	0xbeee6d14	-0.46567595
151	0xbefeef0c	-0.49791753
152	0x3e712098	0.2354759
153	0x3ea93604	0.33049023
154	0x3df67863	0.12034681
155	0x3edabe02	0.4272309
156	0xbd81ef97	-0.06344526
157	0x3e8ef895	0.27924028
158	0x3dc168af	0.09443795
159	0x3e8e4c9d	0.27792826
160	0x3f1ec789	0.62023216
161	0x3e21ac0e	0.1578829
162	0xbf303233	-0.688266
163	0x3e247d2a	0.16063371
164	0x3e140d54	0.1445821
165	0xbf101412	-0.56280625
166	0xbf369f56	-0.7133688
167	0xbff0a44b	-1.8800138
168	0xbe536b16	-0.20646319
169	0xbf2fac31	-0.6862212
170	0x3fc6d00b	1.553224
171	0x3ec0e151	0.37671903
172	0x3e961a73	0.29317054
173	0x3e43eb86	0.19132814
174	0xbf0da278	-0.5532603
175	0xbe13d86c	-0.14438027
176	0xbe373b63	-0.17893748
177	0xbe43eda9	-0.19133629
178	0xbd7e40fe	-0.0620737
179	0xbf0dbe22	-0.55368245
180	0xbf2ba8cc	-0.6705444
181	0xbf338d94	-0.70137906
182	0x3e4cfd73	0.20018558
183	0x3e26f386	0.16303834
184	0xbd88a56c	-0.06672177
185	0xbf81206b	-1.0088018
186	0xbfb0e447	-1.3819665
187	0x3ef4d883	0.47821435
188	0xbf239ef7	-0.63914436
189	0xbd076c5a	-0.033062316
190	0xbf55c1d1	-0.83498865
191	0x3e84242e	0.25808853
192	0xbd0981fb	-0.033571225
193	0xbf853ba6	-1.0408828
194	0xbf866382	-1.0499117
195	0xbf39beef	-0.72556967
196	0xbe9d5ab2	-0.30733258
197	0x3fb3be90	1.404253
198	0x3eefac6d	0.46811238
199	0x3ec4d1ab	0.38441214
200	0xbe99d35f	-0.30044076
201	0x3e241e2e	0.16027138
202	0x3f5e2f75	0.86791164
203	0xbede88db	-0.43463787
204	0xbea262e8	-0.31716084
205	0xbfef7751	-1.8708287
206	0xbf50b4db	-0.81525964
207	0xbeb4b1a9	-0.35291794
208	0xbf90c0d2	-1.1308844
209	0xbdc82c66	-0.09774093
210	0x3f4d2e55	0.8014882
211	0x3f05598c	0.5208976
212	0xbe01df4e	-0.1268284
213	0xc010387f	-2.2534482
214	0xc03323bd	-2.7990563
215	0x3f9faae6	1.2474029
216	0x3db926a8	0.09040576
217	0xbf3fea20	-0.7496662
218	0xbec6ee86	-0.38853854
219	0xbf09e561	-0.5386563
220	0xbf49afa8	-0.78783655
221	0x3faaa602	1.3331912
222	0x3fce0439	1.6095039
223	0xbec98e64	-0.39366448
224	0x3e3861ee	0.18006107
225	0xbe22e8f4	-0.15909177
226	0x3f110f40	0.56663895
227	0x3ea9a169	0.3313096
228	0xbe39e8ce	-0.18155214
229	0xbea1e5ff	-0.31620786
230	0x3f465040	0.774662
231	0x3eda00e6	0.4257881
232	0xbfafa92b	-1.3723501
233	0x3fd3b953	1.6540931
234	0xbe676043	-0.22595315
235	0xbf65fc08	-0.89837694
236	0xbe99c991	-0.30036595
237	0x3f0d85ab	0.55282086
238	0x3f8b1ccc	1.0868163
239	0xbd80ecde	-0.06295179
240	0xbed5f5bd	-0.41789046
241	0xbe5c54a3	-0.21516661
242	0xbf25b1d8	-0.64724493
243	0xbed597f1	-0.41717485
244	0xbf2b9be4	-0.67034745
245	0xbf346373	-0.7046425
246	0xbf498d73	-0.7873146
247	0xbf9c0d87	-1.2191628
248	0xbeb3fbc4	-0.3515302
249	0x3fec62a5	1.8467604
250	0x400d922a	2.2120461
251	0x3fa74d75	1.3070513
252	0xbe21ee9d	-0.1581368
253	0xbe7cb251	-0.24677397
254	0x3f4acc3f	0.79217905
255	0x3f829ec0	1.0204697

representation_encoder.13.bias f4 [16]
0	0x3c750d1c	0.014956739
1	0xbc298f52	-0.010349112
2	0xbc9e7f5b	-0.019347837
3	0x3ce2b8ac	0.027675949
4	0x3be27f74	0.0069121663
5	0xb9f21d7a	-0.000461798
6	0xbc9ba743	-0.019000655
7	0x3c05e683	0.008172634
8	0xbced3717	-0.028956933
9	0xbb81146b	-0.0039392016
10	0xbbb71676	-0.0055873943
11	0x3cb3c0ab	0.021942457
12	0xbbe0a635	-0.006855751
13	0x3b8d84ba	0.0043188008
14	0x3cd0d6b0	0.025492996
15	0xbcc1dcc5	-0.023664841
