results/adversarial/mnist_manipulable_ae_state_dict.pth (torch, 8754 bytes, 12 tensors)

manipulable_encoder.0.weight f4 [16, 16]
00000000: a0e8 cbbe 5758 14bf 2073 b43d 3816 99bd
00000010: a0be 80bd 55d8 2a3e 2a53 ffbe ad9e 1bbf
00000020: dbea a63d 2aa3 413f 0b3f 7b3e fc6c dabe
00000030: 10ff 66be 0450 903e c173 0a3e 8e6f e8bd
00000040: bc0a 9a3d dbab dcbe 1cea d03c 6f3b b93c
00000050: 1fdc 4c3d e5b2 67be b228 76be 831b 593e
00000060: b4f7 babd 2f4f abbe 24aa 6ebe 1a7f 0d3f
00000070: c363 6fbe 1c25 173f e452 b23e b8fa e6be
00000080: eb81 0cbf 4f0e 983b a0fd 9f3e 8ea1 2f3f
00000090: 0fb8 0d3e 2854 bb3d 39fa eabd a530 a43e
000000a0: 6ff6 36be 68f0 053f 080c c3be c64a 413f
000000b0: 90d1 09bf 3c6b 17bf 3d02 033f 05c0 e4bb
000000c0: f301 32bd 4738 813e f93a a7be d880 5dbc
000000d0: fdaf f5bc a0ff 8d3d 4a0b 97be 235b 2abe
000000e0: 668a 28be 0050 c4bd 16e7 ea3e 2e12 033e
000000f0: 5c83 20be 7d36 093f 6402 aebe b87e a33d
00000100: 0a33 89bf 9c2f 12bf e7c3 b53e 4ee7 47be
00000110: 1bd3 b03e 8c76 b6be 5c5c 4d3e fd4d 173f
00000120: 0cc0 bd3b 55df 9a3f 61e8 02bf 284a 56bf
00000130: d002 23bf e189 f8be babb 673e abeb 41be
00000140: 7d7b b23e 6162 d0bc 9720 553e fb3a 6a3d
00000150: c398 fe3c 6db2 07bf 1bcb ed3e 7ef5 dc3e
00000160: 9f3e 9dbd ace9 ec3e 9fe2 75bc de74 d0be
00000170: b2a7 7bbe 4840 e9be 55e9 143e fcb7 b33d
00000180: 247a 1d3f 8fd1 20bf fdb7 ebbc 050b 37be
00000190: a211 853d 69a6 5ebf f1b5 173f 6308 c8be
000001a0: 050d 883e 2c52 acbe ee13 4b3f 5902 39bf
000001b0: ffcd 02be 86cc cb3d d374 61bf d561 98be
000001c0: 2638 84be b7af 20bf 1104 c8be ade4 cbbe
000001d0: df9d 8bbd 47a6 5abe 9b33 213f a989 26bf
000001e0: 0101 94bd ffb6 93be 6ac2 c5be bcfb 37bf
000001f0: 1301 3d3f 60d5 4d3f f37d 35bf c2b6 e8bd
00000200: a1ba 8dbe 4d82 0abf 5f4d 1fbe 6d1e a2be
00000210: 95e3 7dbe 666d b83e fcea 9bbf 71f3 edbe
00000220: 35e2 143e 25b4 c13c 79e5 4c3f 9083 8fbe
00000230: 03d5 873f 01b3 25bf 8b33 00bf 07cd cfbd
00000240: dcb7 493f 20bd 1abf 0da8 4c3c a75f 00bf
00000250: f6ad 84be ab5a a23e 0878 b53e 9e84 203f
00000260: 7557 80bd 541e cabe 07a3 35bf c673 00bf
00000270: 3770 16bf 7877 0ebf 8493 ae3e 5363 f6be
00000280: fea7 0b3f b606 43bf 4bf9 f63e 528e 13bf
00000290: 50d1 afbe 8bf2 243f 0da1 5bbe e1df cfbc
000002a0: 8621 45bc 383d 1abe 2137 c9bd cbf8 c0be
000002b0: c2da 703d daa3 3ebf 88b3 9f3e 1f94 64bf
000002c0: 4dc3 f3be 273b e0ba b39a 403e 17b3 55be
000002d0: b931 72be df17 d7bc 667f 74bf f292 0c3f
000002e0: 9b71 923e 4212 af3e 3a00 603e eda5 58be
000002f0: ea4c 153f 86cf fbbe b993 80bd e128 193e
00000300: 8357 0e3f 91f9 ee3d f6d2 2f3e 9508 063f
00000310: ac1c 2fbe 125a 11bf b077 83bd 716d 2abe
00000320: 96b6 693e a695 59be 2239 d03e 34ae 33bf
00000330: cabe 2bbe 4dcd 8abe 737b d6be 4e6e ab3f
00000340: 1dbc d83e fc36 e73e b559 ffbe b91b 313f
00000350: d030 03be 2a49 5dbf a172 b93d a0c6 fbbe
00000360: 48ca 21be f113 24bf 43d2 b93e 3f40 69bf
00000370: 92e4 443e 1563 543c c48a 89bf 46a2 5e3f
00000380: 8328 af3e 4b98 e23e 0399 943e a6f5 da3d
00000390: 6bb6 a4bd aa6a 99be 4501 2d3f 169d 48ba
000003a0: 9472 a1bd 9d65 c1be 5a83 12bf ffeb b23e
000003b0: 2b3a 3fbe ed00 f53d e177 4f3e 9efb 573e
000003c0: 5e2c a5be 0db0 ce3e 3a17 6a3e 62e9 323e
000003d0: 7e8a 183e 5f99 083f cf4d 54be b58b a6bd
000003e0: db16 f93d 7595 d83e 4eee d5be 1dae 9a3e
000003f0: 5a5a 03bf 33ed 88be b74b f43e d6aa d3be
-0.39825916 -0.57947296 0.08811021 -0.07474941 -0.06286359 0.16684087 -0.49868137 -0.60788995
0.08150264 0.75639594 0.24535768 -0.42661273 -0.22558236 0.28186047 0.13520719 -0.11349402
0.07521579 -0.43099865 0.025502257 0.022611348 0.05001461 -0.22626837 -0.24038962 0.21201901
-0.09129277 -0.3345885 -0.23307091 0.55272067 -0.233779 0.59041 0.34828866 -0.45113158
-0.5488574 0.0046403776 0.31248188 0.6860589 0.13839744 0.09146911 -0.114735074 0.32068363
-0.17867444 0.52319956 -0.38095117 0.7550472 -0.5383539 -0.59148 0.5117529 -0.0069808983
-0.04345889 0.2523825 -0.3266218 -0.013519488 -0.029991144 0.06933522 -0.295008 -0.16636328
-0.16459045 -0.09585571 0.4587943 0.12799904 -0.1567511 0.5359877 -0.339862 0.07983154
-1.0718701 -0.57103896 0.35501024 -0.1952183 0.3453606 -0.3563732 0.20054764 0.59103376
0.005790716 1.2099406 -0.5113583 -0.83706903 -0.63676167 -0.48542693 0.22630206 -0.18937556
0.3485984 -0.025437536 0.20813213 0.057185154 0.031078702 -0.5300663 0.4644402 0.43156046
-0.0767796 0.46272027 -0.015007644 -0.40714163 -0.2457569 -0.45556855 0.14542134 0.087753266
0.61514497 -0.6281976 -0.028774256 -0.17875297 0.06497504 -0.8697267 0.59261996 -0.390689
0.26572433 -0.33656442 0.79327285 -0.7226921 -0.12773894 0.09951119 -0.88068885 -0.2976214
-0.25824088 -0.6276812 -0.39065602 -0.39822903 -0.06817221 -0.21352492 0.6296937 -0.650538
-0.07226754 -0.28850552 -0.3862489 -0.7186849 0.73829764 0.8040371 -0.7089531 -0.11362983
-0.2768145 -0.54105073 -0.15556858 -0.31663838 -0.24793847 0.36020964 -1.2181087 -0.46474794
0.14539416 0.02364547 0.8003765 -0.28030062 1.0611881 -0.64726263 -0.5007865 -0.10146528
0.7879617 -0.6044483 0.012491238 -0.50145954 -0.25913972 0.317098 0.3544314 0.6270236
-0.06266681 -0.39476264 -0.70951885 -0.50176656 -0.58764976 -0.55651045 0.3409692 -0.48122653
0.5455321 -0.76182115 0.4823707 -0.5763904 -0.3433938 0.6443259 -0.21448155 -0.025375308
-0.012031918 -0.15062416 -0.09824968 -0.37689814 0.058802374 -0.7446877 0.3119166 -0.89288515
-0.4760994 -0.0017107473 0.18809013 -0.20869099 -0.2365178 -0.0262565 -0.95506895 0.5491172
0.286023 0.34193617 0.21875086 -0.21157046 0.58320487 -0.49181765 -0.06278176 0.14957
0.5560228 0.11668695 0.17170319 0.52356845 -0.17100781 -0.5677806 -0.06419313 -0.16643311
0.22823557 -0.21248493 0.4066859 -0.7018769 -0.16771999 -0.27109757 -0.4189106 1.3393037
0.4233102 0.45159137 -0.4987313 0.69182926 -0.12811589 -0.86439764 0.09055067 -0.49174976
-0.1579982 -0.6409293 0.3629323 -0.91113657 0.19227818 0.012963076 -1.0745473 0.8696636
0.34210595 0.44256815 0.2902299 0.10691385 -0.08042606 -0.2996419 0.6758006 -0.0007652802
-0.07883182 -0.37772837 -0.57231677 0.34945676 -0.18674533 0.11963067 0.20260574 0.21092078
-0.32260412 0.4036869 0.22860423 0.17471841 0.1489658 0.53359026 -0.20732807 -0.08132116
0.121625625 0.42301527 -0.41783375 0.30210963 -0.5130974 -0.2674347 0.47714016 -0.41341275

manipulable_encoder.0.bias f4 [16]
00000000: 4043 1bc0 9cec dbbf b953 923f e929 3140
00000010: d8b7 c63e 8c5b abbe 4a53 d2bf a290 47bf
00000020: 4640 ae3e 07dd 24c0 59b1 25be cd13 503e
00000030: cf92 81bc 6c16 423f 1838 5a3f 633d 22c0
-2.4259796 -1.7181582 1.14318 2.768183 0.38812137 -0.33468282 -1.6431668 -0.7795507
0.34033412 -2.5759904 -0.16180934 0.20320053 -0.015817074 0.75815463 0.8524184 -2.5349967

manipulable_encoder.2.weight f4 [8, 16]
00000000: f596 db3d f510 6a3e 97d5 f43e 3c2c 98be
00000010: d6b2 89bf 0390 0abd 22c6 c5bc 4926 d53e
00000020: 8f54 3dbf 9753 3abe a689 f33d d372 b5be
00000030: e5ad adbe c16a b43d 69b5 b7be 2717 83be
00000040: 7431 a8be 1820 c7be 43f0 cebe e588 ccbe
00000050: e763 99bf 3832 dd3e 184e b63f 4104 643f
00000060: eed2 71bf 8130 a7be 0691 35bf 9dbf 033d
00000070: 867d 073f f992 99bf 2fa1 babe 2cba 133e
00000080: 5b1e 3dbe 491d a93e 79eb 57be eaab 14be
00000090: ca97 c23d ef4c 803e e005 debe 5eba 65be
000000a0: 4c7c 3cbf 3b5e 03bf 227b e23c 800c 2abe
000000b0: 6409 d1be b892 01bf 5c26 1cbe fd36 bcbe
000000c0: ea6e 373e 5d4b aebd 3528 babe d69f 81be
000000d0: f640 783f 6485 03bf 4b65 acbf 8b30 57bf
000000e0: 67b8 be3e fcf3 1b3f 019a e33e 2f0b 3bbe
000000f0: 5c2a c1be a1c1 713e 4b2d 62be 0cf3 b1be
00000100: 7643 7ebf 25ec 473e bc70 fdbe bb44 a7be
00000110: 0ae1 4bbc 4d16 5a3d aa00 48bf 4bc5 4ebf
00000120: 9f3f b9bf 20ad fe3e 2473 a23e 1363 d3bd
00000130: 9c6a a0bd cc12 30be 2397 3bbf 3430 50be
00000140: 77a6 c5bd 6d67 aebd 60e2 43be 4119 47be
00000150: f50a 80be fb5b 6c3e 4488 4e3f 2766 353f
00000160: 0079 2bbf c562 61bf 7ddb dabe f3e6 d83e
00000170: f846 ba3d ea90 f1be 259b 7ebe 812e ffbd
00000180: d862 523f 46dd c33d 19dc 00bf 9aba 72bf
00000190: c0cd a2be aad2 0dbf 74dc 863e d9dd 8cbe
000001a0: 42c3 453f 209e b6bf 3b7b ed3e 4f91 80bf
000001b0: 0359 38bd 808f 87be 6f58 d7bd c446 473e
000001c0: 6b0d 193f 52ef 68bf bf66 ccbd 8aec be3e
000001d0: 2488 613f 42db 5c3e edaf 8cbf e5cc 05bf
000001e0: 7c7c 873e b3e8 3f3f 7851 883e 3201 3cbe
000001f0: 90a9 16bf fc26 57be 065b 2f3e a691 10bf
0.10722152 0.22858031 0.47819206 -0.29721248 -1.0757701 -0.033828747 -0.024142329 0.41630772
-0.7395715 -0.1819595 0.11891489 -0.35439166 -0.33921733 0.08809424 -0.35880592 -0.256036
-0.3285023 -0.38891673 -0.4041768 -0.39948192 -1.1983613 0.43202376 1.4242582 0.8906899
-0.9446248 -0.32654193 -0.70924413 0.03216516 0.5292591 -1.1997977 -0.36451098 0.14426488
-0.18468611 0.33030155 -0.2108592 -0.14518705 0.09501608 0.25058696 -0.43363857 -0.22434375
-0.7362716 -0.5131566 0.027646605 -0.16606331 -0.40827477 -0.506145 -0.15249008 -0.36760703
0.17913404 -0.08510468 -0.363588 -0.25317258 0.9697412 -0.5137541 -1.3468412 -0.84058446
0.37250063 0.60919166 0.44453433 -0.18265985 -0.3772763 0.2360902 -0.2208759 -0.34755743
-0.9932169 0.19523676 -0.49500072 -0.32669625 -0.01244379 0.053243924 -0.78126013 -0.80769795
-1.4472541 0.4974146 0.3172847 -0.10321631 -0.07832834 -0.1719467 -0.7327749 -0.20330888
-0.09650891 -0.08515821 -0.19129324 -0.19443227 -0.2500836 0.23081963 0.80676675 0.70859
-0.66981506 -0.88041335 -0.4274558 0.423637 0.090955675 -0.47180873 -0.2486387 -0.12460042
0.82182074 0.09563689 -0.5033584 -0.9481598 -0.317976 -0.5539957 0.26340067 -0.27513006
0.77251065 -1.4267006 0.4638308 -1.0044345 -0.045006763 -0.2647667 -0.10514914 0.19460589
0.597861 -0.90990174 -0.09980535 0.3728984 0.8809836 0.21568015 -1.0991188 -0.5226577
0.26462162 0.74964446 0.26624656 -0.18359831 -0.5885248 -0.21010965 0.17124566 -0.5647224

manipulable_encoder.2.bias f4 [8]
00000000: d560 743f 68a2 0cbf 0971 2a40 9595 cf3e
00000010: f774 90be 8149 b13f eaf1 e4be 5f51 353f
0.95460254 -0.5493531 2.663149 0.4054381 -0.28214237 1.3850557 -0.44715816 0.7082729

manipulable_encoder.4.weight f4 [2, 8]
00000000: b0ac 06bd 9328 3dbf abc5 303e a4b6 d7be
00000010: 21e0 c53e c4d1 753e 168a 1c3e 8d2e b83e
00000020: d323 7d3e 2a28 09bd 1d67 e63d 18fb c43d
00000030: fbe7 4d3e 717b f23d 5447 e4be f563 96bd
-0.03287953 -0.73890036 0.17262904 -0.4213153 0.3864756 0.240058 0.1528705 0.35973015
0.24720697 -0.03348557 0.11250136 0.09618205 0.20108025 0.11839951 -0.4458567 -0.07343284

manipulable_encoder.4.bias f4 [2]
00000000: f138 8e3f c42f 463e
1.1111127 0.19354159

manipulable_decoder.0.weight f4 [8, 2]
00000000: 5031 b73d 7aa7 093f 3a79 163c 9244 123f
00000010: bc5d 1f3f 0c25 55be 8d5f 7e3d fbea c2bf
00000020: 5183 c0bf 0287 fb3e 2133 8ebe 93e2 6b3f
00000030: 28a0 27bf bb02 923e a2e3 663f 0b89 773e
0.089449525 0.53771174 0.009184176 0.5713588 0.622524 -0.20814914 0.062102843 -1.522796
-1.5040075 0.4912644 -0.27773383 0.921426 -0.65478754 0.28517708 0.9019109 0.24173371

manipulable_decoder.0.bias f4 [8]
00000000: 6c8e 1fbf 1a91 8bbd 57c1 1dbf 6a39 953f
00000010: a192 49be 7740 e8bf 6ce5 a03f 098b 0bc0
-0.62326694 -0.06814785 -0.6162314 1.1658146 -0.1968484 -1.8144673 1.2570014 -2.180361

manipulable_decoder.2.weight f4 [16, 8]
00000000: 7a15 b9be 489c d73e 4d84 f93e 99a6 21bf
00000010: 15ed f3be 15b3 23be 653e 063f 69dc ddbe
00000020: ebbb a8bf 98ba 9ebf afa0 18c0 c464 683f
00000030: 0ad8 53be d8c3 b0bc 0e0f 56bf 7fed a63e
00000040: d15e d63b 92f1 f43e cd42 e8be adfd 17c0
00000050: 61cf 02bb c463 a83e d0aa 7f3d d138 88bf
00000060: 7cc8 fabe be31 34bf 9129 553f 4c8f a4bf
00000070: c391 d1bf 64dc 7b3f 4f06 533e a017 e5bf
00000080: 9fe3 eebf 28d3 04c0 7160 05c0 80b6 bbbf
00000090: 8309 15c0 9378 4b3f 4953 f73f c909 c6bd
000000a0: ca33 0c3e df94 a83e 9c13 26bf efbc 2ebf
000000b0: fbf0 28c0 5e98 e53f 1e4a 5fbe 6846 29c0
000000c0: f2e4 f4be 340e 603e 0c56 71be 7d66 8ebf
000000d0: f59d 47be 62d5 933f a01f 5bc0 4368 a1bf
000000e0: 7654 0bbf 18e0 0fbf 39fb 6b3d 28ea 013e
000000f0: 53f7 91bf 1713 b1bf f301 babf 5651 b0bf
00000100: e0b9 c2bf d98f 003f 83fc 843e 3ec5 e23e
00000110: 6068 6bbf cd1f 1bbf 1721 00bf 9d64 81bf
00000120: 7a70 91bf 9ae2 0bbe 37d7 78bf 8221 1abf
00000130: bf64 4e3e b332 c7bf 9911 b03f a41d dcbd
00000140: d7ad 51bf 8667 8cbf 3958 843f d442 a7bf
00000150: 69bc 223f e5ca c6be 7b76 263f 09df ef3e
00000160: 4b36 c73d dcbf f03d 4504 2f3e 022a 9bbf
00000170: 3ba5 503e fe3f a0bf 9975 cb3e d588 833f
00000180: 2487 73bf bc0a 26c0 3d02 06bf 7c34 cf3f
00000190: c186 07bf 1f37 8dbf 8bef 433f 563c 91bf
000001a0: 7763 80be c624 793e 2eb2 a6be 6948 36c0
000001b0: 3220 5dbf 042e 883f 7854 56bf 7064 77bf
000001c0: 667d 15bf 9a1a 84bf 3667 423f 86d3 51bc
000001d0: a61e 84bf 360f 1abf 3038 6a3e 39e5 233e
000001e0: e8d4 123f 8184 193f ca63 38bf a8f7 46bf
000001f0: 86de 97be 31f0 703e 91eb 9cbf 852c f33d
-0.36149198 0.4211142 0.4873375 -0.6314483 -0.47641817 -0.15986283 0.52438956 -0.43332222
-1.3182348 -1.2400694 -2.3848073 0.90778756 -0.20687881 -0.02157776 -0.8361672 0.3260307
0.0065420647 0.47840554 -0.45363465 -2.3748581 -0.0019960033 0.32888615 0.06241876 -1.0642339
-0.48981082 -0.703884 0.8326655 -1.2856231 -1.6372608 0.98383164 0.20607875 -1.7897835
-1.8663214 -2.075388 -2.0840113 -1.466507 -2.3287055 0.79480857 1.9322292 -0.09669835
0.13691631 0.3292608 -0.6487367 -0.6825704 -2.6397083 1.7937124 -0.21805617 -2.6449223
-0.4783092 0.21880418 -0.2356798 -1.1125027 -0.1949385 1.1549494 -3.4238052 -1.2609943
-0.5442575 -0.56201315 0.05761263 0.1268698 -1.1403602 -1.3833951 -1.4531845 -1.3774822
-1.5212975 0.50219494 0.259739 0.4429111 -0.9195614 -0.605954 -0.5005049 -1.010883
-1.136245 -0.1366066 -0.9720339 -0.6020738 0.20155619 -1.5562347 1.375537 -0.10747841
-0.81905884 -1.0969093 1.0339423 -1.3067269 0.6356874 -0.3882667 0.65024537 0.4684985
0.097271524 0.11755344 0.17091472 -1.2122195 0.2037553 -1.2519529 0.39738157 1.0276133
-0.95128083 -2.5944052 -0.52347165 1.6187892 -0.52939993 -1.1032447 0.7653739 -1.1346538
-0.25075886 0.24330434 -0.32557815 -2.8481696 -0.8637725 1.0639043 -0.8372264 -0.9663763
-0.5839447 -1.0320618 0.7593874 -0.012806779 -1.0321853 -0.6017946 0.22872996 0.1600541
0.5735612 0.5996781 -0.72027266 -0.77721643 -0.2966196 0.23529126 -1.2259389 0.11873726

manipulable_decoder.2.bias f4 [16]
00000000: fc81 ca3f 84d8 a53f 343f 38be d7c1 eb3f
00000010: 5568 903f d61b 613f ab92 2640 e7d7 a33e
00000020: 4068 ea3f e4c2 9cbf 3980 e1be d15a fdbf
00000030: b360 f3be 6c6c c23f b921 73bf 852f 283f
1.5820918 1.29567 -0.1799286 1.841853 1.128184 0.879331 2.602702 0.32000658
1.8313065 -1.2246976 -0.4404314 -1.979334 -0.47534713 1.5189338 -0.9497333 0.6569751

manipulable_decoder.4.weight f4 [16, 16]
00000000: 8f89 683f e913 d3bf 0c4d cebc d79b 9c3c
00000010: d661 223f ad83 51bf 29b5 f6bf a523 853e
00000020: 0794 123f 5754 d63f 6600 82bf 97fa 8e3f
00000030: 0059 4a3f 0ddf 7abe c9d5 3bbf a3ef bf3f
00000040: 0e02 b8be 4705 ad3e 8cec 86be 70be 2e40
00000050: b68c b3bf 15d7 043f 0534 9840 41ec 8cbf
00000060: e9cc 2040 f192 a03e e507 503f 22cd 793f
00000070: 4e94 c9bf ee28 c8bf 5d87 e1bf 3b3a 01c0
00000080: 7635 9c3b 7b87 d5ba b089 7039 33bf 1cbb
00000090: f6c7 a83b c268 13b9 0302 0b3b e08a 243b
000000a0: 746e ccbb 557a a8b9 88e4 09bb 753e 463a
000000b0: d30b 5dbb e444 f0ba 01b7 2b3a b5a2 7bbb
000000c0: a93a 3cbe 787c 05be 7d8f 0abf 8029 b43f
000000d0: 8a08 813f 881b 2840 8226 8bc0 e3e9 64bf
000000e0: 9716 febd 2d63 e1bd 84b9 e93e 50ad 3dbe
000000f0: 2a96 813e 5a95 573e 9a1f 983e 23da 8c3f
00000100: c78a 513d f1ba 5e3d e6b9 9f3a 7ee6 41be
00000110: a4b6 473e 9416 77bd e1ed 6e3d 22d8 c8bc
00000120: ee56 02be 36d2 9bbd d697 ff3c 074b a3bc
00000130: 1daf ab3d 3334 af3d 317f 1a3d 1c20 f8bc
00000140: ad1f f63f 39c1 95bf 3547 173e 3f77 f23f
00000150: 290d 30c0 34b2 f7bd e9a3 30c0 16e6 59bf
00000160: f8d1 0d40 0797 6e3e 84e7 11c0 2c72 dfbe
00000170: 727c 17be 42ac c8bf 947b 64be 4fb8 ac3f
00000180: a067 6340 1615 52be 4cdc c53f 117d 97bf
00000190: c8a5 053f d8ed cdbe 6eed 02c0 cd03 2f3f
000001a0: 9e0e 5ebf c1b7 183f ddb0 363f 8f2d 483f
000001b0: 04f5 4a3f 3ff8 6f3f 1d17 123f 70c9 893e
000001c0: c5eb be38 f543 9f38 20d0 45b9 126a d7b9
000001d0: 82cc b239 9bff 1137 97dc a8b9 254d 0e39
000001e0: b5a2 5a38 7944 c9b9 118f c0b9 3ae0 44b8
000001f0: 3fdc cdb8 3454 75b9 fd5d 9c38 3549 b3b8
00000200: 4f06 f03c e96f 5f3b eb31 b8ba 244d cbbc
00000210: 00fb 1c3b d500 923b 20c5 5e3c 2a0d 023d
00000220: e6f6 0ebd 4cec abbb 0520 1ebb 2cd7 60bb
00000230: 95cf 3bba 35fa 4abc c65e b1bb 66b4 48bc
00000240: 6c1d ab3f b727 583f 1b41 a5bc 8ec0 bbbe
00000250: 14fe 453d a6a4 7bbf 9bca c4be 74d0 9a3e
00000260: 04a6 94be d0bc dd3c 7adb f43d d6e3 adbf
00000270: efb0 98bf 3a16 d13e dcc1 0a40 0d37 48bf
00000280: d9cf 073f e2f8 91bf 2f09 40bf 442c a33e
00000290: 6bc6 a6bf 3d73 7ebd d7dd 02bf 4370 19bf
000002a0: 9fc1 2cbf 47e3 b93f a028 5bbf 02b6 31bf
000002b0: 61c7 8c3f d778 44be 8cc5 db3e fb91 b43e
000002c0: 9fb8 bf3e 1285 953d 948b 57be 7276 0ebf
000002d0: 9a00 83be f4cd 613f f696 4e3f a408 79bf
000002e0: 14fb 2b3f 203a 883e 7f6a 173f 0db2 82be
000002f0: 14a7 703e edca 1040 b5cd ed3e 90fb b63e
00000300: 7c6b ce3f 8ee8 1e40 9b4c cc3f eeb1 163e
00000310: 787e 00bf c626 b2bf e75f 04bf 4a65 113e
00000320: fff2 e8be 4022 0bc0 0f6d 873e 8612 6a3e
00000330: 6133 b43f 3e2c 55bf 9ec2 81bf 404f 763e
00000340: 9892 fc3e d4d5 d53e 6c4c 9a3f 3ab1 6cbf
00000350: b9d6 6f3f 2223 5ac0 68c4 b63f 92cd e0bf
00000360: 8449 b03f 3a27 56bf 5805 5cbf b064 a1bf
00000370: 79b1 c0be e6be dc3f 494f 663f 4301 46be
00000380: 01a3 a23f 4011 6fbe 29a2 19bd 472d 27c0
00000390: 3774 e03f 7237 18c0 153f e13e 2815 633f
000003a0: 136d d53e 1526 fbbe 427f a93d 7bc8 3fbf
000003b0: ba0a ddbe 743f d13f d73f 2f3f 73bb a73f
000003c0: 1f43 0abf c112 6ebe 2a5d 05be 02a2 763e
000003d0: df78 c040 b6b3 47bf de8f 8cbf 7c7d 15c0
000003e0: c8ea e13f e215 9abf c6af 8c3f 7d01 fabd
000003f0: 1ef4 ee3e 40c5 00bf 2a5b 2cbe 677d de3f
0.908349 -1.6490451 -0.025183223 0.019117279 0.63430536 -0.81841546 -1.9274036 0.26003757
0.5725712 1.6744488 -1.0156372 1.1170224 0.79042053 -0.2449915 -0.73373085 1.4995006
-0.35939068 0.3379309 -0.26352346 2.7303734 -1.4027317 0.5189069 4.75635 -1.1009599
2.5125067 0.31362107 0.81262046 0.9757863 -1.5748384 -1.5637491 -1.7619435 -2.019179
0.004767115 -0.0016290987 0.00022939476 -0.0023917675 0.0051507903 -0.00014058038 0.0021210916 0.002510719
-0.006238753 -0.00032134601 -0.0021040756 0.00075624074 -0.0033728972 -0.0018331078 0.0006550402 -0.0038396541
-0.18381752 -0.13035762 -0.54125196 1.4075165 1.0080731 2.6266804 -4.3484507 -0.8941938
-0.124066524 -0.110052444 0.4564935 -0.18523145 0.2530988 0.21053067 0.2971161 1.100407
0.05115774 0.0543775 0.0012186139 -0.18935582 0.19503266 -0.060324267 0.058332328 -0.024517123
-0.12728474 -0.07608454 0.03120033 -0.019933237 0.083830096 0.08554878 0.037718955 -0.030288748
1.9228417 -1.1699592 0.14773257 1.8942641 -2.7508032 -0.120945364 -2.7600043 -0.8511671
2.2159405 0.232998 -2.2797556 -0.43641794 -0.14793566 -1.5677569 -0.22312766 1.3493747
3.5531998 -0.20515856 1.5457854 -1.1835042 0.5220609 -0.40220523 -2.0457416 0.68365175
-0.86741054 0.59655386 0.7136362 0.78194517 0.79280114 0.9373817 0.5706652 0.26911497
9.1038215e-05 7.594369e-05 -0.00018864917 -0.00041087024 0.00034103176 8.702186e-06 -0.0003220781 0.00013570914
5.2126783e-05 -0.00038388724 -0.00036727687 -4.693887e-05 -9.816186e-05 -0.00023396389 7.456166e-05 -8.549021e-05
0.029299883 0.0034093803 -0.0014052963 -0.024817057 0.0023953319 0.0044556656 0.013596803 0.031750835
-0.03490343 -0.0052466746 -0.0024127972 -0.003430794 -0.0007164416 -0.012388756 -0.005412909 -0.012250042
1.3368354 0.844356 -0.020172646 -0.36670345 0.04833801 -0.9829811 -0.38435826 0.30237162
-0.2903291 0.027067572 0.11955924 -1.3585155 -1.1928996 0.4083727 2.1680822 -0.78209
0.53051525 -1.1404078 -0.75014013 0.3186971 -1.3029302 -0.06212162 -0.5111975 -0.5993692
-0.6748294 1.4522485 -0.85608864 -0.69418347 1.0998346 -0.19186722 0.42924154 0.35267624
0.37445542 0.07300772 -0.21049339 -0.55649483 -0.25586396 0.88204885 0.806991 -0.9727881
0.6717999 0.26606846 0.59146875 -0.25526467 0.23501235 2.2623856 0.46446005 0.35738802
1.6126552 2.482944 1.5960878 0.14716312 -0.50192976 -1.3918083 -0.51708835 0.14198795
-0.4549789 -2.1739655 0.26450393 0.22858629 1.407818 -0.83270633 -1.0137517 0.24053669
0.49330592 0.417647 1.2054572 -0.92457926 0.93687016 -3.4083943 1.4278688 -1.7562735
1.3772435 -0.83653605 -0.85945654 -1.2608852 -0.376354 1.7245758 0.8996473 -0.19336419
1.2705995 -0.23346424 -0.037508164 -2.6121385 1.7535466 -2.378384 0.4399344 0.88704157
0.4168478 -0.49052492 0.082762256 -0.74915284 -0.43172246 1.6347489 0.68456787 1.310408
-0.5400867 -0.23249342 -0.1302382 0.24085239 6.014755 -0.7800859 -1.0981405 -2.335784
1.7649775 -1.2037928 1.0991142 -0.12207315 0.46670622 -0.5030098 -0.16831651 1.738202

manipulable_decoder.4.bias f4 [16]
00000000: 87c2 a43f 07d9 fa3f 5e13 44bc 0494 d63f
00000010: 456d 963d 01d5 2e40 6951 6a40 e15a 75ba
00000020: 5c49 ce3c b8eb dc3f 85f3 c23f 3665 e03f
00000030: 434a 3c40 7b12 0940 7b97 2040 d060 2440
1.2871865 1.9597481 -0.011967508 1.6763921 0.0734506 2.7317507 3.661219 -0.00093595503
0.025181465 1.7259436 1.5230566 1.7530887 2.9420326 2.141753 2.5092456 2.568409
