results/adversarial/mnist_tripletnet_state_dict.pth (torch, 123024 bytes, 6 tensors)

representation_encoder.0.weight f4 [16, 1, 3, 3]
00000000: de07 abbe 6db9 103e 260b 773d 0a59 96be
00000010: 27c5 c13e 9e37 a0be 97b8 acbd be7e e73d
00000020: 9e1f a7bd 2e57 25bd 5a52 383d 2498 a4bb
00000030: d216 35bd 3cc0 dfbc 05ac 42bc 1f0b 33bd
00000040: 9659 46bd 5b35 85b9 1d2f 0b3d ab54 873b
00000050: 6df0 833e 5c74 8f3e 71e0 4cbe 7538 32bd
00000060: a6c0 ab3d bc84 07be 7a13 82bd 9fc4 1a3c
00000070: 83c5 203e e329 c93e 408d 01be eb33 5f3c
00000080: ab99 afbd 97e7 c6be 3f4f dbbe 927a 83be
00000090: 8479 c8be 6b35 28bc a363 853e ea05 06be
000000a0: bcee 92bd 73a8 273e 5f9a bfbd 3153 ffbd
000000b0: ee51 4d3e 5bf1 4f3d d902 babd f821 91be
000000c0: c9e7 a4bd b21a 1d3f 8794 c7bd 1b0d 85be
000000d0: 2a33 0abe b93f 5d3e 3c84 1fbf 201c a2bc
000000e0: 6c64 a53c 59f2 af3d b0ee 0a3f 8415 06be
000000f0: f9a1 9a3c 0cb9 dabe 54d1 aabe 25c8 03bf
00000100: ae97 10bf cd03 fdbd c0b1 873c 3cec 46bd
00000110: ea12 6cbf d24a 993e 9170 42ba b3d1 8cbe
00000120: 091d b73d bf6b edbe 65f7 95be a8e1 01bf
00000130: cb34 c33c 88d8 593e 1efc 14be 2a0a bd3b
00000140: 7ca5 843d 1bce 703e a005 eebd b485 e0be
00000150: 788b 963e 7e84 97bc c08e 3abf 8894 d6be
00000160: 2a61 adbf 5503 aabc 1dea eabd 8d63 86be
00000170: 627a 043e c389 50bc 636f 5fbe 7804 2a3d
00000180: cce9 6b3d 9a98 6dbe 7da2 5dbe f12a 3f3d
00000190: 8138 0b3e 361f 47bc 19a8 ed3d 2c90 6ebe
000001a0: 02b0 b4be ce96 8cbc 13d7 9abe d79c 883e
000001b0: 26aa 133e d378 44be 44bb adbe f479 923d
000001c0: 563c 9dbe 672b 363d 4045 1d3e 056a 663e
000001d0: 1208 823e b40e e03d f7b8 43be 33c6 36be
000001e0: c17f 3b3e 5f8f 123e 0241 dbbe 5341 093d
000001f0: c34c ba3c 1ac3 83be f3bc 9ebd ba0f 593e
00000200: 539e 273e cee3 dfbe e30c cabe 79cb a2be
00000210: 76ce 0e3e 70dd cb3d 75ad 80bd 6a18 343d
00000220: 3601 633e 90bf 0ebf befd a7be 4868 6cbf
00000230: 9aae d8bd 0b37 28bf edae b83d 326d 923e
-0.3340444 0.14133234 0.060313366 -0.29364806 0.37845728 -0.31292433 -0.08433645 0.11303471
-0.081603274 -0.040366344 0.04500041 -0.0050230194 -0.044211216 -0.027313344 -0.011881833 -0.043711778
-0.04842528 -0.0002540749 0.033980478 0.0041299663 0.25769368 0.28018463 -0.20007493 -0.043510873
0.08386354 -0.13234228 -0.06351371 0.009446292 0.15700345 0.3928977 -0.12651539 0.013623218
-0.08574232 -0.38848564 -0.42833897 -0.2567945 -0.3915521 -0.010266642 0.2605258 -0.13088194
-0.07174441 0.16372852 -0.09355616 -0.124670394 0.20050785 0.050767284 -0.090825744 -0.2834623
-0.08052022 0.6136886 -0.09745126 -0.2598656 -0.1349608 0.2160634 -0.6231115 -0.019788802
0.020189486 0.08591146 0.5427046 -0.13094145 0.018876063 -0.42719305 -0.3336283 -0.5147727
-0.56481445 -0.123542406 0.01656425 -0.048565134 -0.9221636 0.29939896 -0.00074172864 -0.27503738
0.08941085 -0.46371266 -0.2929031 -0.5073495 0.023828885 0.21274006 -0.145493 0.005769034
0.06476876 0.23516123 -0.11622167 -0.43852007 0.2940328 -0.018495794 -0.7287407 -0.41910195
-1.3545277 -0.020753542 -0.11470435 -0.26247826 0.1293731 -0.012728157 -0.21819834 0.041508168
0.057596013 -0.23202744 -0.21644016 0.04667181 0.13595773 -0.012153437 0.11604328 -0.23297185
-0.35290533 -0.017161753 -0.30242214 0.2668216 0.14420375 -0.19186716 -0.33931935 0.07152167
-0.30710095 0.044474985 0.15358448 0.2250138 0.25396782 0.109403044 -0.19113527 -0.17849045
0.18310453 0.14312504 -0.42823035 0.033509564 0.022741681 -0.25734788 -0.07750883 0.21197405
0.1636899 -0.4372849 -0.39462957 -0.31795862 0.13945946 0.09954345 -0.06283084 0.043968596
0.2216843 -0.5576105 -0.32810777 -0.9234662 -0.105801776 -0.6570899 0.090177394 0.28598934

representation_encoder.0.bias f4 [16]
00000000: 58e4 8dbd 633a 05bd df37 29be 4bb9 9fbd
00000010: 7ab4 3fbe f811 c2bd 4f7b 0abe 1ce2 413c
00000020: 3e21 b9bd cea8 05be 2ebe 5ebd 0b39 38be
00000030: 4fdf 6abe 41c6 babd a8ae 72bd f8cd 16be
-0.06928319 -0.032526385 -0.1652522 -0.07799014 -0.1872119 -0.094760835 -0.13523601 0.011833694
-0.090395436 -0.13052675 -0.05438059 -0.1799051 -0.22936748 -0.09119845 -0.059248596 -0.14727008

representation_encoder.3.weight f4 [32, 16, 3, 3]
00000000: b86a c33e c8a4 83bd fb9d a23e 0330 053f
00000010: cefa edbd 43e3 363e 237d b7be 93bb 7cbe
00000020: 8e88 943e c33a 913e 7e63 51bd 71c5 923d
00000030: dc5d db3e 75b1 aebe 3007 1a3e f898 2abe
00000040: ee5f afbe cbf5 74be 594a 9ebf 9499 37bf
00000050: 4911 b83e 3ca8 1dbf deb7 93be 5c72 a43e
00000060: 9d81 d3be 59d0 d9be 48bf b53e 4ee4 8f3e
00000070: 520d dfbf acf4 55bf c935 f63d 8a34 69be
00000080: 4e76 ccbe f3fc d2be 3859 8bbf 6435 0fbf
00000090: 1271 dabc 0ed1 f43e 2801 0d3f d70e d7be
000000a0: 0092 a7be aba3 15be 4a9f d73d 5bfd 0abe
000000b0: 8bea cabe d9d6 803e 666f 403f 3a18 32bd
000000c0: 8793 fd3e a47b 91be a3ce 33be 4774 fb3d
000000d0: f6e0 80be 4ce5 25be ef40 10bf f44f 8ebe
000000e0: 7612 5dbe 730a 7b3f 9378 4e3d 7f1f b33e
000000f0: 2405 8b3e 7ebe 073e 02a8 cb3e 8b30 123f
00000100: eed3 3c3f 5c0b 30bf 4fc3 6d3f 0299 c8bd
00000110: e7ac 0cbf 5c96 d6bc 5432 c8be 2dfa a3be
00000120: e272 b7bd 014c 9e3d 06df 79bd 95b5 193c
00000130: b9c2 39bf cd78 4d3d 7048 793f b975 293c
00000140: 50c1 d3be f173 59be 6467 b8be 5b5f e03d
00000150: 7d56 0d3f ee33 fd3d bac4 49be b22e 2b3e
00000160: 961d 8ebe 8454 63bf bcaa ae3f 4712 9f3e
00000170: 6be0 da3e 7197 aa3f 37b1 f7bd 7d58 0bbe
00000180: 2ac7 62be 7dc4 d3be 2dc4 7abb 1024 5ebf
00000190: 398a f7be 2fb2 88bd 7a55 f3bd 3f12 15be
000001a0: 04be 54be 298e 103f 05d4 88be 3ec8 4d3e
000001b0: e4e7 72be f7aa 253e 00de 25be 0ada e13c
000001c0: 18a3 bdbe e060 cdbc c27a febe 4165 5cbe
000001d0: 2790 183f 1bd0 8abe f37b 1a3f b469 883e
000001e0: 9208 3abe 5300 113d 014a 33bd e9de 68be
000001f0: 1b74 12bf 122d 183f 7b96 55bc 1cdc febe
00000200: 2b24 d2bd 1fbe 523f e670 85be 035d 83be
00000210: b905 bcbe ea2b cfbe c1af f4be c74f 82be
00000220: 4870 ffbb 294e 463e ed2e 893c 58ce e03d
00000230: 0ab9 9cbd 7066 f0be 474d 45bd 941b 02bf
00000240: e089 83bd 5243 d73e adc6 a1be 8707 03bf
00000250: fae4 f5bd d8ae 91be cd2b b73e 48be e63d
00000260: dd95 193f 08d1 bb3d 2a23 983e 0cfe 313e
00000270: 4ccc 3d3e 2c29 343d 1811 5fbe b118 7cbe
00000280: ec4c 56bd 2bed 403e 8d31 00bd 0e6a 9e3b
00000290: 8276 c0be 9457 083f 15fa ae3c aaff babe
000002a0: dc65 303e da24 67be 0c2f 623e 3c06 2cbe
000002b0: 878d c93e 413c 483e f535 d63e f21c 1f3f
000002c0: e3d7 04bf dc9b 6f3e a8d9 9cbe d3d3 31be
000002d0: e70e 6b3d 5340 05bf e43a a33e 2bb7 29bf
000002e0: c614 3dbf 1ea2 a83e 8576 96bd f98f 053f
000002f0: 2317 563f 1e29 42bd 1edd ee3d 0b81 963c
00000300: 4642 ae3d fbae a8bd 752e 0b3f 65fa debe
00000310: 7232 51be 305d 08bf 7d7b babc cbe6 9c3d
00000320: 8f41 c9bc 429d 31bd 9b8c b03e d9d7 edbd
00000330: 6182 b5be 1e74 c43e 11ce 113f 8c17 f5be
00000340: 0c9d 7bbd 48dd dd3e 2914 38be d6b8 663a
00000350: 4f5c 393e 1d1d 0bbf 99d5 87bf bf2e 9bbf
00000360: eecb 1c3f aa5a 44be 0b58 37bf fa02 1dbf
00000370: 8ccd 20bf 4a25 5ebe fb05 473e def6 493f
00000380: 1dc3 453f 63be bf3e b9b1 d1be 49d1 2bbe
00000390: eb08 3abe 183f 2dbf c974 31bf c017 bebd
000003a0: 6b1d d5be 5440 c33e e3b5 223f 3fe0 943e
000003b0: c882 0cbe 844e f93d e79c d8bd b69c 0abe
000003c0: 5279 aa3e 3fb4 f0be 23cd e4bd c4c9 a0bd
000003d0: adf3 8bbe 3861 00bf 413f c73e 5488 9e3e
000003e0: 2776 eebe 4c93 ab3e a6c3 12bc 8533 913e
000003f0: c14a a73e 80d0 e63e 2184 8b3d e8fa 8f3e
0.38167357 -0.06427914 0.31761155 0.52026385 -0.11620103 0.17860131 -0.3583766 -0.24680929
0.29010433 0.28365144 -0.051120274 0.07166565 0.42845047 -0.34119764 0.15041804 -0.16659915
-0.34252876 -0.23921888 -1.2366439 -0.71718717 0.35950688 -0.6158483 -0.28851217 0.321185
-0.41309825 -0.4254177 0.354975 0.2810387 -1.742594 -0.83576465 0.120219775 -0.22773948
-0.3993401 -0.4120861 -1.0886602 -0.5594084 -0.026665244 0.47815746 0.5507989 -0.4200351
-0.32728577 -0.14613216 0.10528429 -0.1357321 -0.39632067 0.25163916 0.7516998 -0.043480136
0.49526617 -0.28414643 -0.17559294 0.122780375 -0.25171632 -0.16200751 -0.5634908 -0.27795374
-0.21589074 0.9806282 0.050407957 0.34984967 0.2715236 0.13256261 0.39776617 0.5710532
0.7376088 -0.68767333 0.9287614 -0.09794809 -0.5495133 -0.026194744 -0.39100897 -0.32026806
-0.08957459 0.0772934 -0.061003707 0.009381671 -0.7256275 0.050164033 0.97376156 0.010343009
-0.41358423 -0.21235634 -0.3601638 0.109556876 0.55210096 0.123634204 -0.19703951 0.16717032
-0.27756947 -0.88800836 1.3645854 0.31068632 0.42749342 1.3327466 -0.12094348 -0.13607974
-0.22146288 -0.41360846 -0.0038263903 -0.86773777 -0.48347643 -0.06674611 -0.11881538 -0.14557742
-0.2077561 0.5646692 -0.26724258 0.20095918 -0.23721272 0.16178499 -0.16197968 0.02756979
-0.37038493 -0.025070608 -0.49703032 -0.21523 0.5959496 -0.27111897 0.6034538 0.26643145
-0.18167332 0.0354007 -0.043771747 -0.22741283 -0.5720841 0.5944377 -0.013036366 -0.49777305
-0.10260805 0.8232135 -0.26062697 -0.256569 -0.36723116 -0.4046319 -0.4779034 -0.2545149
-0.0077953674 0.19365753 0.016746009 0.10976857 -0.07652481 -0.46953154 -0.0481694 -0.5082333
-0.06422782 0.4204355 -0.3159689 -0.5118336 -0.120065644 -0.28453708 0.35775605 0.11266762
0.599943 0.09170729 0.29714328 0.17382067 0.18534964 0.043984577 -0.21783864 -0.24618794
-0.052319452 0.18840472 -0.031297255 0.00483442 -0.37590414 0.53258634 0.021359483 -0.3652318
0.17226356 -0.22572652 0.2208826 -0.16799253 0.3936579 0.19554235 0.4183804 0.6215354
-0.51891917 0.233993 -0.3063481 -0.17365961 0.05738726 -0.52051276 0.31880867 -0.6629512
-0.7385982 0.32936186 -0.073468246 0.5217281 0.83629054 -0.047402494 0.116632685 0.01837208
0.085087344 -0.082365 0.5436776 -0.4355041 -0.204294 -0.5326719 -0.022763962 0.07661208
-0.024567394 -0.043362863 0.34482273 -0.11613435 -0.35451034 0.3836984 0.5695506 -0.47869527
-0.06142907 0.43332887 -0.1797644 0.00088013464 0.18101619 -0.543413 -1.061206 -1.2123641
0.6124867 -0.1917521 -0.7161872 -0.61332667 -0.6281364 -0.21693912 0.19435875 0.78892314
0.77250844 0.3744994 -0.40955904 -0.16779055 -0.18167464 -0.676744 -0.69318825 -0.09281874
-0.41624007 0.38135016 0.6355879 0.29077336 -0.13721764 0.12173179 -0.10576802 -0.13536343
0.33295685 -0.47012517 -0.11171939 -0.07850984 -0.27334347 -0.50148344 0.38915446 0.30963385
-0.46574518 0.33510816 -0.008957779 0.2835962 0.3267422 0.45080948 0.06812311 0.28121114

representation_encoder.3.bias f4 [32]
00000000: 718e efbe c376 24bf f67f fdbe 0291 32bf
00000010: f6dd 17bf 115b f1be 9ded 05bf 03fd 09bf
00000020: 5139 19bf ba17 32bf 00c5 fcbe c6c4 19bf
00000030: 233e c4be 424f 2dbf 462c b3be a3ec c2be
00000040: 75b7 f0be 4dbc efbe bebb 9ebe 59be 1fbf
00000050: d777 36bf e041 26bf 78fd 11bf c56b f2be
00000060: 9fd8 f1be bf78 54bf d5d8 b8be c742 2dbf
00000070: e724 2fbf 3b95 11bf 84c0 f6be a255 21bf
-0.46788362 -0.64243716 -0.4951169 -0.69752514 -0.5932306 -0.4713979 -0.52315694 -0.5390169
-0.5985308 -0.69567454 -0.4936905 -0.6006588 -0.38328657 -0.6769906 -0.34994715 -0.38071164
-0.47014967 -0.4682335 -0.3100261 -0.6239982 -0.7127661 -0.6494427 -0.5702739 -0.47347847
-0.4723558 -0.82996744 -0.3610293 -0.6768002 -0.68415684 -0.5686833 -0.48193753 -0.6302129

representation_encoder.7.weight f4 [16, 1568]
00000000: eb6b e2bc 5b58 a93e 77d6 c63f ceba 423f
00000010: ff23 3ebf 069f ccbe b017 eb3d b7c8 923e
00000020: dc34 1b3f 743d d23d eb0f dabe 97ea a33e
00000030: 4284 b73e 9a0e 463e c2e0 cb3e e46a ca3e
00000040: 22cd a5be fdf1 a2be 383e dd3a 6b70 aa3e
00000050: 4538 f23d e9d0 e03e 4a3e 963b 733e 6abf
00000060: e155 03bd 261a 1a3d edcb c8be 6c95 1e3f
00000070: 97dd 81be 7a15 3a3e d77e cabe 75a5 983f
00000080: 8c32 eb3e b419 43bf 111b 4cbf 28c7 94be
00000090: a47c 983d add8 07be f82b 3a3f 26d9 603e
000000a0: 8439 d2be 0134 80bf c7fb 413e fa93 24be
000000b0: 56b1 8a3d f069 fbbe 50ec 25be 841d b83d
000000c0: 055c 9e3e 633e 39bd 14c6 a53e 7a7a e83e
000000d0: 9d0f 113f e215 013e 19eb b63e 5aa6 a13e
000000e0: d92f 54bd 4be1 e03e ab9f 803e 38e5 6b3d
000000f0: 3bf6 14be 6b77 b0be c664 b4be 32ad 923d
00000100: b34f 03bf 3710 ddbe a29f 013e 834c 05bf
00000110: b4a6 2a3e 0605 333e 79e2 abbe 0b10 ed3d
00000120: 05f3 083f dcc3 28be 7cdd 60be d509 043f
00000130: 9306 a63e 2406 12be d62c 8d3d dd73 0a3f
00000140: cc0d 45bf 541f bcbe 493b 053e 2e7a 30be
00000150: fa38 083e 044b 5cbe 3521 b13e 7ed1 18bf
00000160: a544 c5be ff8a 9cbd 06a9 44be faff 5b3d
00000170: 1bb2 06bf b314 6ebe 23ef 87be 4ca9 6b3e
00000180: db29 253d 392b 20be 4204 fb3e ff41 b33e
00000190: 5419 0b3e ca70 fe3e 60b4 8d3e 7c6e 54be
000001a0: d27b 99be bb69 2e3d 6342 0fbc 34a7 833d
000001b0: 7583 84bf 813b 08bf 88b8 7bbf e972 fdbe
000001c0: 317a 8e3b 38fb d1be 5e45 093e fb34 9bbe
000001d0: 2c1c 643e 109d 043e 56d5 35be 00bf 28bd
000001e0: 0231 25be 11f4 443f 5cc9 b53e 9b7f 8e3f
000001f0: fd49 d3be 73ef ddbe 75d8 12bd 13b7 123f
00000200: 140d 413d f5e1 9d3e 8ad6 023d 9228 8ebe
00000210: 15d6 d93e 50ae 31be cde6 003e 7328 d9bc
00000220: 8a32 9e3d 9201 6d3f 325c 353f 0331 99be
00000230: 9193 8abe db2a ea3e 7c9c ce3d 4288 053e
00000240: 6785 dd3e bc55 0b3e 3e71 9ebe 07ff 50be
00000250: e705 fd3c 8a48 243d 2415 02bf 0a55 a4be
00000260: c1db 04be 8277 1ebd fc3a 0dbe f4ee b63d
00000270: fdf9 0bbf 14d8 1abf 6fcf 75bf 7003 1bbf
00000280: 61c9 aabe 7b72 36be 7459 b3be 0efe 6fbe
00000290: d777 d03b efe6 773d 3f98 033f 1248 5dbf
000002a0: bf6c 39be c552 26bf 0e49 963e 0821 82be
000002b0: cbb8 cf3d d825 6e3e ce3a fdbe 6e40 3dbe
000002c0: 897f ccbe 5758 bd3e 6ab7 3dbe 8b8b a2be
000002d0: 8337 82be d1e0 c5be cab9 2cbe 6fcd a8bd
000002e0: eb74 143e 5e44 573d 4d36 903e df6c 09bd
000002f0: 9e06 21bf f72a 21be 9106 6c3e c5e4 8c3c
00000300: 178d d33e 11af e03e f4fc be3d 7c35 08be
00000310: 7f25 183e 55c2 a13e 94d5 623f 37ce f53e
00000320: fb7f 6c3e 6480 603d c3fb a93e 171e 5e3e
00000330: b3f4 7b3e 8b0b 05bf 7704 c0be 820e 82bd
00000340: 4f54 09bf 73e5 863d c75b 0b3d 049b 5abf
00000350: 176e a83d 2af9 b23d 0803 33be 8b05 e5be
00000360: 854c c73d 7b34 58be 797d 21bf 1cd0 bcbd
00000370: 7d1a d9be 16c4 ac3d 0475 10be 65e2 643d
00000380: 00cb 8c3e 8a84 ba3d 4347 b9be bf8b 8cbe
00000390: 132f 7c3e 3f6d 843f 77a6 d83e d2b8 a83c
000003a0: ff91 c9bd 5292 e5be 6abc 82bf 1ca2 463c
000003b0: ea22 ed3e 31d3 a93e 36c4 de3e dd7f 60be
000003c0: acae 38be 8a11 2f3d 296f 333e 4154 2cbd
000003d0: 9c2c 453e 44fb 643f 7005 703e 33a0 6c3d
000003e0: 7619 8c3c 359e f1bd fcef 943d 979f be3d
000003f0: da49 233f bc9f ac3e 78cb 0cbe e937 d13d
-0.02763935 0.33075222 1.55342 0.7606629 -0.74273676 -0.39965075 0.114791274 0.28668758
0.6062753 0.102656275 -0.4259027 0.32014915 0.35843092 0.19341508 0.39819914 0.39534676
-0.32383066 -0.31825247 0.0016879505 0.33288893 0.11827139 0.43909386 0.004585062 -0.9150154
-0.032064322 0.037622593 -0.39218083 0.6194675 -0.25364372 0.18172255 -0.39549896 1.1925493
0.45937002 -0.76211095 -0.797288 -0.29058194 0.07445648 -0.13266249 0.7272334 0.21957836
-0.41059506 -1.001587 0.18943702 -0.16072074 0.067721054 -0.4910426 -0.16203427 0.08990005
0.3092958 -0.045225512 0.32377684 0.45405942 0.5666445 0.12606004 0.3572624 0.3157223
-0.051803444 0.43921885 0.25121817 0.057591647 -0.14547054 -0.3446611 -0.35233134 0.07161941
-0.51293486 -0.43176433 0.12658551 -0.5206987 0.16665155 0.17482385 -0.33571222 0.115753256
0.5349582 -0.16480964 -0.2195949 0.515775 0.3242689 -0.14260155 0.068933174 0.54083043
-0.7697418 -0.3674265 0.13010897 -0.17234108 0.13302985 -0.21512991 0.34595647 -0.5969466
-0.38528934 -0.07643699 -0.19205102 0.053710915 -0.5261552 -0.23250084 -0.26549634 0.230138
0.04032312 -0.15641488 0.49026686 0.3501129 0.1358388 0.49695426 0.27676678 -0.20745271
-0.2997728 0.0425813 -0.008743855 0.06428376 -1.0352618 -0.53215796 -0.9832845 -0.49501732
0.0043480624 -0.41011977 0.13405368 -0.30313858 0.22276372 0.1295054 -0.17757162 -0.041197777
-0.16131976 0.76934916 0.35505188 1.1132692 -0.41267386 -0.43346748 -0.03585096 0.573106
0.047131613 0.30836454 0.03194288 -0.27765328 0.42546144 -0.17351651 0.12588044 -0.026508546
0.07724483 0.9258052 0.70843804 -0.29920205 -0.2706571 0.4573582 0.10088441 0.1304026
0.4326584 0.13606924 -0.30945772 -0.20409785 0.030886604 0.04010824 -0.5081351 -0.3209613
-0.12974454 -0.03868819 -0.13792032 0.089322954 -0.54678327 -0.6048596 -0.96019644 -0.6055212
-0.33356765 -0.17817108 -0.35029185 -0.23436758 0.0063619423 0.06052297 0.51404184 -0.86438096
-0.1810789 -0.64970046 0.2935261 -0.25415826 0.10142668 0.23256624 -0.49458927 -0.18481609
-0.39941052 0.3698146 -0.18526998 -0.31747088 -0.25432977 -0.38648084 -0.16867748 -0.08242308
0.14497726 0.052555434 0.28166428 -0.033551093 -0.6290072 -0.15739046 0.2304938 0.01719893
0.4131858 0.43883565 0.09325591 -0.13301653 0.14858054 0.31593576 0.88607144 0.48008892
0.23095696 0.054809943 0.3319989 0.21691166 0.24605064 -0.5197074 -0.37503406 -0.063504234
-0.5364427 0.06586733 0.034023073 -0.85392785 0.08224123 0.087389305 -0.17481625 -0.4473079
0.09731392 -0.2111377 -0.6308208 -0.09219381 -0.4240302 0.08435838 -0.14107138 0.05587997
0.27498627 0.09107311 -0.3618718 -0.27450368 0.24627332 1.0345839 0.42314503 0.020595942
-0.098423 -0.44838196 -1.021375 0.012123611 0.463157 0.3316894 0.43509072 -0.21923776
-0.18035382 0.042741336 0.17522873 -0.04207254 0.19255298 0.894459 0.23439574 0.057769965
0.017101984 -0.11797754 0.07272336 0.09307783 0.63784564 0.33715618 -0.13749492 0.10215742

representation_encoder.7.bias f4 [16]
00000000: 7ad8 713e aad0 f23e 9d66 c1be cde2 0a3f
00000010: 3733 68bd e05b 843e fd59 373f 25e3 92be
00000020: 8c34 acbe e8d1 1f3f d6c9 d43e 9b1d 983c
00000030: 20e4 173f 4898 b63e 12c7 803d cc2b f53e
0.23617736 0.47424823 -0.377736 0.5425232 -0.056689467 0.25851345 0.71621686 -0.28688923
-0.3363384 0.62429667 0.4156024 0.018568804 0.59332466 0.35663056 0.0628797 0.47884977
