results/adversarial/mnist_disc_state_dict.pth (torch, 58856 bytes, 7 tensors)

main.0.weight f4 [8, 1, 3, 3]
00000000: 9f47 80bc de09 1fbe 7b06 2abd ad28 f33d
00000010: 12d7 6abe 00f2 b13c c66f d43d 48c3 79be
00000020: 7015 713e a1e5 a6bd 5114 ab3e 73db 9f3c
00000030: 28f4 9a3e 1767 6dbd c7db 49be 8c84 9abd
00000040: 24ab 5abe 344b 5d3e 1d42 9abd 5ad7 9e3e
00000050: 28ea 3ebe bb9f 5bbc ec31 d03d 1104 d9bd
00000060: 8b23 43be ebba 903e a02d e03d 0b7d 5c3c
00000070: 6957 b93e 8f6d 463e 9e4b 2e3e 02f9 8d3c
00000080: 64aa b33e a1bc 3c3e 11a2 1c3e 6347 873e
00000090: 151e f23d 5a1d 863e 04d9 aa3e 97eb 8ebe
000000a0: 1a94 e83c c868 63bd 1044 5d3d 443c 41be
000000b0: f23c c23e 2cbf 1b3e 5924 34be 5c61 423e
000000c0: 6c93 3abe b2fc d23d b7eb c23e 9aaf 4cbe
000000d0: 2674 ab3e 0ec9 4abd 173d 993c bd35 053e
000000e0: 915b e0bd 7577 7dbd 0c8d 553d b6fa 1d3e
000000f0: 55aa 333e b32e 12be 16a1 0f3e ecc2 e33e
00000100: 6473 203e 1e9e d9bd 295e b73e d89b 80be
00000110: 6bb6 e9bd b083 383e 274d 48be f7cf 8d3e
-0.015659152 -0.15531108 -0.041510087 0.11872993 -0.22933605 0.02172184 0.103728816 -0.243909
0.23543334 -0.08149267 0.33413938 0.019513821 0.302644 -0.057959642 -0.19712745 -0.075448126
-0.21354347 0.21610719 -0.07532141 0.31023675 -0.18644011 -0.013404782 0.10165772 -0.10596479
-0.19056527 0.28267607 0.10946202 0.013457547 0.361995 0.19377731 0.17021033 0.01733065
0.35090935 0.18431331 0.15296198 0.2642165 0.11822144 0.26194268 0.33368695 -0.27914116
0.028390933 -0.05551985 0.054019988 -0.18870646 0.37937123 0.15209645 -0.1759199 0.18982452
-0.182203 0.10302104 0.3807046 -0.19988862 0.33487052 -0.049508147 0.018705888 0.13008781
-0.10954965 -0.0618815 0.052136466 0.1542767 0.17545445 -0.14275627 0.14026293 0.4448465
0.15669018 -0.106258616 0.35814026 -0.251189 -0.114117466 0.18018985 -0.19560681 0.27697727

main.0.bias f4 [8]
00000000: 5793 ad3d 63b2 cfbe 0d62 77be af2c 00be
00000010: 86d4 8e3c 4be4 8f3e 61fb fd3e 6cca f13e
0.084753685 -0.40565786 -0.24158497 -0.12517045 0.017435323 0.2810386 0.4960585 0.47224748

main.3.weight f4 [16, 8, 3, 3]
00000000: cd45 f9bc df71 503c 28a6 573d bae1 693d
00000010: 8752 46bd 53e3 c33d 3af3 10bd 81f6 f8bc
00000020: 341a 4b3d 5bb6 35be ff9c 0dbe eefa 42be
00000030: 1df5 ddbd 42b2 bcbd 3060 bcbc 47aa 673c
00000040: c657 09be 88ab dabd ed64 c73d 1b3d c73d
00000050: 735e 973d 7d3a c43d d98d 07be ea94 26bd
00000060: 9359 f9bd f733 0a3d 30b3 31bd c840 db3d
00000070: dd3b 353d 9696 bd3d b67b 8b3d 4e89 0e3e
00000080: 0df2 c5bd 85dd 033e 1ed3 acbd 9829 a63d
00000090: 4b93 69bc ecdb ca3c 263a e43d f057 17bc
000000a0: c45e 01bc 5a7b ffbd 31dd 8c3c 4d4c 09bd
000000b0: 072d a1bd 8c8f 153e aa3f 543d 95a5 513c
000000c0: b9b3 0bbc 0238 ae3d 57a5 b8bd c169 923c
000000d0: d9dc 8abb f5cc 90bd dde9 7b3c 66b4 233e
000000e0: d5f1 013d 8cf9 023a f1aa 9b3d aa18 823d
000000f0: d4f9 813d 50c7 b13d 5db4 6b3d 1744 823d
00000100: de52 c23d 4180 943c 8d77 7eba 1a8a 85bd
00000110: 9aab 11bd 6ef5 203e 3f87 fa3b b5ef 6abd
00000120: 9d01 8bbd 62b6 e93d cde6 56bd c027 d03c
00000130: 1755 e03d 07d6 dfbc 8b91 5e3d 2892 e23b
00000140: 6ce2 c03c 1ee9 c93d 3c6f 97bd 8124 de3d
00000150: 2fbf 12bd 4c0f b43d 7f22 503d ebbb e4bc
00000160: f92b 233e faac 4ebb e5dd a8bd 38f0 d93d
00000170: 6287 23bd 2797 acbd 3926 033e a225 4fbd
00000180: b8d8 22bd b998 b53c bbf9 aebd 7dab bcbd
00000190: 4058 bc3d 12e4 62bc 3407 c23d dc9e 083e
000001a0: d37e 553d 81bd bcbd 01dd 8d3d 7020 843d
000001b0: 383f ec3d 182b f8bc d693 46bd 9bcf 073e
000001c0: 2351 8c3c 7f06 63bd e2b2 0f3e 0277 343c
000001d0: 635b aa3d 385f acbd 50da 7bbd a5a1 49bd
000001e0: 3d91 ff3a 9431 8b3d 575a a93d ca90 1e3d
000001f0: e884 093e 282c b83d ca2e a7bd 7d6b 293d
00000200: b5b6 27bd 7a16 a5bd 6f7a 163d f275 263d
00000210: e6c6 9abd 8ab0 f73a 75b0 f53d c183 0e3e
00000220: 1823 9abd 9501 1a3e 1e43 993b 0b4b 29bd
00000230: d91b 82bc 3dd1 083e 40ce 1d3d 97ce 953d
00000240: 1287 ab3d dbdc bb3c 4168 893d 35be 0c3e
00000250: bb8a 1f3e 679a 063e 6e5c bb3d bcdd 47bb
00000260: b127 013e 495a 96bc 8a7f 71bd b285 60bd
00000270: 9206 5d3c 2032 2ebd 58ed be3d 4a28 833d
00000280: 7267 bb3d dbee d63d 4af0 a8bd 3519 233e
00000290: cd22 1b3e 24dd 9ebd 8e80 64bd a850 a1bd
000002a0: 089a 12bd 40b5 2b3d a3bd 043e 4d9b 0bbd
000002b0: 5b5e c93d db4d ac3d 72b6 983d b1d0 3dbc
000002c0: ebb4 2b3e a12f 6539 9a96 933c 384e bc3c
000002d0: 93a0 e23d 4bb2 043b acad 013e 3a90 3a3e
000002e0: 334a e43d 812b 373d 0730 353e 4f45 193e
000002f0: b69c 2e3d 98ff 7b3d 0f97 3e3e 8004 2e3e
00000300: e305 2d3e de3e 853d ba84 b73d fa89 1e3e
00000310: 0925 b33d 2965 2d3e 8907 0e3e 2e3a f43d
00000320: 4dea 193e cdca f53d 6338 d33d e815 d63d
00000330: 19a5 093e 118c 373e b824 833d a7c9 183e
00000340: 0ac9 86bb dc4b 763d 6932 ba3d badd 853c
00000350: 7a95 e73d 4879 333e 18c1 bd3d d6b1 0b3c
00000360: 5aeb bc3c 7690 da3d 1402 ccbc fdca bbbc
00000370: 7e9a e93d 0c9d a7bc d4d8 2e3b 8430 a33d
00000380: 8208 413c 81b2 033e ba05 ff3d 8c98 f83c
00000390: 7203 1d3d ae7d dabc 5a98 ae3d 9ba7 a73d
000003a0: 0e85 803d bce0 9abd 50db 1f3d fa18 ba3d
000003b0: 3766 acbd ec9d 0f3d 561e 82bd c7a5 98bd
000003c0: 2d2d 64bc cea1 013d c427 e43d e732 c6bd
000003d0: 63dd 2dbd 7382 cc3d 7ca7 9f3d 33c1 053e
000003e0: c735 15bd df7f 983d 0038 ea3d d289 bfbd
000003f0: 15fb c23d 82bc 053e 6761 e53d b8e4 943d
-0.030428791 0.0127224615 0.052648693 0.057100035 -0.048418548 0.09564843 -0.03538821 -0.03039098
0.049585536 -0.17745344 -0.1382942 -0.19041035 -0.10837767 -0.092136875 -0.022995085 0.014139718
-0.13412389 -0.10677248 0.09736047 0.09728452 0.07391062 0.09581468 -0.13237704 -0.04066936
-0.12175288 0.033740964 -0.043383777 0.107057154 0.044246543 0.092572376 0.06810705 0.13919565
-0.09665308 0.12877472 -0.08438705 0.08113402 -0.014256309 0.02476307 0.111439034 -0.0092372745
-0.007896129 -0.12474699 0.017195316 -0.03352003 -0.078699164 0.1460554 0.051818527 0.0127958255
-0.008526736 0.085067764 -0.09015911 0.017872693 -0.004237753 -0.070703425 0.015375582 0.15986785
0.03172477 0.0004996292 0.07600964 0.063523605 0.06346479 0.08680594 0.057545055 0.06360643
0.09488462 0.018127562 -0.00097071455 -0.065204814 -0.035564043 0.15718624 0.007645517 -0.05735751
-0.06787417 0.1141174 -0.052466203 0.02540958 0.109537296 -0.027323736 0.05433802 0.006914396
0.023545466 0.09858917 -0.07394263 0.10846806 -0.035826858 0.0879198 0.050814148 -0.027921638
0.15934743 -0.0031536208 -0.08245448 0.10641521 -0.039924033 -0.084272675 0.1280755 -0.050573
-0.03975746 0.02216755 -0.08543726 -0.09212396 0.0919652 -0.0138483215 0.0947403 0.1334185
0.052122902 -0.092158325 0.06926919 0.064514995 0.115354955 -0.030293986 -0.04848083 0.13262789
0.017128533 -0.055426117 0.14033082 0.011014702 0.08318212 -0.08416599 -0.061487496 -0.049226422
0.001949824 0.06796566 0.08269184 0.0387123 0.13429606 0.08992797 -0.08163221 0.041362274
-0.040945727 -0.08060928 0.036737856 0.040639825 -0.07557468 0.0018897217 0.11996547 0.13917448
-0.07526225 0.15039666 0.0046771904 -0.041331332 -0.01588242 0.13361068 0.038526773 0.073147945
0.08375372 0.02293246 0.06709338 0.13744433 0.15580265 0.13144837 0.09148489 -0.0030497154
0.12612797 -0.018353598 -0.05895952 -0.054815 0.013490336 -0.04252827 0.093226135 0.06404169
0.0915059 0.10494777 -0.082489565 0.15927584 0.15149994 -0.07757023 -0.05578666 -0.07876712
-0.035791427 0.0419209 0.12962966 -0.034083653 0.0983245 0.08413287 0.07456674 -0.0115854
0.16768233 0.00021856885 0.018016148 0.022986516 0.11065783 0.0020247872 0.12663907 0.1821908
0.11146965 0.044719223 0.17694102 0.14967845 0.04262992 0.06152305 0.18612312 0.16993904
0.16896777 0.065061316 0.089608625 0.15482321 0.08747298 0.16933121 0.13870062 0.119251594
0.15030785 0.12001572 0.10313489 0.10453397 0.13441886 0.17924525 0.06403488 0.14920674
-0.004113321 0.06013094 0.09091646 0.016341079 0.11307807 0.17526734 0.09265345 0.008526286
0.023061443 0.10672085 -0.024903335 -0.02292394 0.1140642 -0.020460628 0.0026679533 0.07968238
0.011781814 0.12861063 0.12452264 0.030346178 0.038333364 -0.026671257 0.085251525 0.08186265
0.06275378 -0.07562396 0.039027512 0.09086795 -0.084179334 0.035062715 -0.06353442 -0.074534945
-0.013926786 0.03164845 0.11140397 -0.096776776 -0.04244746 0.09985819 0.07795617 0.13061981
-0.03642824 0.074462645 0.114364624 -0.09352459 0.09520546 0.13060191 0.11200219 0.07270187

main.3.bias f4 [16]
00000000: 5607 b43d e076 8ebd 98a0 513e e888 09bd
00000010: b35d 173e 5f65 f73d 0528 94bc 9839 00bd
00000020: 805d 7b3d 0032 14be eaeb 20be 137e 2bbd
00000030: 38fd 35be 1e41 443e 750f bebd 8be6 6e3e
0.08790462 -0.06956267 0.20471418 -0.03357783 0.14781837 0.12079882 -0.018085489 -0.031304926
0.061368465 -0.14472198 -0.15714994 -0.04186828 -0.17772377 0.19165465 -0.09280292 0.23330133

main.7.weight f4 [16, 784]
00000000: 6fbb 29bd f45e 54bc 25bb a7bc abb0 443c
00000010: 577e 0cbd 6d45 c1bc 8b98 d13c 63c2 8abc
00000020: 89b4 773c ab31 aebc 3b18 a5bc 7a5e 963b
00000030: 7209 f4bc 06cc 063d f8c4 47bd b282 133c
00000040: 38cd a1bc 84fa fa3b e01e 15bc 48d5 0fbc
00000050: 62db 5a3c e02d 983c abc7 a63c 8926 213c
00000060: ecdc dbbc f7fe 513c 21d6 53bc dbbe 88bc
00000070: 23f3 bbbc 7137 e93b c4ba 93bc 4981 de3c
00000080: baf5 8738 27dd b43c 3c36 53bb bef8 c2ba
00000090: 4abe 623c ffc2 d4bb b68e c53b c794 72bc
000000a0: 86cf d0bc 710b cfbb 2f2d 15bd ddc8 dd3b
000000b0: 1b77 263c de07 87bc 0203 813c e380 763c
000000c0: 3240 05bd 0045 603c a518 983c 5d6e b4bc
000000d0: ce52 e43c f197 4ebb 962f 3ebc f0f1 09bd
000000e0: 7a87 e93a 51a7 f8bc 9683 063d 1e8f cc3c
000000f0: 920d 0b3c e6c1 093d 55a1 0ebd 887b 3e3c
00000100: 5c3b f33c 0895 1dbc 4ae6 a73c d87c cbbc
00000110: 65e0 fa3c c426 8d3c abc3 91bc 28f1 bcbc
00000120: 4014 21bc a16b 713b 9482 323c 4c83 d93c
00000130: 98da e93c 66af e3bc b211 c9bc 7736 9cbc
00000140: 2030 2f3d 40b9 5cbc 0518 eb3c 24b7 163d
00000150: 1a11 9aba 3a4a c53c 5146 24bc e2ad c9bc
00000160: a202 073a 6922 3a3d e14c 41ba c363 be3c
00000170: c469 c93c 7651 9d3a 1126 4a3b 3417 113d
00000180: 8f8c 403b 4247 a33b 38dc 0dbd 6b81 ccbc
00000190: 1ec1 ac3b 244c 993c 7b2f 383c 40ab 00bc
000001a0: b73e d6bc 9de6 01bd 23fd 65bc 1e21 27bc
000001b0: 2025 ee3c 0a6a 923c 3b4e 3a3c f9fd aebc
000001c0: f8b1 00bd 63eb 353b ff13 143d 93e6 353d
000001d0: ae2f 133c ba9b 373d 0af1 b43b 1e59 e2bc
000001e0: ab5e 0fbc c5da 163d ae0b 473c 3af4 153e
000001f0: 21e1 6a3c a3e9 203d 1846 12bd cd6b eabc
00000200: b942 a7b9 f8ea 8f3c d56d 0a3e 24fd 833d
00000210: 0577 253d b08e e73c 1fe6 233c 636b be3c
00000220: bbba d03d de41 9e3d 4cac 5d3c 10ef 0c3d
00000230: a0ad a5bc 65a9 7c3c 4093 523d 40c8 cb3d
00000240: 808c 9f3d d12a 433d 1026 de3c a627 b639
00000250: f676 07bd 8a62 46bc a51d 01bd 2364 063d
00000260: 4046 ba3b 015c ebbc 53f1 673c 5ffa dabc
00000270: f226 e53c 369d 2ebc de99 c8bc 1bf6 d13c
00000280: 13de 3bba aa2c b5bc dbec 083d dd99 803c
00000290: 654a 01bd 61bc f8bc aa82 7bb8 946d babc
000002a0: afc3 8ebc fb14 12bb b84e bd3b b42e 853c
000002b0: 7536 86ba 9d84 aebb 05ad 973c e822 50bc
000002c0: 5400 853c d34a a9bb 0f32 ac3c e9fb 6cbc
000002d0: aa16 9fbc d3b2 97bc f633 aa3c 5f2d 32bb
000002e0: a453 a73b 9dc0 09bd c692 203d bbc6 b33c
000002f0: 9115 b13c a327 9fbb 7fdf 013d 876e 19bd
00000300: 6d50 8e3c fdc2 183d b16f ed3c 73b6 cb3c
00000310: 8401 e4bc 85df fa3c c325 013d 077c 933c
00000320: df5b 6bbc c2d5 f7bb 6d86 313c 9986 2cbd
00000330: 5786 9cbc 5910 a0ba 7b38 ae3c e45b 403c
00000340: 41d3 e63c ede8 013d 280e 073b d7ec 813b
00000350: ddfd 87bb e9d5 bc3c 4873 0a3c e289 01bb
00000360: c280 a33c aa63 d8bb 9bf3 263b a272 d93c
00000370: 9c89 023d 1622 cb3c a29c 633c 8ea3 b7bc
00000380: 73d8 a83c 4207 00bd 9983 e7bc 8af0 f03c
00000390: 7736 8e3c 7d26 80bc 44a6 553b bba5 dfbb
000003a0: 8b3c 31bc 4c20 be39 1438 713c 3327 853c
000003b0: 30f7 363d 1614 5b3c 205b edbc d638 793c
000003c0: 7ad6 853c 1523 06bd 1899 903b 18bc e9bc
000003d0: 6013 e1bc 1c9d 323c b250 7ebc 2908 3c3d
000003e0: 0607 1abc fdec 3d3c a332 ff3c 23d9 40bc
000003f0: bf52 b8bb 781b d43c ebb4 873d 4798 f03b
-0.041438516 -0.012962092 -0.02047498 0.012005012 -0.034300175 -0.023592675 0.025585433 -0.016938394
0.0151187265 -0.021263918 -0.020153156 0.004588899 -0.02978966 0.032909416 -0.04877183 0.009003328
-0.019751176 0.0076592583 -0.009101599 -0.008778878 0.013357969 0.018576562 0.020358881 0.009835848
-0.026838742 0.012817136 -0.01292947 -0.01669257 -0.022943085 0.007117205 -0.018033393 0.027161257
6.483072e-05 0.02207811 -0.003222837 -0.0014875156 0.013839314 -0.006492972 0.0060289754 -0.014805979
-0.02548958 -0.0063185026 -0.036420044 0.0067683295 0.010160233 -0.016483244 0.015748505 0.015045377
-0.032531925 0.013688326 0.018566439 -0.022025282 0.027871516 -0.003152367 -0.011608025 -0.033677995
0.0017816864 -0.03035322 0.032840334 0.024970587 0.008487122 0.03363218 -0.034821827 0.011626132
0.02969139 -0.009618051 0.020495553 -0.024839804 0.030624578 0.017230399 -0.017793497 -0.023064211
-0.009831488 0.0036837833 0.01089539 0.026551865 0.028546616 -0.027793597 -0.02454457 -0.01906894
0.042770505 -0.013471901 0.028697977 0.03679575 -0.0011754364 0.024083246 -0.01002653 -0.024619047
0.00051502336 0.045442972 -0.00073738216 0.02324093 0.024586566 0.0012002427 0.0030845443 0.03542252
0.0029380654 0.00498286 -0.034633845 -0.024964055 0.005272045 0.018713064 0.011241789 -0.007853329
-0.026152952 -0.03171407 -0.014037403 -0.010200767 0.029070437 0.017872829 0.011371191 -0.021361338
-0.031419724 0.002775871 0.036151882 0.044409346 0.008983536 0.044826247 0.005521898 -0.027630385
-0.008750598 0.03682973 0.012148781 0.14643946 0.0143359015 0.039285313 -0.035711378 -0.028615857
-0.00031902434 0.017568097 0.1351846 0.06444767 0.04039671 0.02826628 0.010003596 0.023244565
0.10191866 0.07727407 0.013529848 0.034407675 -0.020224392 0.015421246 0.05140996 0.09950304
0.0779047 0.047648255 0.027117759 0.00034743286 -0.033072434 -0.0121084545 -0.03152241 0.03281034
0.005684644 -0.028730394 0.014156657 -0.026730714 0.027972672 -0.010657599 -0.024487432 0.025630048
-0.00071665755 -0.022116024 0.033429008 0.015698368 -0.03156509 -0.030363264 -5.9964754e-05 -0.022757329
-0.017427294 -0.0022290337 0.0057772063 0.016257621 -0.0010239618 -0.0053258673 0.01851512 -0.012703635
0.016235508 -0.0051663904 0.021019964 -0.014464357 -0.019419987 -0.018517887 0.02077673 -0.0027187688
0.0051064063 -0.033630956 0.039202474 0.021945348 0.021616729 -0.00485702 0.031707283 -0.037458923
0.017372334 0.03729533 0.028983923 0.024867272 -0.027832754 0.03062416 0.031530153 0.018003477
-0.0143651655 -0.0075633237 0.010835272 -0.04212055 -0.019107027 -0.0012211903 0.021267166 0.011740658
0.028176906 0.031716276 0.0020607803 0.003965001 -0.004150136 0.023051219 0.008450337 -0.0019766022
0.019958857 -0.0066036778 0.002547479 0.026543919 0.031869516 0.024796527 0.013892325 -0.022416856
0.020611024 -0.03125692 -0.028260993 0.029411573 0.017359955 -0.015643353 0.0032600323 -0.0068251765
-0.010817657 0.00036263687 0.014722843 0.016254043 0.04466933 0.013371488 -0.028974116 0.015211305
0.016337622 -0.0327483 0.0044127814 -0.028532073 -0.027475059 0.010901716 -0.015522169 0.04590622
-0.009401089 0.011592147 0.031152075 -0.011770519 -0.0056250985 0.025892004 0.06626304 0.0073423716

main.7.bias f4 [16]
00000000: ea55 803c a03e c13c 9b73 e8bc bf54 b43d
00000010: a446 b03c e4e6 e3bc ef24 6cbc ba04 ba3d
00000020: 0a30 51bd 6224 313d 2a71 5f3b b285 06bd
00000030: c98f 223d ddde 17bd 2798 283d 2501 0cbc
0.015665967 0.023589432 -0.028375437 0.088052265 0.02151806 -0.027820058 -0.0144131025 0.09082933
-0.051071204 0.043247588 0.003409455 -0.032842346 0.039687905 -0.037077773 0.04116073 -0.008545195

main.9.weight f4 [1, 16]
00000000: 16d9 803e e824 a6be 75b6 893e 8083 3bbe
00000010: bfea 41be 8587 893e 3a9a 1a3e 2c78 30be
00000020: 8bbc 523e 81c6 c4be 4288 533e d071 433d
00000030: d5d0 15bd 11b0 8c3e c6a8 29be fae6 4e3d
0.25165623 -0.32450032 0.26897016 -0.18311882 -0.18937205 0.26861206 0.15097895 -0.17233342
0.20579736 -0.38432696 0.20657447 0.047715962 -0.03657611 0.27478078 -0.16568288 0.050513245
